feat_pickles/2015_B_187.75925_188.1885.wav.npy (npy, 4432 bytes, 1 tensors)

array (column-major) f8 [16, 34]
000000 2a 62 a9 88 a5 22 c6 3f 4a b4 29 d1 a6 44 cb 3f
       0.17293233082706766 0.21303258145363407
000010 6c b9 b1 e5 c6 96 cb 3f 6c b9 b1 e5 c6 96 cb 3f
       0.21553884711779447 0.21553884711779447
000020 6c b9 b1 e5 c6 96 cb 3f 7e 95 f9 55 e6 57 c9 3f
       0.21553884711779447 0.19799498746867167
000030 4a b4 29 d1 a6 44 cb 3f 35 03 d5 0c 54 33 d0 3f
       0.21303258145363407 0.2531328320802005
000040 26 fc 99 f0 67 c2 cf 3f 2a 62 a9 88 a5 22 c6 3f
       0.24812030075187969 0.17293233082706766
000050 38 d8 e1 60 87 83 bd 3f 90 71 41 c6 05 19 b7 3f
       0.11528822055137844 0.09022556390977443
000060 3c 3e f1 f8 c4 e3 b3 3f 08 5d 21 74 85 d0 b5 3f
       0.07769423558897243 0.08521303258145363
000070 a0 9a 81 6a 06 aa b9 3f 5c 90 71 41 c6 05 b9 3f
       0.10025062656641603 0.09774436090225563
000080 56 11 6d 5e 64 5d a7 3f 60 3c 1c 81 e6 57 aa 3f
       0.04563439991628353 0.05145187688878461
000090 c0 d1 50 96 af fb a9 3f e3 c5 d0 ee 72 a2 b0 3f
       0.05074833593281225 0.06497877436120052
0000a0 47 72 3d 50 10 f3 b1 3f ef 5c 2a ca 3e 84 aa 3f
       0.07011510809884057 0.05179020135727252
0000b0 11 62 4c c0 23 e2 a3 3f c0 62 56 99 bd b5 a1 3f
       0.03883468363182286 0.03458969589991545
0000c0 7f 58 d7 72 87 c3 9d 3f 1f 3d 3a bf ba 1d 8b 3f
       0.02906619680819533 0.013240298233795187
0000d0 ca cb 67 4f 35 40 70 3f 07 a6 9f f6 34 f0 63 3f
       0.003967483752137244 0.0024338755074395676
0000e0 da 13 88 e3 30 6b 63 3f 51 ba ec cc be 1d 64 3f
       0.0023704485759048323 0.0024555899211898065
0000f0 16 24 c5 3e 98 d3 61 3f 83 e2 7a a3 03 be 54 3f
       0.0021760915316559977 0.0012660060437338645
000100 fe bb 2e 0e 3b e2 09 40 ab 46 e5 8c 06 eb 09 40
       3.2354642017376127 3.2397585875958916
000110 a4 cc 17 e2 32 8e 09 40 4a 70 cb 8b f0 8c 08 40
       3.1944329894555086 3.0688181802234213
000120 7d ed 85 20 7d 7d 08 40 44 d3 b6 26 5d 9d 08 40
       3.0612738171454894 3.0768378281158295
000130 15 41 cc 60 42 00 09 40 a2 9e 0d 88 d9 82 09 40
       3.1251266062100833 3.1888914708286658
000140 03 bf 60 dd d7 db 08 40 b3 8e 22 2e a9 74 05 40
       3.10734532310005 2.681963310651406
000150 7c ed e2 bb bd 0e 07 40 de ff 86 6a e6 32 0a 40
       2.8821978262546377 3.274853546376092
000160 e5 c6 e4 36 c5 4f 0a 40 06 76 7d fb 82 5a 0a 40
       3.2889503754203013 3.294195141569392
000170 85 62 e1 53 e2 2b 0a 40 87 75 33 9e d5 86 08 40
       3.2714277794987674 3.06583713144818
000180 09 85 62 49 df d2 d1 3f 93 ca ce 56 f3 3c d1 3f
       0.27849561850060006 0.2693451259357655
000190 01 4f 4c 9f 67 76 d1 3f 29 ed 32 a8 2c 8f d1 3f
       0.2728518539090459 0.2743636744086922
0001a0 e3 32 a0 15 b9 a9 d0 3f 37 53 48 09 e2 e0 d0 3f
       0.2603590689839576 0.26372576624389715
0001b0 73 db 68 2e 5c ca d0 3f 2a e8 53 15 83 44 cf 3f
       0.26235107929408413 0.24427832166094393
0001c0 d6 52 8f b0 e3 e4 ce 3f d1 f6 9a 53 8b e6 cc 3f
       0.24136015053831866 0.2257856519917625
0001d0 b8 ab 21 42 f9 6d c9 3f 8a 00 d9 3d d5 0d cc 3f
       0.1986686299236149 0.21917214889436237
0001e0 b9 69 de bd b2 8e ca 3f 20 1f 96 41 3e 2e cb 3f
       0.2074798037618402 0.2123487301107554
0001f0 e9 61 fb b5 d4 ea cb 3f fd 1b be 4d 5c 8b cd 3f
       0.2181039703925898 0.23081544681573965
000200 2e be 22 0e 81 68 cc 3f 24 77 21 80 c0 01 ca 3f
       0.22193921270580702 0.20317846542723672
000210 53 f5 a7 c8 c7 79 c8 3f c7 c2 5a 04 75 12 c6 3f
       0.19121644303951743 0.1724382659208656
000220 e2 32 9b f5 16 54 c4 3f 9e 9d 96 57 57 93 c5 3f
       0.1588162135361904 0.16855899597906626
000230 fb 95 09 1f db 1b c5 3f 06 6a 9b 86 26 e6 c4 3f
       0.1649125958967231 0.16327363560306213
000240 d8 be c5 fd 4e a6 c4 3f 56 d1 84 3e 6f 0f c4 3f
       0.1613253344653376 0.15672102501560897
000250 30 f7 bb 61 29 4b c5 3f f8 59 48 f7 04 07 ca 3f
       0.16635625145129884 0.20333921503397767
000260 0c 28 81 b1 c8 4f ca 3f 2e cf 63 95 0d d2 ca 3f
       0.2055598131867672 0.20953531069209802
000270 6c 6b 42 da d3 73 cc 3f 2f f0 03 72 01 e5 cd 3f
       0.22228477627944743 0.23355119769246488
000280 8b 34 af a6 3b d6 f6 3f d3 cd 56 65 31 2c f5 3f
       1.4273029814824294 1.3232892950589885
000290 77 5c 2a ab 6b ee f7 3f 4e b4 59 44 fd 65 fb 3f
       1.495708149542933 1.7123997373521607
0002a0 29 7b c7 b5 f1 80 fb 3f 99 b9 b9 22 9a 5c fb 3f
       1.71898051269063 1.710107932707251
0002b0 6e fa dd 21 41 76 fb 3f 51 a4 c4 bc c5 3d fe 3f
       1.7163707087453548 1.8900811551814238
0002c0 1c ae 98 2a 67 55 fd 3f 42 5f 83 bd a6 b1 fa 3f
       1.8333503402635705 1.6683719065531055
0002d0 58 41 5f 26 c4 93 f9 3f 91 dd dd f2 bb 94 f0 3f
       1.5985757349881933 1.036312054345988
0002e0 cd 71 4f ed 26 44 f0 3f e9 c4 6c 3d 51 a2 f0 3f
       1.0166386861738943 1.039628257695137
0002f0 e2 99 45 e2 42 e0 ef 3f ed 7e a9 68 90 02 ed 3f
       0.9961256427166598 0.906563000124121
000300 00 00 00 00 00 00 00 00 25 52 9a 6f ef 66 85 3f
       0.0 0.010450239747378973
000310 5a 93 f4 f5 c2 69 88 3f 03 0d fb e5 6e 57 94 3f
       0.011920474177324603 0.019864781176477397
000320 5b 8a ed 37 4e d3 6c 3f aa 78 46 dd a9 e1 5f 3f
       0.003518727083631474 0.001945892222557736
000330 c1 32 ad fe fd 64 68 3f 14 d9 f8 52 d9 d4 8f 3f
       0.0029778443180588925 0.015542695850950618
000340 6a 2d d4 de 63 d3 67 3f be ac d2 a1 c3 d8 7c 3f
       0.002908415851043668 0.007042659938785776
000350 67 ff 7e 8b 69 44 7e 3f fc 1f 56 11 fb 59 93 3f
       0.007389461788932162 0.01889793675721306
000360 b8 64 bc a7 a9 77 96 3f 3d f2 83 ab 25 9a 83 3f
       0.021940852034366215 0.00957135610269077
000370 82 ac c4 2b ed 9e 5f 3f 7f fe 70 35 96 0e 81 3f
       0.001929980861926223 0.008328603273297873
000380 52 b8 1e 85 eb 51 c8 3f e1 7a 14 ae 47 e1 ca 3f
       0.19 0.21
000390 00 00 00 00 00 00 d0 3f 29 5c 8f c2 f5 28 d4 3f
       0.25 0.315
0003a0 29 5c 8f c2 f5 28 d4 3f d7 a3 70 3d 0a d7 d3 3f
       0.315 0.31
0003b0 d7 a3 70 3d 0a d7 d3 3f d7 a3 70 3d 0a d7 d3 3f
       0.31 0.31
0003c0 85 eb 51 b8 1e 85 d3 3f 48 e1 7a 14 ae 47 d1 3f
       0.305 0.27
0003d0 b8 1e 85 eb 51 b8 ce 3f 5c 8f c2 f5 28 5c cf 3f
       0.24 0.245
0003e0 cd cc cc cc cc cc cc 3f 33 33 33 33 33 33 c3 3f
       0.225 0.15
0003f0 71 3d 0a d7 a3 70 bd 3f 29 5c 8f c2 f5 28 bc 3f
       0.115 0.11
000400 fe 64 09 bf 46 6a 36 c0 4a b2 57 fc e4 3d 36 c0
       -22.415142001908855 -22.241775294695152
000410 c1 32 87 55 00 14 36 c0 9c 0a a5 50 91 60 36 c0
       -22.078130097873103 -22.37721733121235
000420 5d 02 89 85 64 71 36 c0 72 d7 ff c7 72 a2 36 c0
       -22.442940088223953 -22.634563922845196
000430 62 60 80 0c 99 88 37 c0 c9 83 10 00 d4 50 37 c0
       -23.533585339872282 -23.315734867126398
000440 30 91 bc 87 d7 bf 37 c0 4e d4 55 fc 6c 82 38 c0
       -23.74938248017969 -24.509475489572928
000450 69 ee e8 24 26 06 3a c0 ee 79 8a 70 ab 67 3b c0
       -26.02401953398513 -27.404959710891426
000460 0a 53 2e eb e4 46 3b c0 66 81 c4 4e ae c8 3b c0
       -27.276930521783505 -27.78390972421166
000470 a9 8c 86 de 96 e5 3b c0 11 35 ae bc 2a 40 3c c0
       -27.89683333191775 -28.25065211537464
000480 14 7b 9e 49 6d 24 fa 3f 87 1d 78 2b 11 a1 f8 3f
       1.6338932872528789 1.53932301502377
000490 2a 93 e1 63 43 24 f6 3f 16 2e bf 95 e5 74 f0 3f
       1.383853330765485 1.028539261768747
0004a0 c3 81 b8 b1 6c 23 f1 3f 3a 16 c9 92 47 71 f3 3f
       1.0711485807624832 1.2151561483200468
0004b0 f9 83 de e0 f2 05 f2 3f 42 ad a8 8a 5a 7a fd 3f
       1.1264523300126241 1.842371503483108
0004c0 04 7c c2 c6 ee 13 01 40 e6 11 38 08 1d c5 03 40
       2.1347327735998096 2.4712467805968457
0004d0 d5 fd 7f 74 cf 74 09 40 26 d5 18 30 ab c9 04 40
       3.1820363141593853 2.5984710462168037
0004e0 80 8d cd ce 82 81 06 40 7c b6 34 7c 80 d0 03 40
       2.8132377773742405 2.4768075660311393
0004f0 18 24 13 5e 62 29 04 40 b8 f8 31 dc f0 d3 03 40
       2.520207152327668 2.47848674800397
000500 dd 37 c9 20 b5 0b e2 bf 6b 3a 02 92 c2 bc f1 bf
       -0.5639291420318348 -1.108583994242191
000510 c6 74 95 23 49 e0 f7 bf 5c ac 49 0e 24 27 00 c0
       -1.4922572507851313 -2.0191117397530842
000520 86 67 c8 bc a3 76 04 c0 2c b0 4d f6 01 24 03 c0
       -2.557929491868836 -2.392581867452483
000530 63 60 bd b0 6b 78 03 c0 33 a7 bd 07 53 59 03 c0
       -2.433799153117478 -2.41861539886022
000540 0a 17 90 7d 57 7b 02 c0 21 71 a0 e8 03 00 01 c0
       -2.3102254685972 -2.125007455250071
000550 b3 26 9d 97 69 88 f7 bf a7 9c 31 57 89 92 e8 bf
       -1.4708038256089082 -0.7678877547267761
000560 93 3b 25 eb b7 3c d4 bf 92 69 b1 2d fc e7 e2 bf
       -0.31620595897123244 -0.5908184902612439
000570 46 fd 94 af fb e5 b0 3f ed 86 b3 eb dd c6 dc 3f
       0.06600926434201879 0.4496378709574021
000580 4f 8d 8f 05 99 ba f0 bf f2 fe 19 af 65 3b e9 bf
       -1.045556089135818 -0.7885006351425246
000590 aa d3 19 31 d2 39 d9 bf c4 9f c4 03 5c ba c9 3f
       -0.3941541175366249 0.20099973854052966
0005a0 15 2c d4 d6 08 95 b7 bf 9e fc 61 7a 8b 77 92 bf
       -0.09211783642619793 -0.018034152359629567
0005b0 92 82 4d ac 81 a5 80 3f f7 34 2c 67 9a ef d7 bf
       0.008128178663981776 -0.37399921489198057
0005c0 22 6b 94 9a 0b 8b b3 bf 40 63 04 b8 f1 68 b1 3f
       -0.07634041332168498 0.06800757162671989
0005d0 ec be a9 94 77 a4 a5 3f 4d 4b 50 49 3e 8b d4 3f
       0.042270409486148214 0.32099873694931064
0005e0 28 22 01 b1 34 33 d7 3f 12 3d b8 de 5b 3f c8 3f
       0.36250035558308236 0.18943355917915788
0005f0 8f ca 1e a3 53 2a d5 3f f1 c0 b1 23 34 10 c9 3f
       0.330708417222163 0.19580699675453375
000600 31 e2 47 6d 99 cd e2 bf 30 bb 06 b0 72 af dd bf
       -0.5875975736990481 -0.4638334959990287
000610 5b 10 81 6d 99 69 d7 bf 1a ef b1 6b cb 4b 82 bf
       -0.36582027143254486 -0.008933629249660725
000620 f3 d1 ee 4a 92 12 bc 3f c8 76 30 86 52 5d ca 3f
       0.10965837792793547 0.20597297241413615
000630 be 09 e1 75 29 24 d8 3f 78 8c 37 d0 05 97 92 bf
       0.37720715057016807 -0.018154230912739128
000640 e8 95 b1 e4 05 bd b4 3f 4a d4 75 d5 5c 63 cb 3f
       0.08100926240293627 0.21396980688919803
000650 e1 20 8e c3 71 47 da 3f 3e f4 93 0e 9e dd c6 3f
       0.41061061951815075 0.17863822662175893
000660 8b 73 a4 96 9b 71 7f 3f b5 12 f1 7d 21 6e ae bf
       0.0076767041848854285 -0.059433981536618864
000670 c7 50 05 9b ca f2 d9 bf a6 f3 b4 ad 92 f6 e7 bf
       -0.4054438127398154 -0.7488492386543057
000680 3f 4a f5 e9 9c d8 db 3f 3a 69 c2 69 32 07 df 3f
       0.43509600493885964 0.48481426551883866
000690 2b 65 c9 1d 06 5c b3 3f e0 9e 92 30 75 7d ae bf
       0.07562292315687517 -0.05955091684273639
0006a0 bd c3 7d 9e 91 11 c6 bf 17 1c ef 4d ce ec c3 bf
       -0.17241115797835774 -0.15566424184200464
0006b0 04 b3 f7 b2 e0 18 ca bf d1 81 10 bd 17 05 e5 bf
       -0.20388420809413088 -0.6568716709771768
0006c0 7f 43 cf 24 c6 cb e8 bf 7b 82 47 8e ed 31 e2 bf
       -0.7748747557580912 -0.5685947207349068
0006d0 93 67 92 03 ef 13 e1 bf 6f fd ad d4 36 17 f0 bf
       -0.5336833066714796 -1.0056675250815166
0006e0 ce 5d 26 0b c0 a9 ea bf e8 6b da 4c de 7b d6 bf
       -0.8332214563151241 -0.35131032471843904
0006f0 a3 73 7e 79 83 5b e1 bf ef e9 2f 9d 70 53 e7 bf
       -0.5424210904053449 -0.728935534483126
000700 78 28 38 fd 4d 94 e8 bf 9e 73 a6 d6 4e 9f e5 bf
       -0.7681035943690082 -0.6756967728029968
000710 ce 99 fe 39 71 e5 e5 bf dc 50 4e 36 d0 6f cb bf
       -0.6842580921846151 -0.2143497719922668
000720 28 99 68 4b 2d 79 c7 bf 2b 5c ec 49 73 20 88 bf
       -0.18338552648601447 -0.011780644124469294
000730 f8 47 98 09 1a f2 a9 bf 11 78 d7 f9 99 c4 a8 bf
       -0.050675214453931916 -0.048374950168849414
000740 e7 fa 8c 56 06 e6 91 3f c7 75 03 e5 ab 86 c9 bf
       0.017479037315974912 -0.1994223468999918
000750 c4 f5 4c e2 69 b7 e1 bf 6a a9 ea 3d 48 90 da bf
       -0.5536393566068729 -0.4150562863020669
000760 28 91 0c c3 32 37 d1 bf 0c 4d 59 e4 5e 0a 95 3f
       -0.26899403617632567 0.02054737347345985
000770 59 a6 85 e9 99 e6 c6 3f 44 71 d5 f1 3b a8 62 3f
       0.17891239073223877 0.0022774859232141138
000780 18 a6 89 97 33 48 d2 bf 8f 6b 55 35 86 da bd bf
       -0.2856568317280064 -0.11661566545573819
000790 72 de cf 5b 56 0a d1 bf 42 94 41 4f 11 2a d6 bf
       -0.2662559410668798 -0.3463176034914036
0007a0 42 22 fe 4c b0 bc db bf df 8e 05 fb b6 2e d3 bf
       -0.433391642749971 -0.2997262431510829
0007b0 88 e6 09 5d 1a 2d d4 bf be ca ff 6e 53 b6 d1 bf
       -0.31525286756332394 -0.2767532905556144
0007c0 61 79 1d c9 b0 37 d8 bf 6d fb 58 0b fc f6 b9 bf
       -0.37839908256673566 -0.10142493512192426
0007d0 ff 67 ea 5e 62 c7 a8 bf ab 84 f4 f4 f0 d4 d2 3f
       -0.04839618118894861 0.29424690171624474
0007e0 f9 9d 6e aa e9 77 df 3f ec d6 05 2a e9 04 e9 3f
       0.49169389384994094 0.7818494625814458
0007f0 cb e3 07 8c 43 73 e2 3f dd 74 da 39 00 1b 9b 3f
       0.5765702948548265 0.026470187693679804
