feat_pickles/2287_B_233.579625_233.689625.wav.npy (npy, 896 bytes, 1 tensors)

array (column-major) f8 [3, 34]
00000000: 6e6c b9b1 e5c6 d63f bd17 f55e d47b d13f
00000010: 4ab4 29d1 a644 cb3f ec31 5e40 25be 523f
00000020: e4ae d18f 7875 ad3f 039e 94ff 6606 be3f
00000030: e902 2bd8 696e 0640 9c07 5c23 8b19 0340
00000040: 18cc e3b8 2a59 0a40 f3d1 0984 3ca8 d73f
00000050: 98ad 82fe ef39 d03f 23fc eba2 593d d23f
00000060: 319c ab78 de80 cc3f 7568 516a 6a47 c73f
00000070: 84fc ec6d 7bab c83f 42b7 2bad c987 0540
00000080: 5cb0 c631 8416 f93f 7cde 20a8 b642 fa3f
00000090: 0000 0000 0000 0000 53ca 9a7b 359f 873f
000000a0: 82e4 68a4 1159 733f 1f85 eb51 b81e e13f
000000b0: 9a99 9999 9999 d93f ec51 b81e 85eb d93f
000000c0: 203f 666f e8df 39c0 aaa7 e9ad b3c1 35c0
000000d0: 5dd7 0e04 4321 35c0 5bb0 e6f9 b43a d73f
000000e0: b556 91ff 2c47 fd3f 32c9 f915 cb52 f23f
000000f0: bdf4 f788 1351 eabf b56b 8cd1 7ed5 f4bf
00000100: 1cbe ecf6 8070 f7bf c862 5168 1b7f c13f
00000110: b25e 307b 98d7 bebf 3b62 15e5 34b9 e0bf
00000120: 79d2 2bd6 10de d4bf 2d46 efe5 1a61 efbf
00000130: 8d49 3006 484a f7bf 71ff b4d4 91d2 cf3f
00000140: 55ef 721d 8852 d03f ea05 5837 320c cc3f
00000150: b336 44b9 b9af d0bf bda8 52dd 5b64 c93f
00000160: 47c8 1db3 c197 c8bf 028c abad 96ad 8dbf
00000170: 79b0 6cce fa9e a4bf 9b8b 947b 485f dbbf
00000180: 4673 ffe5 12ca b5bf f23f 3198 8f41 a33f
00000190: 1f30 956d d893 bdbf 132e a207 e4bf d0bf
000001a0: 24c9 b70e 4256 e1bf cbc9 5a3b 6c1d e9bf
000001b0: 8c21 95b1 92b5 b0bf 1760 4e87 1e22 e1bf
000001c0: 2b4b 84eb 83c0 dcbf 022e 1d24 c129 9bbf
000001d0: 2ef1 2ba5 08d0 cdbf 292d 047e e396 d4bf
000001e0: 1cd7 75fa 62db cabf cec7 d5d3 8b6a d7bf
000001f0: aba8 a4ea 6333 e5bf 1f06 b074 5a83 6f3f
00000200: 880f a2c0 d336 5e3f 206d 978f 9cc4 7d3f
00000210: 28f2 f6f8 f32a 903f 50f7 2a57 2139 903f
00000220: 9d4b a46e 130e 923f 32ef 4d59 f33a 913f
00000230: 9181 30ed b579 ac3f 7465 5ded 5f15 953f
00000240: bf17 f955 6c01 783f 73ec 6dda 174d a13f
00000250: 93a8 a4c2 4641 8d3f b39e 910a 84c9 823f
00000260: 9ed8 2bc4 9eef 843f 8a03 1f2e 51c8 773f
00000270: bab6 942d 2d06 843f 55a1 059d 3d92 713f
00000280: cf98 c80b cd4f 6b3f c255 c47d 2a54 813f
00000290: 9c75 26fa bf93 543f 071a 45fe 74f6 5e3f
000002a0: bd63 47fd 0858 703f da8e 3261 f263 5f3f
000002b0: b196 fc8a 1402 6e3f 1c6d 66c0 a95b 903f
000002c0: 4c2a 0da1 ded4 863f 1fce 6ae6 827d a03f
000002d0: 3e15 0ce5 041e 803f 8327 0ee6 cefa 653f
000002e0: e891 4c5b 5026 4d3f 5718 c6fd 816c 803f
000002f0: a8d5 0f16 bf6c 633f dffa bb6b d0dc 773f
00000300: 815a dd6d 7e18 913f 5f5b 1a52 a006 693f
00000310: d59b 86b9 1980 603f f35a 659a b72b 733f
00000320: de95 ff4a 0d49 903f 7149 4849 27e1 823f
0.3558897243107769 0.2731829573934837 0.21303258145363407 0.0011439670356337929 0.05753685718158666 0.11728519191512281 2.80391281968365 2.3874724161586993
3.2935385174291802 0.3696433343350513 0.2535362229779934 0.2849945155175552 0.22268277065379175 0.1818669337397442 0.1927332197901458 2.6913026360479373
1.5679971641902943 1.6412874763026641 0.0 0.011534135660757594 0.004723614611571782 0.535 0.4 0.405
-25.874640428984208 -21.756647939247763 -21.129928830741267 0.36295818714530065 1.8298768981089044 1.1452132090021903 -0.8223970103423636 -1.3021228967179301
-1.4649667401789719 0.13669149964950678 -0.1204772282366047 -0.5226082300460527 -0.3260538188472207 -0.9806036463653008 -1.4556350938551958 0.24861357580266089
0.2550373351657432 0.21912219717346143 -0.26072543232372 0.1983752089193497 -0.19213124509730248 -0.014491250205031395 -0.04027541894751691 -0.42769062107452677
-0.08511465182477904 0.03760956509415782 -0.11553719210968481 -0.2617120813890505 -0.5417795455416905 -0.7848416480322212 -0.06527058444510753 -0.535414947767097
-0.44925020217594874 -0.02652646811411153 -0.23291118683835904 -0.32170951181679414 -0.209820148749423 -0.36587806403178724 -0.6625232298731779 0.003846813842302024
0.0018441265006296798 0.00726758152583365 0.015788852758975264 0.015842934556295873 0.017631820323980574 0.016826441121778397 0.055616078571122725 0.020589350569343037
0.0058607322567407185 0.033791299260848805 0.01428466111663721 0.009173423359427479 0.010222664224312002 0.005806271657946458 0.009777405694502906 0.0042898566028742495
0.00333395050099048 0.008461315119840832 0.0012559294487809241 0.0018898146164062506 0.0039902068278587196 0.0019159190167465285 0.0036631013134805425 0.015974666946573554
0.011148204126262183 0.032207575442410034 0.007869756927457613 0.0026830712308240647 0.0008895771376030122 0.008019462163030662 0.0023711902763305544 0.005825819152731808
0.01669499917565043 0.0030549174560507287 0.0020142080722566993 0.0046803638454864125 0.01590367098096645 0.009218508647823783
