feat_pickles/2304_B_394.447375_394.687375.wav.npy (npy, 2256 bytes, 1 tensors)

array (column-major) f8 [8, 34]
0	0x3fc1a4e469391a4e	0.13784461152882205
1	0x3fc391a4e469391a	0.15288220551378445
2	0x3fc5d08574215d08	0.17042606516290726
3	0x3fc622a588a9622a	0.17293233082706766
4	0x3fc76b25dac976b2	0.18295739348370926
5	0x3fc4da2536894da2	0.16290726817042606
6	0x3fc00a44029100a4	0.12531328320802004
7	0x3fc00a44029100a4	0.12531328320802004
8	0x3fc6c8281fa1b4d3	0.17798329872622407
9	0x3fc50c9e12b424cd	0.16444755471483177
10	0x3fbfe10cbcafbad7	0.12452773672678617
11	0x3fbbf7a00f3d1529	0.10924721118961557
12	0x3fbab563ea8bb64f	0.10433029628958333
13	0x3fb85dd7936fdc20	0.09518191670927978
14	0x3fb16d94868ca2b1	0.06807831082245276
15	0x3f98f30824eff88a	0.024364592794875274
16	0x400a7f3971b634e4	3.312121284840588
17	0x400a58222aacc1de	3.2930339178057997
18	0x400a60a8fac332bc	3.2971973028964765
19	0x400a77a17a3f5dbb	3.308413462694913
20	0x400a6ca7d4c141ec	3.3030544873693
21	0x400a6f0515c4c444	3.30420891768202
22	0x400987816f97b67b	3.191164848153503
23	0x40039fb479bab862	2.452980948458433
24	0x3fcf76080c7d99af	0.24578953370946752
25	0x3fd0fdb9c599ccee	0.26548618599845397
26	0x3fd0dc68d1deefe6	0.2634527253646851
27	0x3fd2324177f19653	0.2843173667264171
28	0x3fd25c59730fe8ee	0.28688656078851593
29	0x3fd1fd49e57fcb4e	0.28108451282530644
30	0x3fd24e3f1f59f76a	0.2860257917562793
31	0x3fd13e1528757af4	0.2694142241579549
32	0x3fc83ee4a26c97f2	0.18941934519642661
33	0x3fc941bd4dc75c10	0.19731870935240226
34	0x3fc7b0b9c53d9cd5	0.1850807393159132
35	0x3fc97328f8ce916c	0.19882690571570139
36	0x3fcadea8f6b91bff	0.20992004439378317
37	0x3fc98b455ced2f01	0.1995627120726269
38	0x3fca1edcaf2f2fb3	0.20406683496400788
39	0x3fca7226d49fdac8	0.2066086328702197
40	0x3fee75a6c190eb8d	0.9518617420757082
41	0x3ff25e2484383b74	1.1479840435819968
42	0x3ff4875eb707238b	1.2830493115927506
43	0x3ff54675fa299824	1.3297023555728709
44	0x3ff81b532f9d4771	1.5066711292206174
45	0x3ff788dfc642f4e8	1.4709165329543854
46	0x3ff421480ba49435	1.2581253485489132
47	0x3ff257c34786a6df	1.1464264673217526
48	0x0000000000000000	0.0
49	0x3f69257e9a222347	0.003069636602110046
50	0x3f83e1c451bb3d0c	0.009707959884876625
51	0x3f88d1b29fb43f05	0.012118716715604725
52	0x3f7bb09df51c2f87	0.006760231992085758
53	0x3f7b95249a4f7ecf	0.006734030704109008
54	0x3f82feb4f2f1ae71	0.009274877227844787
55	0x3f85c438f81fb223	0.010628171035898032
56	0x3fc7ae147ae147ae	0.185
57	0x3fd0a3d70a3d70a4	0.26
58	0x3fd428f5c28f5c29	0.315
59	0x3fd6666666666666	0.35
60	0x3fd8a3d70a3d70a4	0.385
61	0x3fd947ae147ae148	0.395
62	0x3fdb851eb851eb85	0.43
63	0x3fceb851eb851eb8	0.24
64	0xc0355d16c8c0e8cf	-21.363628909203552
65	0xc0355adb4fcb863d	-21.354908930958334
66	0xc03556688bd3bcf7	-21.337532748407252
67	0xc035b10f14e05532	-21.691636376160382
68	0xc03577cd5eb5efba	-21.467977446954798
69	0xc03586cae9532983	-21.526533682635556
70	0xc036371e55dda7f7	-22.215306631675016
71	0xc037384aba754d05	-23.219890264165787
72	0x3ffc420bb0e9ee9a	1.7661244307227322
73	0x3ff378e8047d346d	1.217018144164537
74	0x3ff382c5ac5887a3	1.219426797128542
75	0x3ff07e146054ac96	1.030781151096368
76	0x3ff5fdb421e2de9b	1.3744393657379195
77	0x3ff6b942defc8f44	1.4202297888195554
78	0x3ff546cbb44d18fb	1.3297841113104016
79	0x3ffd5e819d07cbd0	1.835572827720842
80	0xbff9c4525840f262	-1.610430092564592
81	0xbffd4ff2cb803646	-1.8320186566592311
82	0xbffa7acbdaec2236	-1.6549795676857122
83	0xbff4a02d6969c46b	-1.2891058080388358
84	0xbfebcd33ad3368ff	-0.8687990553692372
85	0xbff0b7db08b9c85d	-1.044886621556109
86	0xbfe79b71ed61aa34	-0.7377252231938827
87	0xbfe3e9820fff1abd	-0.6222544014388728
88	0xbfe37fe9fb6da8fe	-0.6093645010671762
89	0xbfe44e74c3968169	-0.6345771617962274
90	0xbfe927efbaee6c4e	-0.7861250544550644
91	0xbfb063c6af399342	-0.06402246263458003
92	0x3fb547881e8d9da9	0.08312273736884514
93	0xbfd851639802111d	-0.37996759266413155
94	0xbfd9f0a78cf2f862	-0.405313384671791
95	0xbfe4cf0259ea1873	-0.6502696758405037
96	0xbfe1455c4c9fc507	-0.5397168633045631
97	0xbfd7d19dbe77bda1	-0.3721689567600724
98	0xbfe8a7f94ea33c87	-0.7705046211139156
99	0xbfc2aee95d88ed91	-0.14596287791378562
100	0xbfd3c220c4d8564e	-0.30872363303328576
101	0xbfe74e63aaff2449	-0.728319009759738
102	0xbfec1ab80e7fa1eb	-0.8782615931677901
103	0xbff47d2144d2ea3c	-1.2805493057663986
104	0x3fbf51b5eb5f0a2b	0.12234055515640622
105	0x3fd5b6eb35191697	0.3392894762549558
106	0x3fd7c2253a92f4db	0.3712246963512606
107	0x3fe6c218c43ab297	0.7111934502223275
108	0x3fe72f3d1af14db6	0.7245164419386387
109	0x3fee52dd28e56043	0.9476152228116991
110	0x3fed6ed3a8820fd2	0.9197786608860901
111	0x3fe3b7f15a47149f	0.6162039530978695
112	0x3fdeb5677bfe1d32	0.47982203587203565
113	0x3fd2163958ecd6a8	0.2826064461145088
114	0xbfb29560b2bd8c8f	-0.07259182323245937
115	0x3fd143a082594e21	0.26975262383823134
116	0xbfc414eeaf2e0a4c	-0.15688880494788504
117	0x3fb0afddb3d9aed6	0.06518350258709957
118	0x3fb588d535815d0a	0.08411915355951663
119	0xbfbcd21df7795f95	-0.1125811318573809
120	0x3fd7cfb2c57d4de1	0.37205189977723135
121	0x3fc03c504364ce58	0.1268406228133354
122	0xbfe39aefec1a0ef5	-0.6126632319796658
123	0xbfbfca01293fa229	-0.12417609459920044
124	0xbfe44c22cd220b4c	-0.6342939383033381
125	0xbfd420f648118f32	-0.3145118430895649
126	0x3fd658256d9004b1	0.349130017275523
127	0x3fd8e128b000a70b	0.388742610814561
128	0xbfdf69a3e3a7ba58	-0.49082276565505856
129	0xbfe3c13b62e4371c	-0.6173378879045432
130	0xbfed05fd719bb30d	-0.9069812029752896
131	0x3fbdd14aeabc7e43	0.11647480231158007
132	0xbfb8141e4d1e8cbe	-0.09405698187633768
133	0x3fbb21fd00983064	0.10598737015260579
134	0xbf815aec1617fda9	-0.008474201606985714
135	0x3fb6465418bd14c0	0.0870106277844398
136	0xbfd079bbd1ff95f1	-0.2574300337567755
137	0xbfacd51c00fb6ef2	-0.05631339561452177
138	0x3fbacfa730fb6c10	0.10473103471615297
139	0x3fecbb2b476d9c1a	0.8978477854806244
140	0x3fc9b2618690cb99	0.20075625486933005
141	0x3fbe5b897d031760	0.11858424474766371
142	0xbfd0aeb8e2188c85	-0.26066419677426494
143	0xbfcd25ee13ef0161	-0.2277200314838508
144	0xbf567335d3a7471b	-0.0013702417041838225
145	0xbfafa8c65abdeb32	-0.06183452470482677
146	0xbfd6f9a2c57bca71	-0.3589865616369599
147	0xbfb762b291655461	-0.09134975480749709
148	0xbfdca7d288c1e254	-0.4477430663605777
149	0xbfcde123a409786a	-0.2334332037889369
150	0xbfbf0c79db847820	-0.12128411874115885
151	0xbfd22d95f99bd4cf	-0.2840323388657681
152	0xbfc063ab26a9dd13	-0.12804164302699714
153	0xbfc107407d0ac0b3	-0.13303381066862627
154	0xbfdd50e675aed684	-0.45806275837399135
155	0xbfc769dddc2133e8	-0.1829182934619944
156	0x3fb43989cbe7766a	0.07900296428803136
157	0x3fd3f8b037ce2aa2	0.31205373239269296
158	0x3fc15196c0953cbe	0.1353023948999858
159	0xbf9050aac4a9cc75	-0.01593272042596224
160	0xbfa697f1fdddac7b	-0.04412800048779616
161	0x3fd3eca31a8c05d6	0.31131818382718046
162	0x3faa05a3873c01f8	0.05082427049456223
163	0x3fa5553706ffc755	0.041665763477694163
164	0x3fb791211d5a1cd0	0.09205824820138564
165	0xbfd5c6945d6441fd	-0.3402453338649421
166	0xbfd9198f9e711137	-0.39218512032336456
167	0xbfd9b604ced88c99	-0.4017345447520682
168	0x3f5606157beb0185	0.0013442239575597048
169	0x3f5807ec99484ed4	0.001466733029819635
170	0x3f6cab9336322c7c	0.0034997821072174067
171	0x3f4434538239f57e	0.0006165893323239328
172	0x3f6a1dfbd064d768	0.003188125442785617
173	0x3f66cd1dcdd93892	0.0027833540068860707
174	0x3f61a9b9713cb4b6	0.0021561262054975118
175	0x3f7a1f40a0e5b17b	0.006377460913750683
176	0x3f68d6377d7b2041	0.0030318340103328294
177	0x3f45cc3891b2c053	0.0006652141777490163
178	0x3f44dbcb507016e5	0.0006365530724685402
179	0x3f41f7f3baa823d7	0.0005483570178635944
180	0x3f3fc4d008ed8d97	0.0004847534082072723
181	0x3f5105b0c070f5f0	0.001038954362015839
182	0x3f5bd9a7025f057f	0.0016998415899112938
183	0x3f62d64be50d34bf	0.002299450141811293
184	0x3f61fd13abfb3476	0.0021958717551116514
185	0x3f58bb8d22c96d22	0.0015095594673287323
186	0x3f5830b69ad69896	0.0014764579058037844
187	0x3f4beea227c206c2	0.000852421929735857
188	0x3f61631c4e60ae6c	0.0021224549154988306
189	0x3f63f2a7518ca0e4	0.0024350421848745463
190	0x3f9460c25b2de937	0.0199003570701077
191	0x3fb7dc216efdb264	0.09320267638913432
192	0x3f6e9dd5a46b1d5b	0.0037373707485561076
193	0x3f6a6014968e1916	0.0032196428405227946
194	0x3f6aa44fcd956835	0.0032521780637298167
195	0x3f54175957846dc5	0.0012262699584145592
196	0x3f7524ab99d35324	0.005161924663487114
197	0x3f81cdf832f5bebb	0.008693636946844099
198	0x3fb678f21d5577fc	0.08778298584135763
199	0x3fa134fc35ac0f5e	0.0336073699491226
200	0x3fa8bf30f7596eba	0.048333673662197055
201	0x3fb0d0bb8eba0755	0.06568500742471646
202	0x3fad8d0674e29c50	0.057716562050068476
203	0x3f651d9bce443dc6	0.0025775950508728244
204	0x3f64e1250386240a	0.0025487635541066077
205	0x3f5f29cbe49c7675	0.001902054895658448
206	0x3f6c2959e6eb3280	0.0034376865290595693
207	0x3f77ee30fd1ab3a0	0.00584239135939138
208	0x3f82d108e0fb3e6c	0.009187764516723727
209	0x3f877ba6e04f72ab	0.011466315956505232
210	0x3f7e65c617e8a4f5	0.007421277811354478
211	0x3f3244dce3c1b9fe	0.0002787627488548826
212	0x3f49cf91e17c3329	0.0007876837071037801
213	0x3f54cddbe5ce2a89	0.0012697837293866052
214	0x3f4a1df8cbad7517	0.0007970299551335627
215	0x3f53aace2226f43a	0.0012003911038924856
216	0x3f6a6435bb000cb7	0.0032216119216187072
217	0x3f7078251541d208	0.004020829063041471
218	0x3f82ff01f4450bbc	0.009275450961132019
219	0x3f55bba71a4ea76e	0.0013264781821171428
220	0x3f5b77d202fe19b8	0.0016765166182906976
221	0x3f6167300ab199ef	0.0021243990245693937
222	0x3f616e0199173f51	0.002127650376429737
223	0x3f7243662b1382c7	0.00445880803565108
224	0x3f514a2877fdef0b	0.001055278320534594
225	0x3f4fdfb73c61a6fb	0.0009727139192936268
226	0x3f6365b4b7ffcef4	0.002367833105376133
227	0x3f58208adb3675d3	0.0014726024645378324
228	0x3f534573c227e2d7	0.0011762266591387926
229	0x3f665266d2556ec5	0.00272483904215712
230	0x3f57a5bbb0803e82	0.0014433224587299402
231	0x3f6c11c9596ed446	0.0034264500240746313
232	0x3f4569a6b526f813	0.0006534637453154988
233	0x3f522102a910f0ef	0.0011065031033146674
234	0x3f8d57bcaa3c4f60	0.014327501244714547
235	0x3fad5bd23cb9497c	0.05734116545922327
236	0x3fc1bb38f06bbd8c	0.13852607478427748
237	0x3fa51054317c5b99	0.04114020446848272
238	0x3f9294adf5b455f8	0.018145292398079577
239	0x3f80b6b0740d56b4	0.0081609521309177
240	0x3f886fac4218ea07	0.011931749121790082
241	0x3f9b8f567d6c62a6	0.026913978009448634
242	0x3f90df903d6755ce	0.016477826831609303
243	0x3f79603e50d38675	0.00619530050355054
244	0x3f73a8e6c6d70c5f	0.0047997488704281934
245	0x3f790fa2ae7e4d70	0.00611842677598716
246	0x3f733ffe15a64708	0.0046996998957114025
247	0x3f82ad0365b66a08	0.009119059125443321
248	0x3f87f393ef0cc5ca	0.011695056660388743
249	0x3f8516f48477487c	0.010297689716854068
250	0x3f89f327f57797fd	0.01267081468445141
251	0x3f81fd3bab374a65	0.008783785021397603
252	0x3f86099aa0712bb0	0.010760505696586126
253	0x3f8947fa1222e38f	0.012344316175914275
254	0x3f6ae4a4bd303295	0.0032828538474006332
255	0x3f632092681f9e00	0.002334867430352494
