feat_pickles/2340_B_244.3235_244.5535.wav.npy (npy, 2256 bytes, 1 tensors)

array (column-major) f8 [8, 34]
0.46365914786967416 0.3107769423558897 0.17293233082706766 0.15037593984962405 0.2556390977443609 0.3283208020050125 0.3208020050125313 0.2781954887218045
0.001493584983838827 0.020050028520700335 0.023697539653383122 0.01280256940536353 0.039156648537298805 0.08401364764366212 0.1143797258037738 0.11261975687307162
2.1702816294643714 2.5225431679314383 3.01194438000326 3.088639782137645 2.9600259502359725 3.25598725670171 3.3159882244907024 3.2859615104741553
0.389674568094308 0.3537210826162774 0.3239243753718008 0.3041559068743172 0.38828034178759996 0.37989286666391614 0.34464641685585656 0.3276175557477568
0.2869702200034873 0.2754372315139071 0.2762603092052978 0.25631543811566637 0.2506282549943211 0.2338658243908807 0.22577373377022944 0.21809851704575137
2.305624144848025 1.7677251931486528 1.6605684459312098 1.5856962471613947 2.1536636181650786 2.241914347783816 2.2181750215904334 2.124922405202609
0.0 0.011863670209175541 0.0023213777038234447 0.012234769443996934 0.010766762290857495 0.006117429990055245 0.003374106045570572 0.0033797619505820005
0.66 0.63 0.61 0.255 0.575 0.525 0.465 0.415
-26.01405426501202 -23.934903961912823 -23.558741490208018 -23.74192310779978 -22.069121297466932 -21.50515128361786 -21.240804873392637 -21.45189353652942
1.2834722471380773 1.4342964820163182 1.9369196012685541 1.7921774124249594 0.31263914683474586 -0.07726281004809396 0.569768669993884 0.7953351518433549
1.0349242439127846 0.5924258881137371 0.7706008690341857 0.3844912914786354 -0.3300932731973724 -0.5532042128755646 -0.3868667260945867 -0.5139276918993495
-0.18470083730309514 -1.6556982845806003 -1.5047892190605492 -0.9586396166445035 -1.1169938852515875 -0.4163074256792444 0.25043622532893145 0.15724599690909552
-0.16372493183806966 -0.43394199146485357 0.056683644301620796 -0.5464584610943554 -0.591001264782854 -0.133714030669464 -0.4776716465411912 -0.8521344934812908
-0.6188535362359014 -0.29898212782086436 0.054926692248227625 0.09910959962126922 0.2853060721175606 0.8223376316342653 0.12349351402007436 -0.05659740038643333
-0.13378910839679617 -0.08878879309926388 -0.04649773212441867 -0.2166447866512197 -0.2460651219342035 0.2354815033796171 -0.15355546477746693 0.06845049415116955
-0.12724915770674275 -0.2644753343660659 0.18863453439378772 0.09847501296824876 0.13958700667161067 0.07286649555285307 -0.23978196155925677 -0.30223545826042025
-0.519743244814266 -1.0143457225547263 -0.6736580102333617 -0.1554596414785623 0.046530790850653016 0.001601946983808884 0.5277972567482465 0.3488971560983125
0.513157804561229 -0.16077905482591381 -0.332328159749685 -0.5270875419374881 -0.5360637296307018 -0.6491949654965885 -0.16261636112108 -0.5735843448659227
-0.46096776758468516 -0.7840116269942131 -1.0400713931698056 -0.16767908300860376 -0.01804670771440674 -0.15244957666360087 0.11047697410853362 0.027060043703194946
-0.1189573091175743 -0.13821768789002634 -0.28221907360314413 -0.6044913238526155 -0.6054356820750664 -0.7449504749101489 -0.15815498068937253 -0.0710937355992976
0.20475444755613084 0.32544444820240526 0.2326452195296452 -0.07277185679103484 -0.7196146411157469 -0.9042400900787602 -0.8158722206653487 -0.8778321439093045
0.011465121274240672 0.002997377495509308 0.004647031250279664 0.00535341362215271 0.02694287928775428 0.05339040338905516 0.046681558142746125 0.04753445042435762
0.0024704354234930054 4.8030913127845885e-05 0.0012281609167007102 0.011801657303063623 0.035445386786558765 0.0033023940977213256 0.0014764164062978466 0.0023247163145393604
0.022542939421247573 0.004544496768621993 0.02996401554048276 0.02499627862420619 0.02202389701502166 0.003203403313798382 0.004190574450898983 0.006114799842589565
0.03660026699322227 0.03817125736573288 0.06172414622725536 0.04875883118620751 0.00864750960578256 0.012658001386464904 0.02049431377878746 0.0174433303242428
0.014560848652140369 0.09072150424766401 0.06931143105276082 0.012589369222479272 0.0005424180617163973 0.0013236121010792102 0.00047279988656696506 0.0007493677992368217
0.0232530840575948 0.0387055585930709 0.01975152972656094 0.004388302014902842 0.0031897410538547382 0.0019590133848601185 0.0003930912879666261 0.000602013987585423
0.021719441001945027 0.007173453768687985 0.005874598250052558 0.004132264897529211 0.02136987778111199 0.061281362912161755 0.08570819063191007 0.0967469988555448
0.0016300584960598826 0.0012752462417811128 0.000547767897055387 0.0012496587335127307 0.040417588041409935 0.015949308850658983 0.001683585585447853 0.0004893862403627793
0.012253690282280993 0.0029201601528344883 0.0019457784159222747 0.006574796947613815 0.001943263319403656 0.001124066618029598 0.00046280278353079385 0.00025886533322783464
0.008181724810844466 0.0010505805362843418 0.0016723568416910442 0.0036702222224998873 0.0008779655826560957 0.0007286894032819461 0.0011722336140878118 0.0011396368326259565
0.010934699797479809 0.004737426042260128 0.004674663616614208 0.003757118754402532 0.0026765295263138774 0.0011181585246352848 0.0021845882856233864 0.0022954355657149937
00000000: c9da 256b 97ac dd3f 3c3e f1f8 c4e3 d33f
00000010: 2a62 a988 a522 c63f f833 e1cf 843f c33f
00000020: c605 1917 645c d03f 3350 cd40 3503 d53f
00000030: 8048 0122 0588 d43f df1c 7d73 f4cd d13f
00000040: d75a 33aa 8c78 583f 7600 1fa3 fe87 943f
00000050: 724f 3af7 2a44 983f 0eda 34c7 3b38 8a3f
00000060: 0cff c619 570c a43f 0e15 0c1d eb81 b53f
00000070: 7314 a75d fd47 bd3f 933f a7fc a5d4 bc3f
00000080: c445 6d9d bc5c 0140 301c c81c 2b2e 0440
00000090: 47e1 8b4b 7618 0840 fa3e 2bc6 88b5 0840
000000a0: 3e99 dc15 22ae 0740 14d0 fd0b 430c 0a40
000000b0: 90de 90d5 2487 0a40 c735 3b30 a649 0a40
000000c0: 1212 8399 6df0 d83f 2d87 6fc0 5da3 d63f
000000d0: db57 a64d 2dbb d43f 3944 3a56 4a77 d33f
000000e0: 9013 6aca 95d9 d83f 8988 932b 2a50 d83f
000000f0: 5116 45d8 af0e d63f 790d e29f aff7 d43f
00000100: 5bd1 7557 b85d d23f 24fe 5c7b c3a0 d13f
00000110: f50d 4eb8 3fae d13f 32ab 0ade 7867 d03f
00000120: b9dd a917 4b0a d03f c198 b4b9 50ef cd3f
00000130: 9762 6b59 27e6 cc3f bd40 02f7 a6ea cb3f
00000140: 00ec 5712 eb71 0240 4f38 4e36 9a48 fc3f
00000150: 98b4 0038 b091 fa3f 832b 2f07 035f f93f
00000160: 15d5 b4fd b33a 0140 3951 21ca 70ef 0140
00000170: b147 b48b d2be 0140 1c10 6751 d7ff 0040
00000180: 0000 0000 0000 0000 b6b4 78dc fa4b 883f
00000190: e30a 3a2a 4804 633f 43aa 16f5 8a0e 893f
000001a0: 4362 625f e20c 863f e6bd e21b 970e 793f
000001b0: 5588 ce63 03a4 6b3f 28f4 78e1 dfaf 6b3f
000001c0: 1f85 eb51 b81e e53f 295c 8fc2 f528 e43f
000001d0: 85eb 51b8 1e85 e33f 52b8 1e85 eb51 d03f
000001e0: 6666 6666 6666 e23f cdcc cccc cccc e03f
000001f0: c3f5 285c 8fc2 dd3f 8fc2 f528 5c8f da3f
00000200: 9098 700f 9903 3ac0 0051 b5dd 55ef 37c0
00000210: 9b5c abae 098f 37c0 9125 3cac eebd 37c0
00000220: db13 f0ee b111 36c0 cfab 3298 5181 35c0
00000230: 55f0 5f63 a53d 35c0 eaaa 784b af73 35c0
00000240: ba81 ec31 1a89 f43f 7072 30de e0f2 f63f
00000250: 76e0 6668 9ffd fe3f f3eb ef38 c2ac fc3f
00000260: 5db1 c69f 4702 d43f 1687 5ada 7ec7 b3bf
00000270: be17 7d81 8b3b e23f 4cd8 50b4 6273 e93f
00000280: 4516 57b9 0c8f f03f 7b12 d822 27f5 e23f
00000290: 16ac 5827 c3a8 e83f bdd7 9f5c 819b d83f
000002a0: a7c9 4089 3f20 d5bf 4beb 4952 d9b3 e1bf
000002b0: 6228 1fa8 6cc2 d8bf 53ed a67c 1872 e0bf
000002c0: af5b e1eb 46a4 c7bf 5912 057c bd7d fabf
000002d0: a5d0 33dc 9d13 f8bf 7a6b 44fd 2cad eebf
000002e0: fccc effa 34df f1bf 9ef4 97e6 c7a4 dabf
000002f0: 655f 61a9 2507 d03f c663 1307 a320 c43f
00000300: 3365 e445 f0f4 c4bf 56f8 6ca1 b4c5 dbbf
00000310: a5b3 fc7c a305 ad3f 53ba 6074 967c e1bf
00000320: 4262 047c 7be9 e2bf a9ef 5e96 8a1d c1bf
00000330: a0bc 0719 2c92 debf 1f76 a98e af44 ebbf
00000340: 6fb5 64ee a5cd e3bf 0b10 45ef 8522 d3bf
00000350: 7b66 c4f5 591f ac3f 32cf 1729 3f5f b93f
00000360: c716 4666 7442 d23f db74 4402 9750 ea3f
00000370: 80fd fb5b 459d bf3f fd8d 659f 55fa acbf
00000380: d107 9062 0020 c1bf 8ed6 9cc2 dcba b6bf
00000390: 2206 a0fd 8cce a7bf 8d08 c230 04bb cbbf
000003a0: 5463 b2d9 0f7f cfbf fe07 ea05 4224 ce3f
000003b0: bbaf ab99 b4a7 c3bf 5839 c6b9 f885 b13f
000003c0: 01a2 654d b349 c0bf d7db ecf3 29ed d0bf
000003d0: 6b0a 0f2a 2d25 c83f 5efb 2b90 a835 b93f
000003e0: e6f0 4cae fcdd c13f 70a6 5fef 60a7 b23f
000003f0: 9bab 88e1 2cb1 cebf 8fe2 3a64 d357 d3bf
00000400: 0a6a d995 bca1 e0bf 525c 9394 c23a f0bf
00000410: cb80 543e 9b8e e5bf a1c8 fffd 19e6 c3bf
00000420: edcf eb41 e2d2 a73f ebd3 f179 0d3f 5a3f
00000430: 1adf 9412 b7e3 e03f a804 c7bc 5454 d63f
00000440: 69e2 88ea c96b e03f b0f6 2d77 6894 c4bf
00000450: 708b 6a54 dd44 d5bf 6c04 58b1 e6dd e0bf
00000460: a6bd 6a1f 6f27 e1bf 6c24 3185 34c6 e4bf
00000470: cf9f 67e8 9cd0 c4bf 8f4b 568e cd5a e2bf
00000480: 9653 92f3 7e80 ddbf f5f6 338d 9f16 e9bf
00000490: 29b6 b2e6 21a4 f0bf 7363 df18 8276 c5bf
000004a0: 9d42 bc0d d67a 92bf 3694 07bd 7783 c3bf
000004b0: 3fd7 c10e 3848 bc3f 8628 efca a0b5 9b3f
000004c0: 88b7 4778 fc73 bebf f1b2 9b00 1eb1 c1bf
000004d0: fab4 db96 e00f d2bf 1235 5530 fe57 e3bf
000004e0: ee00 cba6 ba5f e3bf c91e dc60 a2d6 e7bf
000004f0: b153 e122 6c3e c4bf d475 59f5 3233 b2bf
00000500: 9568 fbcb 6435 ca3f 146c 6cf3 14d4 d43f
00000510: 2bac b98c 51c7 cd3f ba97 fc28 2da1 b2bf
00000520: be13 aa48 1507 e7bf 10da d3e9 88ef ecbf
00000530: 471f 2f0f a01b eabf 17fa ae6f 3317 ecbf
00000540: eb1d 5787 067b 873f dcb0 24ca f48d 683f
00000550: 8c22 e5f3 c308 733f 159f dd06 76ed 753f
00000560: 9c9a 9a05 ea96 9b3f a9d5 f3a8 fc55 ab3f
00000570: 334d 192b a5e6 a73f c90b 037c 6f56 a83f
00000580: f29b 39eb e03c 643f 6b6a d09b 992e 093f
00000590: 4d51 2cbe 471f 543f d0f7 3da1 772b 883f
000005a0: a5ad 15d2 e525 a23f 9330 be54 9f0d 6b3f
000005b0: ad7a 8a0b 8a30 583f 27bb 6391 480b 633f
000005c0: 8fa5 470e 7f15 973f 6ed8 f70f 409d 723f
000005d0: 7a7c 360b e3ae 9e3f 06c6 d9dc 9f98 993f
000005e0: 6fd4 a3b5 6e8d 963f 9c47 ff0e 063e 6a3f
000005f0: fb30 7dc3 222a 713f 8833 8715 d50b 793f
00000600: 0f82 852b 45bd a23f 3de8 10dc 2e8b a33f
00000610: a8d3 d6aa 4e9a af3f 2201 ace2 eaf6 a83f
00000620: 90e6 9617 c9b5 813f 4895 e62f 70ec 893f
00000630: 4f44 bc1d 76fc 943f 1692 1a15 aadc 913f
00000640: c784 1a06 14d2 8d3f e8a2 c945 8639 b73f
00000650: 174e 9cd9 64be b13f 9fd9 b388 74c8 893f
00000660: f387 fcea 21c6 413f a44d f3ab a1af 553f
00000670: bf3c e40c 44fc 3e3f 31f3 5e18 278e 483f
00000680: b1e9 3b0e a8cf 973f 204b a908 37d1 a33f
00000690: 48de e2b8 be39 943f a341 39da 77f9 713f
000006a0: 25d9 4930 5f21 6a3f b0eb 734d 590c 603f
000006b0: 5f91 e539 fac2 393f 4d8c b731 0fba 433f
000006c0: c6bb 2903 9f3d 963f b0c6 5f55 e961 7d3f
000006d0: 1120 c775 f60f 783f bc24 7e69 feec 703f
000006e0: 40f0 c138 fce1 953f fac3 1f53 4560 af3f
000006f0: 5a6d c3d3 f8f0 b53f 561a 124c 69c4 b83f
00000700: 98dd 97fb f5b4 5a3f 2e6c c739 c5e4 543f
00000710: 4a41 119a 02f3 413f e1f0 0fd9 7279 543f
00000720: 8061 a435 9db1 a43f 3029 a1ff 0355 903f
00000730: 2895 e341 7895 5b3f 7d50 e0f2 4409 403f
00000740: 1345 2478 7618 893f 254f 600b 05ec 673f
00000750: 7174 58aa 2fe1 5f3f 40ae e29d 2cee 7a3f
00000760: 3cf4 e019 a3d6 5f3f d8c6 3a57 ad6a 523f
00000770: fcf4 dbd1 8a54 3e3f 3f80 e923 0af7 303f
00000780: 8a4b e683 94c1 803f 6ed3 e342 7436 513f
00000790: 25b9 4e7c 5f66 5b3f d022 458d 0311 6e3f
000007a0: e770 75bb e8c4 4c3f 360b f993 b0e0 473f
000007b0: 2834 4a42 b434 533f cd7f 3abb fbab 523f
000007c0: 278d 2c90 ee64 863f ff19 b31e 8d67 733f
000007d0: 2a8a a675 bd25 733f e4d3 acc5 3fc7 6e3f
000007e0: 9e92 08d9 16ed 653f 7322 e292 e551 523f
000007f0: de46 bee7 69e5 613f 0f0e ea95 e0cd 623f
