feat_pickles/2368_B_165.497875_165.817875.wav.npy (npy, 3072 bytes, 1 tensors)

array (column-major) f8 [11, 34]
000000 2c 15 b1 54 c4 52 d1 3f 0a 10 29 40 a4 00 d1 3f
       0.2706766917293233 0.2656641604010025
000010 5e 43 79 0d e5 35 d4 3f ef 45 bd 17 f5 5e d4 3f
       0.3157894736842105 0.3182957393483709
000020 79 0d e5 35 94 d7 d0 3f 38 d8 e1 60 87 83 cd 3f
       0.2631578947368421 0.23057644110275688
000030 ab 3b ad ee b4 ba d3 3f 7e 95 f9 55 e6 57 d9 3f
       0.3082706766917293 0.39598997493734334
000040 bb 64 ed 92 b5 4b d6 3f e8 0a a1 2b 84 ae d0 3f
       0.3483709273182957 0.2606516290726817
000050 5a dd 69 75 a7 d5 cd 3f fb 0a 93 a3 a1 e7 38 3f
       0.23308270676691728 0.0003800172449467812
000060 f8 6b 11 55 c7 67 80 3f e8 8d 4e 42 42 54 99 3f
       0.008010442050524688 0.0247354844065181
000070 0e ab e9 68 de 76 a1 3f b6 15 d4 ac 0d 66 96 3f
       0.034110021883711025 0.02187367789612945
000080 9f 94 74 43 82 8d 86 3f bb c1 01 45 10 fd a6 3f
       0.011012094195914477 0.04489947168702054
000090 45 2c 00 fe 2d ca b6 3f e6 82 c6 06 54 41 bc 3f
       0.08902251673878066 0.11037182965675249
0000a0 5a c3 36 71 81 3b b9 3f ad 60 b0 7d 9d a9 b3 3f
       0.098564233913533 0.07680687254503722
0000b0 a2 56 a2 f1 16 d0 f9 3f 80 d1 f9 36 7c fb 02 40
       1.6133031309922576 2.372795514582492
0000c0 a0 db e8 4f 92 06 09 40 2e 33 72 31 c9 7f 09 40
       3.128208755773315 3.1873954642272997
0000d0 bc d0 ac 45 8c 3b 07 40 f0 6c ec b2 ce 8e 09 40
       2.904076141678244 3.1947301844025944
0000e0 e8 cd 1e e2 f9 ce 06 40 32 da ff 92 2a 59 0a 40
       2.851062552037309 3.293538235123628
0000f0 9f 65 59 08 84 7a 0a 40 f2 77 3f 56 d8 28 0a 40
       3.30982214472597 3.2699438799017964
000100 0c 77 86 01 37 60 0a 40 ed ae 0a 40 9e 57 d8 3f
       3.2969799155388326 0.38034778837275846
000110 f0 d0 44 12 2f d8 dc 3f d5 a4 6d ee 48 b8 dd 3f
       0.45069481643737586 0.46437285694135017
000120 f4 36 7b 9f 9e 3f db 3f a4 ff b4 5b d9 50 da 3f
       0.42575803350778973 0.4111846347404884
000130 b8 e7 3a dd 14 62 d5 3f 81 35 7e d8 cd 5d d9 3f
       0.3341114197206667 0.3963503469647876
000140 a2 ad b8 85 7e 55 da 3f 07 26 39 b8 9e b4 d8 3f
       0.4114681535599748 0.38602416983175697
000150 9e 7c 1f 59 92 6b d7 3f 8e 1b c0 d7 11 c6 d4 3f
       0.36594065383355623 0.3245892149865818
000160 6a 88 4b 57 3d 2a d1 3f cc 87 31 5b f9 75 d1 3f
       0.26820310139567616 0.27282556443799133
000170 68 40 93 c8 49 ce d0 3f e9 7d f9 de e4 68 d0 3f
       0.2625908335439875 0.25640222334729273
000180 02 1f 6a 55 ad 1d d0 3f d0 59 83 af 6a 59 cd 3f
       0.2518113454939198 0.22929128236746843
000190 62 d9 00 a7 6c 9b cc 3f 55 d4 e3 12 d1 03 cb 3f
       0.22349317697962606 0.2110539762722136
0001a0 82 34 be 6d d0 5a ca 3f aa 55 29 f4 86 18 c9 3f
       0.20589642866653796 0.19606100961634115
0001b0 09 8c 9f e7 d1 9a c7 3f 14 03 d2 32 36 b4 03 40
       0.1844122296307378 2.462994000467356
0001c0 6e 79 2b bb 8e 93 03 40 fc a5 20 d5 f8 65 04 40
       2.4470495817797007 2.5497910166347975
0001d0 1e 70 44 94 a2 f7 03 40 68 c3 52 d6 9b ef 03 40
       2.4959155639062507 2.491996454621063
0001e0 77 39 e0 25 7a 88 01 40 31 ba d0 e4 06 56 02 40
       2.1916392287304762 2.292005336398937
0001f0 b4 ee 0a f7 5f 3b 03 40 dd c9 55 b8 f1 c7 03 40
       2.4039916324817003 2.4726290131741124
000200 f8 e2 98 92 89 cf 01 40 5b db de a4 0e c7 fd 3f
       2.226336617747048 1.8610979500060327
000210 00 00 00 00 00 00 00 00 e8 e8 e2 ec 68 b6 75 3f
       0.0 0.0053009127279273
000220 a0 37 e0 12 ad 99 70 3f 50 e7 e6 ca ea a9 70 3f
       0.004052806920311541 0.0040682956300147205
000230 d2 7c 69 6c 9d c9 71 3f 84 a3 f8 03 dd b9 81 3f
       0.004342665610777634 0.008655287440960675
000240 6e aa 26 ce 55 2a 80 3f 45 e4 62 8d e8 e0 6c 3f
       0.007893247941713723 0.0035252134358328157
000250 15 59 e6 85 41 f0 7b 3f 69 46 0d 31 d5 fd 6d 3f
       0.006820922803305392 0.0036610759638413992
000260 b9 b5 dc 53 16 2c 7f 3f 48 e1 7a 14 ae 47 e5 3f
       0.007610404221663308 0.665
000270 33 33 33 33 33 33 e7 3f 0a d7 a3 70 3d 0a e7 3f
       0.725 0.72
000280 c3 f5 28 5c 8f c2 e5 3f 71 3d 0a d7 a3 70 e5 3f
       0.68 0.67
000290 cd cc cc cc cc cc dc 3f 52 b8 1e 85 eb 51 e0 3f
       0.45 0.51
0002a0 29 5c 8f c2 f5 28 e0 3f 0a d7 a3 70 3d 0a df 3f
       0.505 0.485
0002b0 d7 a3 70 3d 0a d7 db 3f 66 66 66 66 66 66 d6 3f
       0.435 0.35
0002c0 0f de 06 b0 0c e4 3b c0 c8 7c 66 85 34 35 38 c0
       -27.890818597485175 -24.20783265831122
0002d0 1c 68 f5 a7 d1 2a 37 c0 02 77 11 26 b7 f6 36 c0
       -23.167261598027935 -22.963732127441297
0002e0 0d 04 b1 94 c7 ec 36 c0 16 8f 8e 8d 76 8c 37 c0
       -22.924920361725572 -23.548683974556376
0002f0 83 99 4b d7 fe 90 35 c0 cd f8 58 a3 89 4e 35 c0
       -21.566388565022418 -21.30678769037404
000300 db 44 8f 90 65 60 35 c0 97 d1 28 18 65 ed 35 c0
       -21.376549754121566 -21.927323827710634
000310 d5 52 2d 99 03 21 36 c0 bd 43 08 31 66 72 f3 3f
       -22.128961156430552 1.2154294886897639
000320 50 32 31 d4 6e aa d8 3f cc d1 23 41 1c 40 c6 bf
       0.38540240022556294 -0.17383149319324642
000330 52 41 dd 6f 7c f6 c4 3f 6f 8f 32 54 88 9c af 3f
       0.16377215826151797 0.06174112346459892
000340 6b 57 d7 a7 3a 7e ec 3f 29 76 43 cd 80 9a a7 3f
       0.8904088285587312 0.04610064035089707
000350 0e 1a 4d 0e 3e 62 ec bf 53 29 80 62 5f 92 e3 bf
       -0.8869924811668299 -0.611617748626751
000360 9e ed 05 9c 33 9c ec bf 2f 0d 02 63 e7 d4 b4 3f
       -0.8940675780608449 0.08137365500629266
000370 f4 ec c5 8b f8 8c df 3f 59 42 33 ba 44 32 c3 3f
       0.4929791798565042 0.14997157184417878
000380 1b 38 e8 03 47 ef af bf cb 66 d7 3a 7f 5f b0 3f
       -0.06237241671270529 0.06395716845090786
000390 75 e1 6d 78 e3 89 d9 bf f5 71 85 c0 72 38 e4 bf
       -0.39904104958215864 -0.631890655534845
0003a0 26 6b 62 4f e3 80 e5 bf 51 d4 e6 a2 83 91 f3 bf
       -0.6719833898999681 -1.2230259288164869
0003b0 cb ae 8a bf 65 bc f4 bf b1 e8 84 87 3b c0 fd bf
       -1.2959954721545042 -1.859431771632938
0003c0 55 55 b4 79 b1 db fd bf 9a c8 a6 57 4b fa e8 bf
       -1.8661360506133253 -0.7805535041755036
0003d0 5d d3 f1 23 53 bc f6 bf f2 5a d6 21 48 63 ef bf
       -1.4209777263724483 -0.9808693562398203
0003e0 b4 f0 0b cc d3 2d f3 bf 8a 06 af 62 f0 2a ea bf
       -1.198688313538736 -0.8177415778556718
0003f0 cc 26 44 97 2a f1 97 bf 97 ad f2 b2 24 ef d4 bf
       -0.023380914194638433 -0.32709615207087367
000400 6c 08 56 f4 68 06 c9 bf e2 2f 07 de d0 4b b8 3f
       -0.19550811701271031 0.09490685864074025
000410 7c 83 1a e9 ff ff cc 3f 69 49 ce 14 a0 35 d8 3f
       0.22656248933801837 0.3782730296308246
000420 ab ad 93 2f 50 ca e5 bf 0e 9c 53 4a 46 e0 e0 bf
       -0.68094643871648 -0.5273772670451551
000430 bd c9 f8 73 e1 7e c2 3f 1e 2a d3 76 b5 2c e2 bf
       0.14449709093748977 -0.5679576226041865
000440 47 bd e6 38 db f2 d3 bf 0f 09 02 df ae d2 e0 bf
       -0.31169777447481234 -0.525718150675205
000450 c4 28 ff b9 b4 de e5 bf 93 67 97 47 48 c3 d7 bf
       -0.683435786509357 -0.3712940882811548
000460 ed 0f 81 ee 1a b2 d9 bf 7e 80 7c b6 86 28 b1 bf
       -0.401495678819855 -0.06702463107331089
000470 2b 51 89 7e b8 8d c0 bf 62 46 05 d5 d4 19 c2 bf
       -0.12932497194800283 -0.141413311017959
000480 56 ca 04 32 90 03 d9 bf 95 58 2b 66 2a 15 cf 3f
       -0.39084248432769664 0.2428334235070834
000490 25 56 7d 5d 3b 45 c7 3f ce 55 16 fc f5 b3 d9 3f
       0.18180028977319398 0.4016089402951736
0004a0 91 f5 1e ef ba 4e e2 3f f1 fe 20 4c 41 72 e2 3f
       0.5721106214838746 0.5764471518413911
0004b0 1f 2b a8 6f 26 af ed 3f 8b 04 23 4a 6b 31 d9 3f
       0.9276306324767097 0.3936413024894782
0004c0 e5 7e ef e3 4c 09 de 3f 8d 2e ef 79 ae bb d9 bf
       0.46931764849976637 -0.40208017261168366
0004d0 e2 ed 90 13 6e 24 e1 bf d0 31 84 b3 91 40 e2 bf
       -0.5356970197821591 -0.5703819757632633
0004e0 49 6f 3c 29 00 b4 d3 bf d7 d6 60 0b 2f 4b e8 bf
       -0.30786136652908574 -0.7591777059776302
0004f0 61 46 c6 cd 6e 34 de bf 8f 49 5f e2 37 c6 dd bf
       -0.4719502458111489 -0.46522328478490577
000500 4d 1a 67 69 1e fb dc bf bc e0 7c 79 f4 b6 d5 bf
       -0.45282707494007896 -0.33929168571513535
000510 15 d6 93 7e 88 55 e1 bf ef 07 54 a6 8d c4 b9 bf
       -0.5416910621849548 -0.10065541563747592
000520 20 cc da cd bd 81 d4 bf 50 ec 4f 49 79 6c be 3f
       -0.32041878798480816 0.11884267845009444
000530 38 22 25 8d 0d cc b2 3f 55 b1 81 74 d2 5b bc 3f
       0.07342610069202571 0.11077609390639982
000540 83 c9 6f a1 3d 48 d4 bf 61 95 9d df 97 1f be bf
       -0.316909225132939 -0.11766957482685349
000550 19 dd b9 ae 48 07 b8 bf 73 ca c8 a1 cb a4 d6 bf
       -0.09386114373943534 -0.35380831526996487
000560 83 a6 48 3a 22 a8 dc bf d7 57 68 48 21 4b e1 bf
       -0.44776206676269953 -0.5404211439333676
000570 3f 49 80 53 9d 2c d9 bf 93 58 89 26 f3 44 9b 3f
       -0.3933480563583948 0.026630210139352583
000580 f5 1e 41 b4 cd 6f a4 bf c6 a6 3d a3 91 7e d2 bf
       -0.039915493253429725 -0.2889751524113361
000590 7e 84 19 66 04 2c d6 bf e1 d1 9b e3 c4 46 d3 bf
       -0.3464365956370513 -0.3011944029560976
0005a0 86 78 41 57 c7 86 be 3f db f7 cb 54 34 18 b0 3f
       0.11924405937449664 0.06286933012231037
0005b0 c1 7e 84 0c c5 16 c8 3f 72 28 e0 9d 07 f0 c8 3f
       0.1881948767777342 0.19482512673158997
0005c0 a1 df ff cc 10 6e c1 3f 5f cd dc 25 68 1f ba bf
       0.1361714364027167 -0.10204173015954641
0005d0 1e 6b d0 f8 81 ed cb bf 43 73 ac bc a6 f5 cb 3f
       -0.2181856598770872 0.2184341832406976
0005e0 80 e4 3b 48 ec a3 c7 bf 96 5f 25 97 38 ea cf bf
       -0.18469003226326564 -0.24933535938430101
0005f0 52 3e da 9c cf bc bf bf 02 37 1c ca 04 13 b5 bf
       -0.12397477702529017 -0.0823214524682179
000600 d1 36 34 06 8e 06 ca 3f 89 4e 38 de e2 ec bc bf
       0.20332503607681088 -0.11298959660808285
000610 a0 56 b6 81 52 b3 c3 3f b1 01 e9 d9 af 1b b7 bf
       0.1539099820480958 -0.09026621885369114
000620 e0 2a ce e4 58 45 ce 3f df 1d 49 07 83 75 a8 3f
       0.23649130985389544 0.04777154411254591
000630 d7 8c 6e 00 d1 15 e2 bf c3 d5 b0 c6 88 23 e7 bf
       -0.5651631363329227 -0.7230876808813992
000640 df 95 97 31 c6 35 eb bf 89 fa da d9 e0 b6 d3 bf
       -0.8503142326923657 -0.30803700709285714
000650 d0 f6 23 e3 cc 62 d2 bf a6 57 9f 05 64 17 e1 bf
       -0.28728029424369783 -0.5341053113759144
000660 ea 66 a6 60 15 54 89 bf c6 99 8d 53 44 32 d5 3f
       -0.012367407810234227 0.33119304809079286
000670 61 a0 d1 c4 e0 b7 e0 bf 49 19 88 0d 75 c0 b1 3f
       -0.5224460453146201 0.0693429143940182
000680 ec 23 ff bf 21 45 ad bf 83 5f b2 8b 9c 2d b6 bf
       -0.0571680590506459 -0.08663347635808631
000690 a3 06 89 33 62 78 e6 bf a1 36 33 52 15 ce ee bf
       -0.7021952635334013 -0.962656651064851
0006a0 c3 9e fc 93 01 4f e6 bf 3a d2 46 93 45 91 e3 bf
       -0.6971443071715487 -0.611483371400545
0006b0 b5 05 63 43 e5 04 c0 bf 9d db 35 66 1f d2 b8 3f
       -0.12514940061923388 0.09695621724482213
0006c0 bd 9f 42 52 63 33 d4 3f 18 dd 68 5e 9d 67 c0 3f
       0.3156364730189088 0.12816207036824134
0006d0 94 61 0e a2 31 cd d4 3f 0e 18 ed 85 5a ac b4 3f
       0.32502404046820144 0.0807549073188911
0006e0 92 ad f6 67 13 69 d3 bf 76 39 b2 0e 2a e7 d1 bf
       -0.3032883181828875 -0.2797341483609651
0006f0 92 21 15 7c 77 74 e1 bf 8d 4a 8f 8a 8b ad ea bf
       -0.5454671309935739 -0.8336847025151016
000700 36 ea 20 e2 2b 24 ee bf 01 dc 38 55 81 2a ee bf
       -0.9419154564450938 -0.9426886238569524
000710 6b 7a 98 3f 69 e9 d9 bf ef 43 fb d1 2c a8 d3 bf
       -0.4048712845850903 -0.30713959222799664
000720 fa 17 22 50 18 d7 a4 3f c6 63 c0 d0 7d 26 a1 bf
       0.0407035444086858 -0.033496791584361627
000730 f1 0b 6b 40 4e 57 b7 3f 9e a3 03 87 41 ce 9c 3f
       0.09117592880924953 0.028130554071058016
000740 4d 76 1f a5 f4 f8 62 3f 66 49 f1 16 cd 1f 61 3f
       0.0023159769270780007 0.0020903592735887376
000750 5f 3c 54 6a 95 20 7e 3f d2 2b e8 3e de 95 95 3f
       0.007355292943670737 0.02107951411202775
000760 4c d4 26 f4 78 b6 b6 3f d5 ef 67 bb 04 da 87 3f
       0.08872180901274013 0.01164630600850806
000770 46 f1 fa ff da 14 97 3f d4 61 00 71 06 be ae 3f
       0.022540494798464004 0.06004352692997697
000780 22 7c 10 a8 71 f3 b1 3f 99 52 90 ba f6 6f b6 3f
       0.07012091019758818 0.08764593176631265
000790 08 e3 20 7f a5 b2 92 3f 5c 17 28 e3 5d d9 91 3f
       0.018259607204728773 0.017430750836886374
0007a0 82 4c 00 db ad 89 74 3f 20 47 4a fe 98 5f 83 3f
       0.005014113543455713 0.009459681759185268
0007b0 57 ab 5a bf 5b c5 94 3f 2b 8f 0f 54 1e 64 86 3f
       0.02028411250527581 0.010933148327189798
0007c0 6b f2 0e f3 a4 bc 7b 3f d3 69 09 4e 7d 77 6a 3f
       0.006771702131058359 0.003230805145262064
0007d0 36 5c 27 4c dc d2 57 3f 39 6d bb df 88 fe 58 3f
       0.001454081663373475 0.0015255295428947115
0007e0 87 9e dd 53 ca 8b 52 3f 0d 99 9c 60 96 71 84 3f
       0.0011319614272568294 0.00998227579436819
0007f0 05 b3 9f 84 54 49 a2 3f 84 65 c8 a8 0a f8 96 3f
       0.03571571463530713 0.02243057875793887
