feat_pickles/2488_B_392.99725_393.17725.wav.npy (npy, 1712 bytes, 1 tensors)

array (column-major) f8 [6, 34]
0	0x3fd74215d0857421	0.3634085213032581
1	0x3fd36894da253689	0.3032581453634085
2	0x3fd79435e50d7943	0.3684210526315789
3	0x3fd838760e1d8387	0.37844611528822053
4	0x3fd1f7047dc11f70	0.2807017543859649
5	0x3fc6c6e5b1b96c6e	0.17794486215538846
6	0x3f6753296dd65a9a	0.0028472718392536624
7	0x3f9066f4ee52fb5b	0.016017748876716236
8	0x3fa29ef69c5b81ad	0.03636904390964744
9	0x3fa494c8aaf62617	0.04019763075764276
10	0x3fb27552c3a557e9	0.07210271145353854
11	0x3fbe27d77e418c38	0.11779543716834062
12	0x400916ecfa37de78	3.1361941860484954
13	0x400667c1ea68cb17	2.8006628335218795
14	0x400a036c32f96d44	3.2516712171906494
15	0x400a71d5757f9043	3.305582921939306
16	0x400856ead2807b5c	3.042440075441318
17	0x400a1dfb50928cd5	3.2646395010684537
18	0x3fd9f7202bc82b5e	0.405708353763364
19	0x3fdb5b5e8fdb29cf	0.4274517445416252
20	0x3fdbdce2a52ec8db	0.4353567708123031
21	0x3fdafbe58d6453ef	0.4216245537548379
22	0x3fd71369140acf20	0.36055972058533037
23	0x3fd5b762f7ae9b34	0.33931802928639176
24	0x3fcfd45b4adfe013	0.24866810947401116
25	0x3fcef4c8b1e7ebc3	0.24184521376431975
26	0x3fcd4e998af7e770	0.22896117482724376
27	0x3fcd0a8376343185	0.22688334724115236
28	0x3fcc810c6f37d791	0.2226882498795786
29	0x3fcbdf63ed46911a	0.2177548321316259
30	0x4002c21a0693ee70	2.344776202573307
31	0x400200e84ea077bf	2.2504430906983255
32	0x4003236f81e954bc	2.392302527363965
33	0x400428f5f2a940d8	2.5200003583814627
34	0x3ffccb61e14549a4	1.7996538924822767
35	0x3ff55d8142a62a9f	1.3353283503990168
36	0x0000000000000000	0.0
37	0x3f70539d3cba26df	0.003985990722534998
38	0x3f6ef9c35975c844	0.0037812056941044798
39	0x3f731795bc1d9108	0.00466116418997254
40	0x3f85bbbbcad1dd21	0.010611979605740065
41	0x3f75bdb46753c11b	0.005307869626662655
42	0x3fe4a3d70a3d70a4	0.645
43	0x3fe570a3d70a3d71	0.67
44	0x3fe5c28f5c28f5c3	0.68
45	0x3fe599999999999a	0.675
46	0x3fdfae147ae147ae	0.495
47	0x3fda8f5c28f5c28f	0.415
48	0xc03a101eb7701907	-26.062968697421663
49	0xc0379221e51d3b87	-23.570829696308945
50	0xc036c25ecca05300	-22.7592590228478
51	0xc03633eb5c9186e4	-22.202810082940132
52	0xc035be7fab6ae8bc	-21.744135583496913
53	0xc0357bd628db8ab7	-21.483736566161237
54	0x3fca4e84eea1e85d	0.20552121784186542
55	0x3fc32ce39beacc7c	0.14980740655082403
56	0xbfd9547798e14f15	-0.3957804673166135
57	0xbfc9ec701223fbbd	-0.2025280083252862
58	0x3fdd1c82c7c75765	0.4548651648486753
59	0x3fd552d541f25b8c	0.3331807273875078
60	0x3fcbccf329ae8627	0.21719207320443099
61	0x3fbd5b3dc023072d	0.11467348042336019
62	0xbfaa560e37513eac	-0.05143780160198949
63	0xbfe0eb48dc6c3396	-0.528721266282093
64	0xbfe05e102a8298f1	-0.5114823179508489
65	0xbff00456af4684a3	-1.0010592314431868
66	0xbff1bd7c0dc900b7	-1.1087608850939839
67	0xbfe930d780bc493a	-0.787212134777554
68	0xbfdc7353f3337195	-0.4445390582093521
69	0xbfe9e29815037504	-0.8089104090137487
70	0xbfe8d605b4048107	-0.7761257663696889
71	0xbfea832f8ceeade5	-0.8285138847908767
72	0xbff27c3bb212a59d	-1.1553303676576896
73	0xbfe1ee2de12ac03c	-0.5603246114533316
74	0xbfe472248ca10166	-0.6389334437044851
75	0xbfe772cd67c12c0e	-0.7327639605003939
76	0xbfeecbf07b83a76a	-0.9623949444187307
77	0xbff059ff15c953ed	-1.0219717837364855
78	0xbfdb9ca8cb40d43b	-0.43143672799061833
79	0xbfcb0a3bea5d7219	-0.21124981826405145
80	0xbf673137be33dfb3	-0.0028310860376414503
81	0x3fdb32ff669f51a5	0.4249876501246724
82	0x3feb3d4a1a91d5e2	0.8512316245020737
83	0x3fecd38e8fcb321b	0.9008248146506647
84	0xbfeb2579d2548b58	-0.8483246906292647
85	0xbfcca745374809de	-0.22385468673026215
86	0xbfc4758904f75eca	-0.1598368906259025
87	0xbfd6d9b744d155c2	-0.3570383235977169
88	0x3fd291a256fd2e7d	0.29013880248087515
89	0x3fd501aaead08089	0.3282267850027059
90	0x3fd2db5cc6c356a0	0.294638818840534
91	0x3fee910cd490559d	0.9552063132893412
92	0x3ff0d77817623011	1.0526047624034656
93	0x3fe4af76503d6a8e	0.6464187209306418
94	0xbfc11d676eeb0c86	-0.13370983997274183
95	0xbfc090be9b8a8130	-0.12941725344445265
96	0xbfc9f893adc571b3	-0.20289846405911546
97	0xbfc180047992778b	-0.13671928344859582
98	0xbfcb96b3bf3075ad	-0.2155365642110331
99	0xbfab73e42a74d0d5	-0.053618555243163314
100	0xbfcfd4446138c45e	-0.248665378066593
101	0xbfc24dd212d6b01e	-0.14299989623884896
102	0xbf9af46be056dd33	-0.026323018615326887
103	0x3fd515fb86c1bb77	0.32946670684662344
104	0x3fdc77f789c38c5a	0.4448222012853812
105	0x3fdd46f96aa0d350	0.45745692646896874
106	0xbfbba6b2edce333e	-0.10801237397954552
107	0xbfbf0bd5432a6a4e	-0.12127430810725423
108	0xbfdd97b0ae74511b	-0.462383432736958
109	0xbfe4f1b8af630abc	-0.6545070100331354
110	0xbfc539d5d7d8192d	-0.16582749404205668
111	0x3fcacf317fee724d	0.2094480394997781
112	0x3f9b8580213a99a6	0.026876451519137888
113	0xbfe306727d9a6e74	-0.5945370152653155
114	0xbfe0c183f2057ce0	-0.5236224867802797
115	0xbfd64afddea557aa	-0.34832712881813654
116	0xbfc558afa4598389	-0.16676898503194718
117	0x3f95966d7e1b6676	0.021081648656809247
118	0x3fe74bfb9e4ee91b	0.7280252544362925
119	0x3fe5daed534edf6f	0.6829744937049166
120	0xbfd64a1a5f17ac4b	-0.34827288900732317
121	0xbfeaf4009c91608f	-0.8422854478804015
122	0xbfe9027cba076a6e	-0.7815536149385716
123	0xbfe157dd17693e30	-0.5419755418060443
124	0xbfdf5d5bda1abbaf	-0.4900731687475241
125	0x3fb1dda108ee3ad9	0.0697880408099353
126	0x3fb43f99a855a6c4	0.07909546241503579
127	0x3fa38d76096615a2	0.03818863739710855
128	0x3fb30bcc974bd21c	0.07439879125360743
129	0x3f92150379840dc8	0.017658285419214242
130	0x3f51cff205ddc9ed	0.0010871757035287824
131	0x3f52ff21063f37df	0.001159460306542119
132	0x3f9f81e71992f0b7	0.03076897710410328
133	0x3faba77a8664e208	0.05401213541557942
134	0x3f8317c82ae9ef17	0.009322704133630162
135	0x3f95bd278345f0a1	0.02122937906959577
136	0x3f8a42ed1831097e	0.012822964001433897
137	0x3f5a823d5ef8a6db	0.0016179656339638168
138	0x3f94008ca51d9d6c	0.019533345773564845
139	0x3f80211e37880707	0.007875667638475926
140	0x3f70ccc561fa7aba	0.004101534868509555
141	0x3f72dedc683fe0fe	0.0046070680291381266
142	0x3f5508617d30d289	0.0012837364236137092
143	0x3f598b9d81e0d3c3	0.0015591657788835845
144	0x3f75d45df6d839f3	0.005329482124138074
145	0x3f7705203dd2b118	0.005620122855514852
146	0x3f6c1e457f071a42	0.003432403311509875
147	0x3f53ae948f204dc9	0.0012012911579447497
148	0x3f584ef0749e7d33	0.0014836643408456362
149	0x3f7282e5a4b09ecc	0.0045193643991649594
150	0x3f59853f3f1ed2da	0.0015576474802234037
151	0x3f61ff829f9d1c03	0.002197032093053776
152	0x3f6d7a05ea3fcde3	0.003598224213414035
153	0x3f6efb4c400ac7cd	0.0037819375287080127
154	0x3f8c6ce82e5998e7	0.013879598536004468
155	0x3fafa4af5ca83d4b	0.06180332189625889
156	0x3f659844977d66e9	0.0026360835726507614
157	0x3f71418d536069e1	0.004212905934787931
158	0x3f76a8f2b71a1f8f	0.005532215219893901
159	0x3fa000cc285094d2	0.03125608436702411
160	0x3fa49dad3e57a23d	0.04026547800078049
161	0x3f97b9b51675222d	0.023169354911518326
162	0x3f618adfc397c2b6	0.00214141563332534
163	0x3f761013e88bd3ac	0.00538642670357074
164	0x3f81e3247fcb5421	0.008734021329852184
165	0x3f7bf0ce5555a9fa	0.0068214473625212105
166	0x3f670929de1066e8	0.002811986706103709
167	0x3f65801567939bd4	0.00262455158791706
168	0x3f6ce0e5d75203ec	0.0035252083858385765
169	0x3f6902bd9a7f3fd3	0.0030530646508637265
170	0x3f698219d0263316	0.0031137947236800174
171	0x3f7dcf141b561d44	0.0072775636120988065
172	0x3f6bc30f9e2d3699	0.0033889107739131894
173	0x3f4be38a9e1b1282	0.0008510996669533618
174	0x3f63c071b0f0bd85	0.0024111004381876544
175	0x3f4e568d2f71de48	0.0009258450871944624
176	0x3f5f68c9e2454058	0.0019170733949813914
177	0x3f675cfbbcc00b4f	0.0028519551033253997
178	0x3f5843743b044714	0.0014809260429199987
179	0x3f50e647baa63b14	0.0010314655761224966
180	0x3f5b525d004563c4	0.0016675861562218544
181	0x3f6277cdd60696a0	0.0022543926463239466
182	0x3f4bb716cc2a1bba	0.0008458005252841496
183	0x3f6a3aa9f2b86d9f	0.003201801233229509
184	0x3f81501a69985a56	0.008453565928943235
185	0x3f769159205f8f88	0.005509708547808752
186	0x3f63391bcf610cb6	0.0023465674558181505
187	0x3f65914c4d3a7f48	0.002632760073382121
188	0x3f68c6aa6ff3b036	0.003024418721556922
189	0x3f77a5b99fc081e1	0.005773282140609543
190	0x3f7c2161d0b383d3	0.006867773142602967
191	0x3f5a51b16d13f488	0.001606391208326204
192	0x3f54c27df3886fb0	0.0012670736306352563
193	0x3f83f496a4517569	0.009743859185784758
194	0x3f8649a7cc6f75e0	0.010882674147007998
195	0x3f9e5da1d50cf7e8	0.029654053333835778
196	0x3f8103bdd3d1a6c7	0.008307917620374096
197	0x3f6d9db61189decb	0.0036152416253648393
198	0x3f965c87e0136b9e	0.021837351848130397
199	0x3f9071894247e2e7	0.016058106108149863
200	0x3f93e3e529462166	0.019424038547670185
201	0x3f85294852810406	0.010332646386929777
202	0x3f8581ccc24dfc06	0.010501479797083501
203	0x3f915ab8aad36638	0.016947637010934907
