feat_pickles/2502_B_84.83175_85.21625.wav.npy (npy, 3888 bytes, 1 tensors)

array (column-major) f8 [14, 34]
00000000: c452 114b 452c b53f 1886 6118 8661 b83f
00000010: a09a 816a 06aa b93f b0c3 c10e 073b bc3f
00000020: e4a4 9193 464e ba3f 3c3e f1f8 c4e3 b33f
00000030: 2c15 b154 c452 b13f f833 e1cf 843f b33f
00000040: d47b 51ef 45bd b73f a09a 816a 06aa b93f
00000050: 1886 6118 8661 b83f 9071 41c6 0519 b73f
00000060: 1886 6118 8661 b83f 085d 2174 85d0 b53f
00000070: 6692 5555 434c a73f 13f0 5539 e293 a93f
00000080: df3a 484a 1565 a93f c8f5 9eeb 89e4 a83f
00000090: df64 f242 43a3 a43f 6e54 784d fd0b b23f
000000a0: 0fbe 2ac0 f530 b93f c3bb 19a5 a6b5 b93f
000000b0: 8c4d 4df2 dfcf b73f 884e 0831 aa75 a83f
000000c0: 6438 b52f 797b 8a3f 3d30 a60e 876a a23f
000000d0: 66a4 39b6 1bfd a63f 9af8 12ce b274 a83f
000000e0: 6179 18e5 95b3 0440 3f95 2057 07a3 0740
000000f0: 94c8 4e4f d5e4 0740 b213 bae2 47c2 0640
00000100: eb18 421d 5921 0740 90df 2a5b e39e 0740
00000110: b044 c43e 0235 0740 67fe 0b2a ade6 0740
00000120: 64a3 58ee 082a 0940 ee73 0bff ce4b 0340
00000130: 692d aaf0 6554 0540 eb75 21f6 af6f 0540
00000140: 6a5c b293 3a50 0740 c05c fe34 600d 0740
00000150: 7e0c c246 a78f c73f 8ad3 13dd 9e1a c93f
00000160: a899 2afd 879b c83f 5877 ab5f eee2 c83f
00000170: 9028 12e7 4943 c83f 29a5 b825 7963 c43f
00000180: a393 ec8d 9ae2 ca3f 5811 0dc8 3ce7 c83f
00000190: a965 eae8 cedb cb3f 290d 77b5 f2a5 c83f
000001a0: 4859 f543 28eb c73f e77f 6ba6 d35c c63f
000001b0: b9bf f462 6ba0 c53f 203b b72f daec c33f
000001c0: 657d 0cf5 a771 c83f cd9c 5336 bed2 c83f
000001d0: 190a bd17 ab22 c63f cdc1 88fd e44a c63f
000001e0: 340e 4975 94e0 c83f 5598 d548 cffc c63f
000001f0: 268b ba37 21c7 cc3f 3718 0025 49d2 c93f
00000200: d327 0ec1 ccff cc3f 24d8 024c e389 c93f
00000210: 34ab 1688 e11a c93f 45ec 1624 7469 c63f
00000220: 51a3 bfcd 1cef c43f e4ab f506 9ff0 c33f
00000230: e55d 698f d10f e43f 4e59 05a4 25a5 e73f
00000240: 2371 5fb3 3ad7 f33f ff08 e475 8bec f43f
00000250: c6fe 7bff a668 e83f ffd3 4a3e d8c0 e13f
00000260: a09f a8ed 8e02 e63f d93e c4cb 8982 e33f
00000270: ba54 d8f3 e465 e43f 8b42 df84 1578 dd3f
00000280: fa74 9b2d eccc ea3f 1e6b 6332 065c eb3f
00000290: df22 72db 9440 f03f 24c1 46ed 5f57 ed3f
000002a0: 0000 0000 0000 0000 fa6a b4ae b7eb 6e3f
000002b0: fa67 ca5b d300 863f 2528 7030 2905 723f
000002c0: 2b1e 6fae c1f7 883f f7f7 8bf7 402d 853f
000002d0: def3 0b67 1d44 923f 748b 476e 48cc 853f
000002e0: de86 fe1e 2096 723f ed1e f769 e1b3 803f
000002f0: 89de c977 a9f3 953f 003c ad95 699d 783f
00000300: c6f4 b6ab a359 843f f089 c897 9873 723f
00000310: 9a99 9999 9999 b93f 295c 8fc2 f528 bc3f
00000320: 3d0a d7a3 703d ca3f 85eb 51b8 1e85 cb3f
00000330: b81e 85eb 51b8 be3f 52b8 1e85 eb51 b83f
00000340: 295c 8fc2 f528 bc3f 9a99 9999 9999 b93f
00000350: 295c 8fc2 f528 bc3f c3f5 285c 8fc2 b53f
00000360: 0000 0000 0000 c03f 8fc2 f528 5c8f c23f
00000370: 1f85 eb51 b81e c53f 3333 3333 3333 c33f
00000380: 862f 746a fbce 36c0 155a 1aac 4b81 36c0
00000390: 5b94 ed51 cfe0 35c0 475e a85e cef2 35c0
000003a0: 6720 342a e8a0 36c0 f983 2f8a 20a2 36c0
000003b0: 17fe 4bed 6fc8 35c0 00f6 b1ca d2a6 36c0
000003c0: 0b1a a37c 2450 36c0 db9a d165 d26a 37c0
000003d0: a25d 2ef0 4504 38c0 d62d fc15 e4de 36c0
000003e0: 2149 9cac 9989 36c0 5f27 6f92 96d2 36c0
000003f0: e040 5b15 8ede 0840 f434 5a87 d977 0740
00000400: 22fc 91e0 d1ea 0840 1775 d7ba b89b 0840
00000410: 0352 fe33 4169 0840 1e3b c7b5 9a3d 0b40
00000420: 568a 8c94 d2ad 0540 118a 9f52 ea62 0540
00000430: 6866 8d98 418b 0540 6f0f 3b25 efeb 0640
00000440: 7ff3 7e53 ad20 0840 f28d cce7 d393 0b40
00000450: 24c2 ed30 2e1f 0d40 729c ca93 2456 1040
00000460: 5a29 275f ae58 da3f ceb5 b225 f1e1 b53f
00000470: 4c76 a01a e00d e9bf 5d2c bed8 07fc ebbf
00000480: 29b1 9ad2 a8e8 acbf a9dc 9d64 2f47 d33f
00000490: 407c 571b 06ea cc3f 0893 6697 d618 e13f
000004a0: 93e7 82fb c6a2 d33f 7650 57ae 8efe e33f
000004b0: 448e 9f50 0449 cc3f 4e9b 704b c53d d7bf
000004c0: 1f3a 4f7f d6af e5bf 7c2d 7a3d 2d42 e5bf
000004d0: 2502 29af 10f1 df3f 5b43 a7f5 844b e23f
000004e0: 9fbd 10e8 2c28 e43f b88a ace7 d271 e13f
000004f0: fe5a dddd 21ba e73f 02dd 1efe bd1d e23f
00000500: 12f6 5a0a 4443 cb3f 5510 502c dfeb d43f
00000510: c23f 92cb ea23 b13f 67cd bcd1 c2ff e13f
00000520: f168 bae8 9e24 e03f bf1b 99d5 c0f5 e03f
00000530: a360 fb2b 80f1 e33f e43d 5c88 f8df c63f
00000540: ff50 c68a f819 e5bf 4678 e977 f94d debf
00000550: 98f6 fefe fbb1 cfbf c64a d0d2 ee6c ccbf
00000560: aaba 28b1 d7c4 b83f 630a 4023 f611 d4bf
00000570: 2800 ac74 2d05 e1bf 2148 0911 b495 eebf
00000580: e1da e5e9 e362 e6bf 4d08 2a57 1ed2 e9bf
00000590: 1ee7 557b 6323 b8bf 4e4e 1cd0 9c30 bc3f
000005a0: cb4e 331f 8aba a03f d412 b50b 86ce b93f
000005b0: 3c64 d995 0925 d9bf 77af 478a 1974 d0bf
000005c0: 6bdb 4265 9a02 94bf 6eac 4daa 03fe 7ebf
000005d0: 71b2 f43d c083 a3bf cf42 366e c284 c23f
000005e0: c57d 116e 4447 e2bf 5f70 f101 8dc9 d5bf
000005f0: a792 fccd 6b86 d2bf 0c9d e989 765c b6bf
00000600: 64a7 7cf0 b436 d73f d07a 22f2 f998 753f
00000610: b64c 1771 eba1 b7bf 9fdd 0f7e ef38 c6bf
00000620: 37b4 4b03 4540 e4bf 6301 2f1f d3fa e1bf
00000630: 9418 7713 7ffb cfbf 528c e442 ce3f cabf
00000640: d4ea ab0f 9a41 e1bf 2d77 74d9 ca35 e2bf
00000650: 5e05 a15b 9fb8 e1bf 7be4 bbf1 cdde e5bf
00000660: 791b 3dd1 d97e dfbf 430f dfbe 966a e5bf
00000670: b5af 3b03 72b1 d5bf 2676 1b55 9b70 bbbf
00000680: 1fff 38b2 cc2a d3bf 1973 5637 711e d9bf
00000690: e83e 2c96 3dcd c4bf 6cd3 f0ce e62a d7bf
000006a0: f6ad 942d d1bb d0bf d5d6 f224 15ef aa3f
000006b0: 46dc 6e80 6b99 b1bf 96e9 2b76 6cad adbf
000006c0: 9cc4 7e49 5045 c9bf cdcc 4894 7b11 af3f
000006d0: f607 5eb9 add0 b8bf 16eb 7dec d8ed b7bf
000006e0: c1f7 0369 2578 d0bf acd9 7fff 70e9 863f
000006f0: 8f37 3bd8 92e7 813f c27b c66d 2426 d1bf
00000700: 8178 7836 0b57 acbf 417d 44e0 ef14 bcbf
00000710: 272d b742 34fd d4bf 9b98 6f41 3eca d1bf
00000720: 49ef bdbf da93 75bf 72db 30d5 7cc0 c73f
00000730: f7f2 02e8 4887 a9bf 5a4d 361a 578f ae3f
00000740: acb2 e93f 48c9 acbf 3287 7945 2e6d c0bf
00000750: eac1 de49 aab0 afbf 2928 3ec3 93b3 d2bf
00000760: 165f 8fd5 0796 cdbf ffe2 590e d2b8 cdbf
00000770: f6dc 21bb a454 c1bf df16 f0f3 feaa 7f3f
00000780: 8615 28ad 69a4 d4bf e733 550c 4bbe d0bf
00000790: 3114 19bb d3e0 903f 35c7 3d08 bc6e b93f
000007a0: 5367 49bc 3f61 b6bf 5ca8 9306 c139 833f
000007b0: 7b58 7b00 5706 a5bf 32a3 45c4 a803 a7bf
000007c0: 8d93 5900 b05b c1bf 22fd 8509 b04d aebf
000007d0: e74e af55 fa6d b7bf fbdf 55a0 e659 c0bf
000007e0: ddbb b491 c778 ccbf d999 bef0 2191 c4bf
000007f0: 10cb 4b46 4b7b c7bf 948b 0a64 965f c5bf
0.08270676691729323 0.09523809523809523 0.10025062656641603 0.11027568922305764 0.10275689223057644 0.07769423558897243 0.06766917293233082 0.07518796992481203
0.09273182957393483 0.10025062656641603 0.09523809523809523 0.09022556390977443 0.09523809523809523 0.08521303258145363 0.04550371567419091 0.049956387995706696
0.04959932834400659 0.04861861230117942 0.04030809585783301 0.07049544469221455 0.09840331975532755 0.10042802363180585 0.09301566758704477 0.047772711263090406
0.012930819290570557 0.03596899083922309 0.04489981269291192 0.047765338569193364 2.587688245591537 2.9546038443392315 2.986734981147558 2.844863673499696
2.8912832532688433 2.9525820848902598 2.9008831885954223 2.987634972086926 3.145524847106957 2.4120159077997334 2.666210060304071 2.679534838577401
2.914174226647039 2.8815311565518584 0.1840714545724928 0.1961248950462074 0.1922464357532594 0.19442538901688056 0.1895534876132996 0.15928568212374586
0.21004039697541285 0.1945568062602756 0.21764551518280698 0.19256433353994254 0.18686393087655007 0.17470784784290957 0.16895811397398378 0.15566565828199774
0.19096850838921423 0.19393136646906442 0.17293299349883354 0.17416059856033286 0.19435363509011128 0.17959013992657683 0.22482695790412172 0.2017299109140269
0.22655639101532063 0.1995205041072846 0.19613284249256824 0.1750931907862158 0.16354713484113373 0.15578067626788006 0.626930980778465 0.738909550050076
1.240046215701178 1.3077501874072934 0.7627749433449587 0.5547906128546173 0.6878122941752629 0.609684846860513 0.6374382746313565 0.4604543492869559
0.8375149622694658 0.8549834236285709 1.015766961298304 0.9169158586792361 0.0 0.003774508242384453 0.010743762243965439 0.004399453063351576
0.01219130815105903 0.010340220980193477 0.017837962545843904 0.010643545022451774 0.00453770205777612 0.008155594869904326 0.021437309204400044 0.006009495201239723
0.009936598470512325 0.0045047722492505965 0.1 0.11 0.205 0.215 0.12 0.095
0.11 0.1 0.11 0.085 0.125 0.145 0.165 0.15
-22.80852380119861 -22.505060917314115 -21.878163452627955 -21.948461452584777 -22.628542554594244 -22.633309017754048 -21.78295786958014 -22.65165392727613
-22.313056745357283 -23.417272914574692 -24.016692172355427 -22.8706678143188 -22.537501133113555 -22.82261004651752 3.108669440123876 2.9335203718570657
3.114658121543031 3.0760359379770637 3.05139389629244 3.4050802422929243 2.709874306239082 2.6732984976708924 2.692996208014666 2.865202227463605
3.015955593406431 3.44718152134896 3.640224821334657 4.084123906365777 0.4116626672008771 0.08547885103572314 -0.7829437751822268 -0.8745154603251525
-0.05646255083897451 0.3012197954735237 0.225891841268977 0.5342820126575996 0.30681013642935645 0.624823894987016 0.22097829758341636 -0.36314518325018674
-0.677714584971742 -0.6643282128074328 0.4990884504841538 0.5717186735074437 0.6299042255904402 0.5451445126421595 0.7414712270063715 0.5661306346218284
0.2129902887881348 0.32689647033135333 0.06695430250169834 0.5624708267627455 0.5044703050109814 0.5299991771543019 0.6232300623915034 0.17871004732340545
-0.6594202719157066 -0.4735091849341909 -0.24761915160154468 -0.2220743684161645 0.09675357890294359 -0.31359628145597734 -0.5318820265529256 -0.9557743389834777
-0.6995715683286471 -0.8068992330957002 -0.09428998719331758 0.11011676865410289 0.03267318373550906 0.10080755029509741 -0.39288558610639135 -0.25708616737278284
-0.0195411800675304 -0.007566465680478902 -0.03811455494210215 0.1446764982361146 -0.5711996221324901 -0.3404266852355757 -0.2894544135654464 -0.08734837405210188
0.3627140377526443 0.005272842741901498 -0.09231444846163836 -0.1736125340973844 -0.6328454079026703 -0.5618682488493899 -0.24986256075334679 -0.20507219568489404
-0.5392580324254035 -0.5690664527098527 -0.5537869252804446 -0.6834478112570105 -0.49211736138789025 -0.6692613342242811 -0.338955405385373 -0.107186992910521
-0.2994872799354073 -0.3924830475241819 -0.1625134452119632 -0.36199350556426313 -0.2614634461521911 0.052605305443120955 -0.06874725232670284 -0.057963742661701165
-0.1974277838576527 0.060680257655258175 -0.096934182887736 -0.09347301267363792 -0.2573331380407318 0.011187441632483829 0.008742472862106413 -0.2679530212425868
-0.05535159149097613 -0.10969447350770613 -0.327954354431045 -0.27796894445635595 -0.00526795815300913 0.18556175622662924 -0.049860266038626415 0.05968734927150861
-0.05622316150843196 -0.1283319319946315 -0.061894723431922774 -0.2922105223339054 -0.23114107063042216 -0.23220277500856665 -0.13539561402624373 0.007731433782287771
-0.3225349608404361 -0.2616145725667693 0.016482647223046768 0.09934592438892483 -0.08742140147060455 0.009387500775535233 -0.04106399422532633 -0.04494979282282542
-0.1356105806072744 -0.05918645969631543 -0.09152187911905295 -0.12774355725173323 -0.2224358998732602 -0.16067909484009027 -0.18345013554024847 -0.166979597900618
