feat_pickles/2547_B_264.356125_264.52475.wav.npy (npy, 1440 bytes, 1 tensors)

array (column-major) f8 [5, 34]
0.18546365914786966 0.16290726817042606 0.15789473684210525 0.14786967418546365 0.14536340852130325 0.0071903059748104 0.013485124572303836 0.019235214226850882
0.019104930765703534 0.03206876898112041 2.8265209772234754 2.7566585378434834 2.7015298665029785 2.591770056318851 2.457671614192304 0.24365052277431484
0.2329667132323354 0.22671629552554232 0.22507166203218995 0.21557979808118582 0.19447324920667458 0.18648743336340257 0.17759501510968467 0.17799832959868522
0.16666301902138167 1.8017771271600145 1.6763377838119708 1.634388932216041 1.6710706273207552 1.5386957132473582 0.0 0.005785483498686076
0.005299799181227729 0.0070068504553413985 0.008884405401285374 0.32 0.235 0.255 0.26 0.22
-24.027575433199395 -23.375085771329154 -22.899638630699364 -23.204526097271263 -22.637900629033485 2.341339363873618 2.382325421938806 2.559491066899133
2.6722863584078658 2.7697572698205826 -1.1695284529877943 -1.3097952472415915 -1.553327275772297 -1.5744245290661367 -1.644200105610707 -0.006898287665681833
0.02897906610767385 -0.028531528044282554 0.12953003297588356 0.003496322811975165 -0.1564248259437468 -0.0031019604262128735 -0.20067901390901052 -0.13001657894496882
-0.10557403192985684 0.16947793273056283 0.3587679063662865 0.07401346160332486 0.08875636469189246 0.11098229003511874 0.08595644226778523 0.019098362780543932
-0.014572468700882366 -0.003818117135403224 0.06694013075259957 -0.4360684874238676 -0.3942475794241263 -0.3726112249471555 -0.43969620063511683 -0.5149787074536428
-0.6148537707311943 -0.37456437596383296 -0.450252176116269 -0.5344375293347537 -0.3800016692642723 0.19908791163736314 0.1461638277303735 0.07300337607367552
0.21152249394965927 0.23583342896811724 -0.11126432909611282 -0.18146518956802585 -0.14296485261293143 -0.17368060556672324 -0.15952448744370973 -0.11963801179256453
-0.1827618383277569 -0.11841855004525645 -0.16193233562391215 -0.18471702476448373 0.12547526670239806 -0.02241428776929157 -0.037269635135891356 0.08753670862128073
0.06857827338885923 0.0027452436628278266 0.006200238892730504 0.011158857729096075 0.018229868235987063 0.022119178989289615 0.0016316016494945565 0.007417010044401452
0.006318977228352311 0.0008282117942609616 0.0021092033563065347 0.01655776622575801 0.023794460962180602 0.01717559986577107 0.015727415854574517 0.007622275578123515
0.006233471435834122 0.003236664932044421 0.01303883657707198 0.005737852991820732 0.0007501759402774769 0.023996821047706084 0.003545540956966945 0.007594535572963781
0.011628837625080504 0.029695471627283188 0.017767393602627794 0.026325553929491236 0.03912654432985841 0.04759052606900296 0.0289186348979647 0.05493171427077214
0.04590912688479052 0.036372570832170575 0.0565576735965303 0.02529382890029685 0.017660518374100386 0.0061707359336835264 0.04082479127281681 0.007875875493940806
0.003438146743231845 0.034814216376792356 0.015781518312539575 0.001788327808738907 0.024990085576453644 0.037498480146094 0.007733475867160136 0.019462142074235765
0.02033332913396815 0.00477096118805208 0.025793580158884995 0.00911983607357824 0.006778390056529287 0.010813362174768538 0.0017473428737867225 0.003763162287076862
0.006174364035972773 0.008672761576808942 0.0020812208531042473 0.005619470114091666 0.011053706711100869 0.014790233450087287 0.01213762018265242 0.013502049799557048
0.01727022682488485 0.012453323642837317
00000000: d47b 51ef 45bd c73f a24d 8936 25da c43f
00000010: 5e43 790d e535 c43f d62e 59bb 64ed c23f
00000020: b429 d1a6 449b c23f f823 2910 9573 7d3f
00000030: 230c 2ac8 169e 8b3f 53bd 2460 65b2 933f
00000040: 64fc 5233 3e90 933f 8d68 fe53 516b a03f
00000050: f30f b507 b79c 0640 2c37 d2fd a20d 0640
00000060: 5c61 ceb0 bb9c 0540 e121 75f0 f1bb 0440
00000070: 991b 3abc 4fa9 0340 b707 7cb9 f02f cf3f
00000080: d7da 316f dad1 cd3f 1d51 6021 0a05 cd3f
00000090: a7a1 d7f1 25cf cc3f daee 376b 1e98 cb3f
000000a0: 2a0f a5da 7fe4 c83f e094 b4f9 d1de c73f
000000b0: 8c13 eaf6 6ebb c63f cc3a 2f36 a6c8 c63f
000000c0: 8321 13bc 3655 c53f 5c54 bd40 14d4 fc3f
000000d0: 3358 6891 47d2 fa3f 01ff 4c02 7526 fa3f
000000e0: ae61 da8d b4bc fa3f e648 6e65 7f9e f83f
000000f0: 0000 0000 0000 0000 c4c8 b1e6 84b2 773f
00000100: a933 8a02 3eb5 753f 50c4 db18 37b3 7c3f
00000110: 9eb6 24b5 fc31 823f 7b14 ae47 e17a d43f
00000120: 14ae 47e1 7a14 ce3f 52b8 1e85 eb51 d03f
00000130: a470 3d0a d7a3 d03f 295c 8fc2 f528 cc3f
00000140: b2c3 ff2e 0f07 38c0 bc0d 019f 0560 37c0
00000150: 6e12 a1b7 4ee6 36c0 66f5 82d2 5b34 37c0
00000160: f1cb a374 4da3 36c0 a665 e521 10bb 0240
00000170: a940 7da1 000f 0340 2ce3 d573 d679 0440
00000180: 0e45 97ab d760 0540 b5e6 dd7f 7628 0640
00000190: 4f2f 9577 63b6 f2bf eebd 75dc ebf4 f4bf
000001a0: 20d4 96b3 6dda f8bf 86bf 65c6 d730 f9bf
000001b0: fed7 1ac5 a44e fabf 3193 c2fe 6041 7cbf
000001c0: 3be8 cd34 b0ac 9d3f 719f 6b6f 5e37 9dbf
000001d0: aa98 bdab 7094 c03f a334 4704 52a4 6c3f
000001e0: 46fe da8b ba05 c4bf a5b4 b052 4869 69bf
000001f0: 13ca dd94 d9af c9bf 22d3 401d 62a4 c0bf
00000200: 8212 7256 e606 bbbf a658 3cf1 73b1 c53f
00000210: 54a5 2caa 0df6 d63f e6ce 0cd5 8bf2 b23f
00000220: ecdc a9b3 bcb8 b63f 51d2 22da 5569 bc3f
00000230: b2af 6bcc 3d01 b63f 0dc5 326e 858e 933f
00000240: 052d f0a3 2bd8 8dbf bbc5 5207 2c47 6fbf
00000250: 3b54 5f08 fd22 b13f 084f 13cd 8be8 dbbf
00000260: 9dd7 0933 5a3b d9bf 6650 51c0 dcd8 d7bf
00000270: 5ccf 7988 fb23 dcbf bbca 54a0 b47a e0bf
00000280: be9b a3d0 e1ac e3bf 52b9 40dc dcf8 d7bf
00000290: 40d2 d780 eed0 dcbf 0bee c7bb 1c1a e1bf
000002a0: dd96 7a85 f251 d8bf f775 c172 b67b c93f
000002b0: 9ce5 fa0d 7fb5 c23f 14e9 bb68 59b0 b23f
000002c0: 1cea f048 2b13 cb3f 795d 5c30 ca2f ce3f
000002d0: 1fdf adae d17b bcbf 6d4f 4757 403a c7bf
000002e0: 9f99 391b ac4c c2bf 07e5 6d84 2a3b c6bf
000002f0: c4ae 3d64 4c6b c4bf 4aed 01c4 98a0 bebf
00000300: 068b 496b bd64 c7bf 3622 af97 ad50 bebf
00000310: 67b5 d5e2 32ba c4bf 5d5e 30b6 cea4 c7bf
00000320: 6cca 78d3 920f c03f 259d ba63 c5f3 96bf
00000330: 55c3 1570 0115 a3bf 7956 ba44 ce68 b63f
00000340: 27da 6b81 588e b13f 3b71 0b78 317d 663f
00000350: 28bd 58f4 6b65 793f bbb6 0e88 74da 863f
00000360: 252b 89bf d9aa 923f 8154 7ef9 68a6 963f
00000370: 1623 61ee 6ebb 5a3f 9b69 3279 4c61 7e3f
00000380: 1e9a a388 ede1 793f 228c 0649 8b23 4b3f
00000390: 6b4d f3ed 5147 613f e4de bce1 84f4 903f
000003a0: 9851 a23e 935d 983f d5c5 d9fe 7a96 913f
000003b0: a8e4 fb02 d91a 903f 4b28 4405 8938 7f3f
000003c0: 2fbf 51bf 4488 793f d0ec ff40 c783 6a3f
000003d0: 154b 6905 1bb4 8a3f 899e 2f2f 9380 773f
000003e0: a73f 9b90 ee94 483f 6673 6e66 9f92 983f
000003f0: 551e 9ece 890b 6d3f a983 a09e 721b 7f3f
00000400: 485c 522a dcd0 873f edf5 e95d 7d68 9e3f
00000410: de72 d599 9d31 923f a87a b404 16f5 9a3f
00000420: b1be 9af8 6408 a43f f3b0 2112 c95d a83f
00000430: 50e2 86bc d89c 9d3f ffc3 9c78 0220 ac3f
00000440: edbd 1dad 6681 a73f cc27 64f4 6c9f a23f
00000450: 80b0 de9c 20f5 ac3f 7e69 ab1f a0e6 993f
00000460: 1380 6353 9915 923f dc52 7050 7c46 793f
00000470: 02fb c3ae fce6 a43f 1e08 641d 3a21 803f
00000480: 0be0 45fa 502a 6c3f bc62 8c41 2bd3 a13f
00000490: 7963 22c4 0729 903f 59f3 fe5c ca4c 5d3f
000004a0: 5cb6 1941 0097 993f 9c1d c133 0033 a33f
000004b0: 1d15 f11e 23ad 7f3f f633 e03e e2ed 933f
000004c0: 27c7 989e 42d2 943f 72e6 5e24 b78a 733f
000004d0: 5faa eadc a169 9a3f 7c7b 72ad 6bad 823f
000004e0: 2c15 cc39 a8c3 7b3f e716 34e7 5025 863f
000004f0: 8029 dc1f e3a0 5c3f 1e2c 7b5e ecd3 6e3f
00000500: c6c8 ba39 4a4a 793f f40a b55a 06c3 813f
00000510: fda7 feef a20c 613f de22 c605 7104 773f
00000520: 500c 9766 53a3 863f e023 bf87 574a 8e3f
00000530: 06d7 e2cd 9bdb 883f 8063 8b72 f6a6 8b3f
00000540: d728 a14d 49af 913f 2a0f 2ece 2081 893f
