feat_pickles/2587_B_277.269125_277.55375.wav.npy (npy, 2800 bytes, 1 tensors)

array (column-major) f8 [10, 34]
000000 9e e7 79 9e e7 79 ce 3f 5c 90 71 41 c6 05 c9 3f
       0.23809523809523808 0.19548872180451127
000010 6e 6c b9 b1 e5 c6 c6 3f 6e 6c b9 b1 e5 c6 c6 3f
       0.17794486215538846 0.17794486215538846
000020 b2 76 c9 da 25 6b c7 3f f6 80 d9 03 66 0f c8 3f
       0.18295739348370926 0.18796992481203006
000030 4c 67 31 9d c5 74 c6 3f 3c 3e f1 f8 c4 e3 c3 3f
       0.17543859649122806 0.15538847117794485
000040 7c e2 f1 89 c7 27 ce 3f 67 31 9d c5 74 16 d3 3f
       0.23558897243107768 0.2982456140350877
000050 54 3a c4 d2 fb 90 b8 3f 65 60 22 ee 6d bc ad 3f
       0.09596227546374198 0.058078227347494495
000060 21 dd 4a 95 7d b7 a3 3f a4 4e a0 ee 8a 24 a6 3f
       0.03850929686944427 0.04324754870336037
000070 c4 a6 d8 da fb 83 a3 3f c4 18 ba cf 78 9b 9d 3f
       0.03811633154357488 0.028913390806814446
000080 d7 73 7e 94 52 95 95 3f 7a 82 ef ec 03 54 7a 3f
       0.021077432931281805 0.006427779516315563
000090 ea 6a ca 97 4b 1c 1a 3f f4 12 48 92 da 8a ff 3e
       9.960376150745421e-05 3.0081174502444083e-05
0000a0 f2 4f 90 b5 e2 af 09 40 25 b9 a4 2c 30 09 08 40
       3.210881632296144 3.004486416603998
0000b0 f8 1b e2 3a d4 c4 08 40 3a ec 2f 41 5d 52 08 40
       3.0961079216244762 3.0402169316053262
0000c0 26 c5 97 58 25 d2 05 40 e4 a3 28 4d e0 c1 03 40
       2.727610294467598 2.4696661022212414
0000d0 d5 7a d1 30 ff 83 02 40 78 c5 ca 08 73 34 f9 3f
       2.314451581375901 1.5753050177994208
0000e0 5f 6d 3b 90 11 0b 07 40 4f 4a 7f ea 19 9b 09 40
       2.880404593289924 3.2007330246063144
0000f0 77 bd de af e0 a9 d2 3f b6 e9 54 fa d7 15 d1 3f
       0.29161851095974306 0.26695823141531194
000100 32 b2 05 a8 d4 18 d0 3f b5 a5 fc 2a 75 b7 ce 3f
       0.25151554497168427 0.23997368430108926
000110 23 c3 19 48 56 e2 cf 3f 5c 15 75 59 27 58 d1 3f
       0.24909475822962532 0.27100547538824116
000120 cb c9 b0 7c 7e 95 d1 3f ad 29 f3 43 c3 a1 d0 3f
       0.27474939514936797 0.2598732150624084
000130 79 fe 6d d4 6a 12 d5 3f 69 b9 af 99 e8 6a d8 3f
       0.32924910302242655 0.3815251828044866
000140 5e ec 44 4f b8 0a c9 3f bf ee 69 0d 60 75 c7 3f
       0.1956396472031398 0.1832695069787089
000150 b8 79 b1 5e d5 68 c7 3f 45 20 eb 16 07 20 c5 3f
       0.1828867637986613 0.16503990763726697
000160 d8 ac d1 91 28 d1 c4 3f 9d 4e f0 45 77 75 c5 3f
       0.1626330101019906 0.1676472751138264
000170 94 e7 7d 1f 25 22 c6 3f aa 8e e1 74 3f 70 c7 3f
       0.17291702306448242 0.18311303336223733
000180 fb ef ca 5f ec f0 d2 3f de be 40 b8 f9 61 d3 3f
       0.2959547934985946 0.30285494798134305
000190 92 47 5c d6 c5 56 f9 3f c3 6f 23 ac 2d b4 fa 3f
       1.5836847661453004 1.6689888691098396
0001a0 9e 83 57 bd 23 c6 f6 3f ed 1a 6b f4 43 5c f7 3f
       1.4233739277044388 1.4600257442086175
0001b0 28 a2 9d 50 29 9e f8 3f 93 e4 0e be 6e 87 fc 3f
       1.5386136197140647 1.7830645965716811
0001c0 aa f0 70 b9 5f ec fe 3f bd a7 5e ed df 56 fe 3f
       1.9327084773822585 1.8962096473937742
0001d0 07 f2 8a 74 3d 5b f7 3f 3e 36 38 df 3d 55 03 40
       1.4597754051638974 2.416621917632056
0001e0 00 00 00 00 00 00 00 00 bf 6a 83 86 a9 89 7b 3f
       0.0 0.006723081787834927
0001f0 a2 72 58 b7 52 d1 80 3f 93 45 9c 2e 8c 8e 58 3f
       0.008211752147923083 0.0014988297429606486
000200 c8 4f 20 73 65 9e 6e 3f 12 f0 77 28 bb 6b 7e 3f
       0.003737638610809644 0.007426959120035563
000210 df c5 db 8d f2 e7 6b 3f 9f 50 03 1c d2 c3 6c 3f
       0.003406499613327382 0.003511343355151977
000220 77 00 fe b3 b4 08 8e 3f 0a e3 2e 0b 37 06 7b 3f
       0.014665042632032261 0.0065977239746011305
000230 29 5c 8f c2 f5 28 dc 3f 85 eb 51 b8 1e 85 db 3f
       0.44 0.43
000240 b8 1e 85 eb 51 b8 ce 3f a4 70 3d 0a d7 a3 d0 3f
       0.24 0.26
000250 71 3d 0a d7 a3 70 d5 3f ec 51 b8 1e 85 eb d9 3f
       0.335 0.405
000260 e1 7a 14 ae 47 e1 da 3f 52 b8 1e 85 eb 51 d8 3f
       0.42 0.38
000270 f6 28 5c 8f c2 f5 d8 3f 71 3d 0a d7 a3 70 e5 3f
       0.39 0.67
000280 ea 63 e2 fb 7d 68 35 c0 8f 5e 16 5a 50 6c 35 c0
       -21.408172362109248 -21.423101072751304
000290 df cc bb 1b fe 80 36 c0 a3 23 c7 09 7e ad 36 c0
       -22.503877385472943 -22.677704440229387
0002a0 f2 f5 3a d7 40 93 36 c0 d7 ee e5 84 2d a4 36 c0
       -22.57520814122649 -22.641319566856364
0002b0 09 ad 0d 5e 7a c0 36 c0 5e 19 74 69 92 30 38 c0
       -22.751867178286407 -24.189734068722252
0002c0 09 b2 81 d3 04 5a 3e c0 17 1d de 07 41 45 3f c0
       -30.351636141933373 -31.270523540236436
0002d0 ac ea 00 49 c4 1e f6 3f ce 41 da cf 5f 6e fd 3f
       1.382511410875547 1.8394468421212085
0002e0 b9 0c 86 f1 ee c1 ff 3f 52 2c 65 1a 27 c1 00 40
       1.9848470148579465 2.0943128645063007
0002f0 5d 8f 31 21 68 07 ff 3f 52 04 16 08 41 38 f8 3f
       1.9393082901596792 1.5137338939532765
000300 b9 39 60 f7 91 2e fa 3f 8d 3a 6a 6b 74 bf fe 3f
       1.6363696730728476 1.9217418857475963
000310 40 f1 5e 10 fd 4d f4 3f d2 3e cf 48 96 ed ec 3f
       1.269040168713289 0.9040023252545899
000320 0f ce 64 5d e6 c0 f2 bf 85 e8 4d c5 0a 4d f6 bf
       -1.1720946930116758 -1.3938090998840675
000330 4f da 88 87 bb 97 f9 bf 26 14 73 e5 57 b7 fd bf
       -1.5995440763778281 -1.8572615588066212
000340 71 36 f2 de a3 29 fe bf 64 91 9a f9 37 bf fe bf
       -1.8851660450776786 -1.921684241308946
000350 c8 e2 89 f2 97 e5 fa bf d3 e1 b1 c4 a5 14 f6 bf
       -1.681053111473533 -1.3800409015076311
000360 f6 e2 12 eb 19 ab db 3f 79 82 0c e4 9d ee d7 3f
       0.4323181911127415 0.37393901129147583
000370 1c 9f 65 49 22 b9 db bf e5 aa ce 95 04 5a ab bf
       -0.43317467849418434 -0.05342115715696653
000380 d4 1a 99 21 9f 88 b6 bf d5 35 9e 7e 89 77 c2 3f
       -0.08802218027367853 0.14427298243064848
000390 78 ef 38 98 2a a3 d4 3f cb 58 96 ff f8 55 d1 3f
       0.3224588858172335 0.27087235412308236
0003a0 df b5 e2 29 a6 c2 ca 3f 25 a2 c2 d1 11 5a c5 3f
       0.2090652184028121 0.16681120626641746
0003b0 58 bd 95 49 4a 06 e2 3f 01 52 21 d0 a6 1e d6 3f
       0.5632678448873021 0.345620826007945
0003c0 e3 df ef c7 39 e7 e9 bf 7d 37 f2 45 ea f1 e5 bf
       -0.8094757943172194 -0.6857806554923936
0003d0 88 89 0f ec fd a5 de bf b1 ca b0 f4 43 72 e0 bf
       -0.4788813405304144 -0.5139484194863454
0003e0 f9 30 37 cf 32 3d e2 bf 45 ce 7b 03 7c b1 eb bf
       -0.5699705168895256 -0.865415579608858
0003f0 b9 32 a9 2d 72 95 f0 bf cc 44 0d 91 2f 1c f2 bf
       -1.0364858420972907 -1.13188130055305
000400 d4 47 82 62 aa 85 c6 3f 9f 7f f4 ef 9e 8f c7 3f
       0.17595414934163378 0.1840704604774119
000410 29 23 16 e2 3b cd ef 3f 12 52 7a 58 12 a3 ee 3f
       0.9938029685737081 0.9574062088091202
000420 b2 29 54 31 e8 fb e4 3f 5c 18 1f db ec ae e5 3f
       0.6557503665401809 0.6776031760898706
000430 73 39 14 f0 f3 39 e6 3f b5 93 7c b9 d2 2c ea 3f
       0.6945743264239311 0.8179715750489921
000440 1f a3 7b b8 54 98 e7 3f e0 61 28 0c e5 e6 d7 3f
       0.7373450854475755 0.3734676951148952
000450 3c ad 4a ba c2 eb dc 3f a0 3b 5c 35 27 12 d0 3f
       0.4518896884207668 0.2511079808327228
000460 7c dc 86 90 c3 34 ce bf 37 3f 6b 5e af 7c c5 bf
       -0.235985227174499 -0.16786758528041343
000470 f8 80 05 e3 c9 f0 d3 bf c7 24 59 93 3c 75 c8 bf
       -0.3115715710646465 -0.19107777781235866
000480 fd 55 ad 9d 1d c9 d1 bf af 3d ab 93 7d 49 cd bf
       -0.27790012739328046 -0.22880525312801356
000490 61 fc cf f6 ca d8 c5 bf 5f 53 6a 08 1c 5f ab 3f
       -0.17067849208249 0.053460002925169496
0004a0 55 aa d8 fc fb 0d dc 3f 33 fc cd a5 37 b1 c5 3f
       0.4383535355761173 0.1694707450478475
0004b0 fa bb d5 6c d0 c1 df bf fb d0 46 b1 9b f8 d8 bf
       -0.496204477581102 -0.39017383873148476
0004c0 a5 60 de 82 0e 75 da bf dd e5 d7 b5 27 b1 d9 bf
       -0.4133945730222968 -0.40143769033565296
0004d0 21 44 f3 52 8f 48 e8 bf ea 63 00 fe 82 cc e3 bf
       -0.7588574047205193 -0.618714805695274
0004e0 0f 42 5d 24 9e ec e1 bf 36 04 6c 59 78 50 df bf
       -0.560134001754763 -0.4892865060101629
0004f0 de 0f 10 ca 4a d8 c5 3f 47 48 2b ac a4 6e 98 bf
       0.17066321245522337 -0.02385957051121348
000500 f3 51 04 59 97 cd c6 3f ab 30 24 38 33 15 b3 3f
       0.17814914557005998 0.0745422374786268
000510 0a 3c d2 f2 93 29 ab 3f de 7d d8 1b 0f 45 c5 bf
       0.05305158938528372 -0.16617001399661907
000520 e8 ae 4a 1a a0 bb d0 bf d2 98 87 f9 df cc c4 bf
       -0.2614517456774892 -0.1625022858053798
000530 28 1b 69 78 76 0c c2 bf 51 8b a5 53 66 59 c7 bf
       -0.1410053337042083 -0.18241576275166918
000540 e7 7c 11 e5 b0 a3 bb 3f ae 9d d2 10 a9 9d a1 bf
       0.10796647636879052 -0.03440597849231196
000550 2c 63 79 99 d0 f6 d1 bf 73 cf a7 0d 62 6a d1 bf
       -0.2806893824359118 -0.2721181043009359
000560 d0 88 dd 1d 6c a2 c2 bf 6c 06 3c 50 e6 05 d8 bf
       -0.14558173616666759 -0.3753600867786193
000570 96 ae fe 3d 8c 93 c4 bf be e9 45 8e 05 07 d2 bf
       -0.16075280215351445 -0.2816785706887933
000580 43 12 ca 22 6b 7d d6 bf cc 18 39 fd 28 dc d1 bf
       -0.35140493771931264 -0.2790625069504926
000590 01 d5 96 9a 18 55 c5 3f 9c 86 91 ba 73 ee c9 3f
       0.16665942714977436 0.2025894795397577
0005a0 d6 d8 da 24 83 df 90 bf b7 67 6c 5a 5c ad a9 3f
       -0.016477631687586612 0.05015076259424183
0005b0 7d 07 dd c6 5a 7c c2 bf 2d 01 0a a3 ee 29 d3 bf
       -0.14442000112654432 -0.29943433687005233
0005c0 61 a7 37 0f 1e 40 aa bf 6d 82 1b c6 5e 08 c7 bf
       -0.05127042709120989 -0.1799429385491921
0005d0 fd b7 c3 6c 0c dc c4 bf 21 2a 15 ed 01 2e d2 bf
       -0.1629653483464039 -0.28405807640652553
0005e0 b6 80 70 76 8d 92 b9 3f 7b 21 aa f6 ad 91 98 3f
       0.09989246503437496 0.023993223362170007
0005f0 a7 c4 13 5b 92 89 98 bf 06 64 9d 10 55 84 a8 bf
       -0.023962294396316832 -0.047884615209746115
000600 1b 96 11 87 36 8c 8d 3f bd b6 e0 1b 06 d8 b4 bf
       0.014427591320962432 -0.08142126255617206
000610 43 00 e7 f6 47 4d b8 3f 18 66 31 34 bc d1 9f bf
       0.0949292161740241 -0.031073513684850423
000620 d5 29 b0 33 ae d8 98 bf b3 61 70 56 bf 84 6b 3f
       -0.024264070420068357 0.0033591973365327487
000630 85 d9 78 42 34 bc c9 3f 96 4a fa 93 5c 3f be 3f
       0.2010560345240259 0.11815432179200011
000640 33 28 43 02 29 ea e2 bf 49 94 f6 ce 03 e8 da bf
       -0.5910840076624083 -0.4204110642552377
000650 ad e9 e3 d9 0a e0 d0 bf 67 21 0b 23 eb eb d1 bf
       -0.26367446211193163 -0.2800243227216214
000660 73 9b 96 89 85 6f cd bf 00 c8 b1 21 44 a6 cd bf
       -0.22996587007693456 -0.23163653989064414
000670 72 52 0c 91 6c 89 b6 bf 9a 3b a5 99 45 15 ca 3f
       -0.08803442517484841 0.2037741661283377
000680 59 c6 dc c4 f3 4e 9e 3f 01 0e bf e7 11 7b b2 3f
       0.02959805382778877 0.0721903982912906
000690 1f fd ee 45 3d f1 95 3f 75 91 bf dd be 4e 8d 3f
       0.021428067582516804 0.014310351507398103
0006a0 cb 52 81 95 63 2c 76 3f a5 22 7c 13 4e d0 79 3f
       0.0054134263992479765 0.006302170738998446
0006b0 33 6b 17 69 77 97 7c 3f 13 25 92 ec 40 3d 92 3f
       0.006980387160605161 0.017811788977756992
0006c0 db f7 d6 be 09 c3 8c 3f ed e4 99 67 27 51 82 3f
       0.01404388059279065 0.00894385132709138
0006d0 cf 9e 5b 20 60 3b 77 3f d2 47 e8 dd d4 7a 79 3f
       0.005671859258405922 0.006220656882321722
0006e0 3d 52 cb a4 d7 54 5b 3f a3 53 bd 4d fe f5 64 3f
       0.0016681772132659666 0.002558705031257395
0006f0 49 c5 cb b3 c4 75 52 3f 83 a7 dd 40 48 46 4c 3f
       0.001126710979573469 0.0008628704833715115
000700 7d 72 67 66 31 e4 28 3f 2c 0d cb d1 b1 20 46 3f
       0.00018990614917315302 0.0006752842196750312
000710 d4 22 66 7b 06 96 5e 3f 68 b3 48 72 4d 61 5c 3f
       0.0018668235112235159 0.0017321831047738215
000720 ff 5e 67 53 93 69 5d 3f 82 8d ba 53 63 00 53 3f
       0.001795190689895365 0.0011597604742882022
000730 34 e4 53 d6 8f 70 7c 3f d4 95 56 33 f1 e6 90 3f
       0.006943284858828714 0.016505974539219384
000740 c6 b8 be 59 00 95 97 3f 7d 9e 60 b5 2e 63 98 3f
       0.023029332616425056 0.023815851040267056
000750 54 26 18 f4 5c 41 9d 3f 2a 7a 12 88 c5 7e 93 3f
       0.028569652937255732 0.019038282804667052
000760 22 0e 84 36 03 88 94 3f 26 72 3f c6 9a c3 9e 3f
       0.02005009670484815 0.030043047285163514
000770 91 f8 ac 8f f6 5c b4 3f ea 55 05 6f 44 80 a8 3f
       0.07954350478846296 0.04785360198244944
000780 5b 7f 8d f0 fd c8 65 3f e8 8f 65 81 26 f2 68 3f
       0.002659316993614808 0.0030451538142859287
000790 52 67 ca 41 a5 a5 68 3f 8b 45 3f 9f 0a 28 73 3f
       0.00300867344624304 0.004676858417910333
0007a0 7c 74 7e 52 c3 9e 63 3f 6b 61 86 94 69 65 84 3f
       0.002395040024522786 0.009959053845520946
0007b0 b0 5a 38 3c 60 4e 7e 3f 92 5a cd 86 cb 0a a0 3f
       0.007398963850866622 0.03133235950979442
0007c0 9c a1 dd 16 55 79 4f 3f e6 c6 7c 3b 45 49 89 3f
       0.0009605088687126176 0.012346783521567994
0007d0 e0 c6 07 40 35 be 50 3f a7 91 31 11 b1 0a 6b 3f
       0.001021911623066911 0.003300996622373559
0007e0 d3 03 f8 32 f7 53 59 3f 91 f6 5e a1 58 b3 5e 3f
       0.0015458978704148043 0.0018738141566098413
0007f0 ab 02 3d e0 ed 58 56 3f e4 9c f1 83 57 17 64 3f
       0.0013639758116853844 0.0024525365147841528
