feat_pickles/2708_B_486.666375_486.826375.wav.npy (npy, 1440 bytes, 1 tensors)

array (column-major) f8 [5, 34]
00000000: 5708 5d21 7485 d03f a400 9102 440a d03f
00000010: 0122 0588 1420 d23f 7e95 f955 e657 c93f
00000020: c0ec 01b3 07cc be3f a4e2 c505 82e5 993f
00000030: 0028 b492 2373 aa3f 6a60 9336 b472 a53f
00000040: a388 fe2e efa2 903f d792 f810 54c2 563f
00000050: ae71 af2d e5fa 0140 2b8d 1c4f 3751 0940
00000060: 8dc7 cc00 f6fa 0840 a53e 7e30 60c4 0340
00000070: 7e3b b714 b7f5 fe3f 5375 3c0e 0489 d23f
00000080: 9c05 eb0b e21a d43f 51c6 9c38 159b d53f
00000090: af0b d31f 0a68 d63f 4d13 53e2 0050 d13f
000000a0: deec 6833 fe2a c73f a4b3 158e 192a c83f
000000b0: ccd3 59e5 1e51 c93f 9f53 efa0 9b20 cb3f
000000c0: 02ea 1dce 8247 cf3f 7651 ccb3 3c81 0140
000000d0: e2d7 f816 d313 0340 238e 9d99 2b26 0440
000000e0: f694 9601 1ffc 0340 d337 c586 1387 fc3f
000000f0: 0000 0000 0000 0000 8c42 a30e 0fca 6a3f
00000100: 90cf effe f40b 703f e8e5 63f1 8f77 723f
00000110: d307 2a48 3b50 813f 0000 0000 0000 d83f
00000120: 9a99 9999 9999 d93f 295c 8fc2 f528 dc3f
00000130: 14ae 47e1 7a14 de3f 0000 0000 0000 d03f
00000140: 35f2 491d 7b73 36c0 a580 fcce 456e 35c0
00000150: 8309 7ad7 a285 35c0 8123 5c0e 94ee 36c0
00000160: 0609 ee1a 6b61 3ac0 1a51 9707 d8df f23f
00000170: 82f3 7026 55ea e53f 7658 9f27 f487 d43f
00000180: 56ab 27cd 3ad7 d43f 3bee 5751 89da fd3f
00000190: a99d 1635 8778 f8bf 27d1 14b4 1af1 f7bf
000001a0: e5a5 93ef 9d50 f2bf d659 61cb 2bd8 eabf
000001b0: 6b62 f52b 33c0 bb3f 8523 ea0e e8db f03f
000001c0: 2348 95aa c65b e93f d010 9ba8 b017 e73f
000001d0: dd3e bb96 4083 a33f 5fc5 c542 176b b5bf
000001e0: dcb6 b055 1cd0 b5bf b936 8c20 cbd4 d2bf
000001f0: c669 9835 eafc cdbf 60b5 6a44 4b1c dfbf
00000200: 6827 5d9b d1ff d33f 9ac5 65bf 58e7 d4bf
00000210: 1beb 3ec8 659e cebf a234 a1c7 a5e8 da3f
00000220: 8e8b baeb ac3c d63f 4bd5 c17b d337 d93f
00000230: 5e5f 0d93 7c6b d1bf 981d 3e54 8516 d8bf
00000240: 85e3 4506 05b3 b2bf 9900 b564 c65b e6bf
00000250: 4e47 edb2 5736 d1bf ff2b bd9e f408 e5bf
00000260: 4809 83d6 625c e5bf b259 8335 2d07 a6bf
00000270: 30ab a268 958e d2bf 0210 0b7f d428 d33f
00000280: 53df eb76 6f06 d3bf 554a b8c3 f50d d4bf
00000290: 0d90 d352 cfae d33f 749b bbbb fb17 823f
000002a0: 3aef 3db1 af4a b53f a3c0 b74c 2608 573f
000002b0: 8309 cf10 c454 c5bf 7b1f 03ad 34f4 b83f
000002c0: d617 53d9 7a62 e0bf cfc0 9f58 5ade bebf
000002d0: 05a5 5b35 daa9 d5bf 7fa6 7c9b a075 debf
000002e0: ab6a 2a8a f117 a4bf 3a21 04e0 fdd4 c3bf
000002f0: c642 a50a 78c1 b9bf 36da 8320 6dcf b9bf
00000300: 1d7a d1fc e1ca b1bf 9fd8 441e 7669 b03f
00000310: 3fa8 5c03 7631 bdbf d0ca f21d a9ce b1bf
00000320: ffaa 156a e1f4 ddbf 2f0a 0baf 77c7 e2bf
00000330: 8bde 0528 60fa d4bf 7da9 7ec7 b404 e1bf
00000340: af29 dedd 4d85 ccbf a7b4 f59f c0f8 973f
00000350: 92bb d60b a336 833f 24cd 86cf 0599 783f
00000360: e5dd adf5 21cb 793f 4e3b d561 f29c 693f
00000370: 02f8 4d3e 70a2 7c3f 3819 6408 2e44 783f
00000380: 4f43 0eb9 60d5 673f 2af4 518b d7b4 673f
00000390: 85c2 b70e c575 7f3f 3336 5118 c61a 8f3f
000003a0: 08c1 1712 a8df 7f3f 4a05 34eb 52bf 833f
000003b0: 68de f7ef a1b5 a03f 80bd b45f 2f44 9d3f
000003c0: 51b9 5783 14c2 803f ef52 c6ce 0ef5 923f
000003d0: 5844 f9b9 6b2f 8e3f b729 a03e bb9e 833f
000003e0: 0c2c dcc6 9af9 7b3f 59eb 4668 49eb 843f
000003f0: 26f2 344b 526e 813f 7a3f 0a2e e20f 653f
00000400: cc80 a711 3db0 523f 7536 53b9 28cd 803f
00000410: f35c 1d2a f18e 6f3f 2034 6e58 72a5 5e3f
00000420: 9387 0656 57b4 623f 892d 08d9 65ce 583f
00000430: 4366 d69d e966 843f eae7 1f9c a7a9 753f
00000440: a21e 2018 c364 783f aa2e 47e5 23a8 643f
00000450: ded2 a529 c9fa 5c3f dad8 770d 1e52 a73f
00000460: 531a accc 56c9 813f 2d17 2364 19d5 5c3f
00000470: 6777 4412 edb9 6e3f 9419 dd31 5800 923f
00000480: 679e 1bfc 6abc 793f f006 67c6 1937 7c3f
00000490: 32ce fe1a f39a 873f fea6 598c bd06 973f
000004a0: 053a 0cc1 70cf 933f 5b57 3534 d312 823f
000004b0: 2bfa d400 629e 933f a50f 75a6 a6e8 8d3f
000004c0: 824e 89f0 f72b 8e3f 1f5c 2971 17e7 943f
000004d0: edf7 ca26 d4e8 ab3f b7cd cae6 855e 953f
000004e0: cd1f 8c45 47d0 953f 8cb1 742f 2fe7 903f
000004f0: 0c0c 5fdf 66ee 793f 0374 a038 f3de 9c3f
00000500: 6a72 839f 3103 713f afb0 e725 2ec9 613f
00000510: ec1b 44ee 19eb 833f 0735 14d4 fcc4 903f
00000520: 117a a8e4 69e1 653f 34a7 73e7 51c7 7a3f
00000530: aaa2 5ebc f614 793f b469 6b0d cf9f 7a3f
00000540: 7bbf cdb2 f270 833f 7b58 162d 1a2c 913f
0.2581453634085213 0.2506265664160401 0.2832080200501253 0.19799498746867167 0.12030075187969924 0.02528956566081554 0.051659690530939884 0.04189074674803879
0.016246545069983253 0.001389104934682075 2.247507435719135 3.164656274851628 3.1225395262235396 2.470886591770823 1.9349890526970905 0.28961278333902846
0.31414080776093 0.33759050873331825 0.3501000700745704 0.2705080232811284 0.1809995413803795 0.18878478467686677 0.19778810690664128 0.21193261488101897
0.2443698412351552 2.188104061768338 2.3846799654665896 2.5186378480155027 2.4981060146407073 1.7829776062458123 0.0 0.003270177277137803
0.003917653098131427 0.004508554722855142 0.008453810825134333 0.375 0.4 0.44 0.47 0.25
-22.45109732680631 -21.43075269379246 -21.52201601724074 -22.931946656698987 -26.38054054557235 1.1796493813063251 0.6848550558857911 0.3207979571283269
0.3256365779367817 1.8658536126594203 -1.5294258188022047 -1.4963633570124075 -1.1446818693606187 -0.8388880703230892 0.10840148757177707 1.0536881048776376
0.7924531299306675 0.7216418545799801 0.03811075057967426 -0.08366532688321147 -0.08520676700637914 -0.2942378824089747 -0.23428084961854106 -0.48610192948657094
0.3124889390206733 -0.32662028018156664 -0.23920891072869996 0.42044968123520665 0.34745333691005775 0.3940323551717781 -0.27218546257562604 -0.376374561565592
-0.07304412272595869 -0.6987029997763045 -0.2689418074925144 -0.6573432064409416 -0.6675275983509801 -0.04302350309596949 -0.2899526140051192 0.29936706930698176
-0.2972677861539427 -0.31335205186147636 0.30754454697148575 0.008834807078029284 0.0831708724708137 0.0014057516117383171 -0.16664934941043094 0.09747628425532
-0.5120214695568801 -0.12058033622429608 -0.33849196634999174 -0.47592940506238074 -0.039245174518517466 -0.15493749082839675 -0.10060835132504584 -0.10082132381271766
-0.06950199529953989 0.06410921324718054 -0.11403596479490917 -0.06955964070474896 -0.4680713211043183 -0.5868490618525523 -0.32778171452034915 -0.5318244835264491
-0.22281812032117673 0.023409852755709306 0.00938155536536359 0.006005308816770669 0.006297238020912731 0.0031265958811340982 0.0069908508784219964 0.005924396338974618
0.002909363662589127 0.0028938493583710216 0.007680673366380679 0.01518778573713595 0.00778165485961347 0.009642265131790357 0.032635746520040254 0.02858041783946197
0.008182678468952405 0.018512946482206635 0.014738885510413066 0.009580099915201907 0.006829838368285667 0.010214398855955474 0.008511202736024858 0.0025710504126620877
0.0011406513573249287 0.008203809886619265 0.003852339767870577 0.0018705002455334865 0.0022832589895224824 0.0015140528304325737 0.009961915139501737 0.005288748479864916
0.005955469214320582 0.002521581753375764 0.001768776367126516 0.045548380989133455 0.008684805031873888 0.0017597911797095453 0.0037507658290811155 0.017579439204632744
0.006283204945908594 0.006888485606795433 0.011526011716205795 0.02248665017251649 0.019346010000896658 0.008824968367359956 0.01915887003019116 0.014603902773735753
0.014732300785147649 0.020412794381936657 0.05451071713967779 0.020868389331281736 0.021302331561883926 0.01650689818522859 0.006330873342395026 0.028194237071250693
0.004153436508400258 0.002171125538771155 0.009725763877680614 0.016376448101302035 0.0026709621645431077 0.006537742555545557 0.00612350827388101 0.00650006179668099
0.009492775041252113 0.01676979923430409
