feat_pickles/2719_B_67.297625_67.7505.wav.npy (npy, 4704 bytes, 1 tensors)

array (column-major) f8 [17, 34]
00000000: 28af a1bc 86f2 da3f c605 1917 645c e03f
00000010: c20e 073b 1cec e03f 5c90 7141 c605 d93f
00000020: 8936 25da 9468 d33f 16d3 594c 6731 cd3f
00000030: bd17 f55e d47b d13f 3350 cd40 3503 d53f
00000040: d2c8 4923 278d cc3f f4cd d137 47df cc3f
00000050: 6cb9 b1e5 c696 cb3f 06aa 19a8 66a0 ca3f
00000060: 5c90 7141 c605 c93f 3c3e f1f8 c4e3 c33f
00000070: f833 e1cf 843f c33f 701f c17d 04f7 c13f
00000080: 6cb9 b1e5 c696 bb3f c4d6 5428 0a2a f33e
00000090: d88a 2da1 d568 023f 2a94 7f0e 56f7 063f
000000a0: f661 ca0b 444a 063f 1b80 e714 f44e 183f
000000b0: d9c9 2ccb 7646 723f d300 464e 9391 923f
000000c0: 5ded be19 1ba7 a33f f60b 318c 7aac b13f
000000d0: cee9 2c52 82ea b33f 442f 694c 2dc4 af3f
000000e0: e69f daec f3de aa3f fd0f 957b 8ad3 a33f
000000f0: c07a 9b02 4764 973f 1dda 43ca 8cb2 903f
00000100: 45bd c520 375b 8d3f 768f b095 854d 7d3f
00000110: c519 bc49 51fc 0940 ce72 a0fa 61c3 0840
00000120: d95e e037 36de 0940 7fa6 eb39 e94d 0a40
00000130: f299 3647 b48c 0540 2a3a 01a1 c51d 0240
00000140: 8e1b 0b48 2872 0840 19cc 745c 329e 0840
00000150: 29ea 8110 d312 0940 2e44 35dd d1ac 0940
00000160: 7cbc f4fe 7254 0940 3c7b d144 f90d 0940
00000170: 7996 adeb 059c 0840 7c97 6685 56f5 0840
00000180: 2522 4344 8dfe 0840 8d15 e0ad 03b6 0840
00000190: 8903 e88b 6ccb 0640 cb0c 24f7 682c dc3f
000001a0: b658 b45b 8ada e03f 10cd 1212 499d e03f
000001b0: 2240 91ac f8e4 db3f 4588 3027 5369 d73f
000001c0: e71c 91ea a316 d53f 6e19 e0b4 26d0 d73f
000001d0: 326e e9c9 fe9a d73f 6076 31bf bf3e d53f
000001e0: 8aeb 24ee 3354 d53f 9b00 3088 78e6 d53f
000001f0: bee5 002b 1a05 d63f 51eb 3a4d e800 d53f
00000200: cc6f fecc 7ae3 d03f 7eea b874 2a53 cc3f
00000210: 06c4 83c6 50b6 cc3f 9c8b f938 9694 cb3f
00000220: 4277 2615 dcef d03f 6724 0e56 dae8 d03f
00000230: 1a0f 14a8 83e2 d13f 170a 8d67 a1f8 d23f
00000240: b5ad ab88 b3f2 cf3f deb3 d5ec 3793 d03f
00000250: 8c67 579b 9356 d03f 87d9 bb6b 05e8 ce3f
00000260: 0efd 74e5 da79 cd3f f926 0557 41eb cc3f
00000270: 2f63 bfd5 8963 cc3f a9d4 2190 e98f cb3f
00000280: 9ad9 bf11 70a3 cb3f 9f23 c4d3 d677 ca3f
00000290: 7f5c f9e4 0242 c73f 62f2 8296 0468 c63f
000002a0: 0c35 fb30 bf17 c63f e29c c595 1b9f 0640
000002b0: f356 e69d d0f6 0640 79b2 4b3a a1ce 0540
000002c0: f4de 30c2 04f4 0340 7613 3934 8f37 0440
000002d0: e7b8 b07f a65f fb3f 709a 4a61 b714 0140
000002e0: aabd b890 1764 0140 19c3 bf82 1d44 fd3f
000002f0: b1a1 6532 e39a fa3f 8ff7 4127 f0de fd3f
00000300: b03b 6bf2 0946 ff3f c3ca ebee a29b fe3f
00000310: 30bb 059f 95f1 fb3f 86ac 0211 2e95 fa3f
00000320: fd2e 17dd 20ef fb3f 60e6 1899 978c fb3f
00000330: 0000 0000 0000 0000 8b85 77b2 4fa2 6c3f
00000340: 9a30 e1e0 0242 653f a8aa 6ef5 13a4 693f
00000350: 943a 3a99 aba9 713f 8c4a a78c 438a 7b3f
00000360: 2463 daaa a44e 743f 5435 2661 461a 763f
00000370: fa2b 1831 f64b 703f d1c2 bb1c bf6b 763f
00000380: ab23 e0c5 2431 763f 1a6e 21df dd72 7b3f
00000390: 689f 1a3e d722 663f 0cd5 2a5e d0e1 823f
000003a0: 435a 5525 1c0b 7b3f ffa0 8fb8 fd59 743f
000003b0: 54ec fb51 04ac 713f 6666 6666 6666 e63f
000003c0: ec51 b81e 85eb e93f ec51 b81e 85eb e93f
000003d0: 48e1 7a14 ae47 e93f ec51 b81e 85eb e13f
000003e0: 7b14 ae47 e17a e03f 713d 0ad7 a370 e13f
000003f0: a470 3d0a d7a3 e03f 295c 8fc2 f528 e03f
00000400: 295c 8fc2 f528 e03f cdcc cccc cccc e03f
00000410: f628 5c8f c2f5 e03f d7a3 703d 0ad7 db3f
00000420: 7b14 ae47 e17a d43f 0000 0000 0000 d03f
00000430: 48e1 7a14 ae47 d13f a470 3d0a d7a3 d03f
00000440: 581a e413 b205 40c0 94a9 7504 8fae 3fc0
00000450: aa0a e772 9f47 3fc0 69e4 7574 b404 3fc0
00000460: f627 8259 b07b 3dc0 f6f4 69ad 4982 39c0
00000470: a0bb c2d2 8f8c 37c0 a743 9c09 007d 36c0
00000480: 83d7 671b b285 35c0 6adf a481 bc8f 35c0
00000490: 1aec 3f57 ac77 35c0 431d 3ba6 33b4 35c0
000004a0: baad 1b30 21f3 35c0 6c97 1f2d c99c 36c0
000004b0: 9eac 230f 733d 37c0 5c8e 591e 49a5 37c0
000004c0: 033c 2d36 aa66 38c0 e1af 2485 00cc d33f
000004d0: eb2e 8867 7dfc c1bf 5bb5 4190 58fb d43f
000004e0: 4c91 6913 f0fc ef3f b4e0 3502 cccc ed3f
000004f0: 326b 6e13 41c8 fa3f 01c8 3272 aaac f33f
00000500: 7e85 a202 268f ec3f d060 28a5 7aef f43f
00000510: 2126 61b7 304f ee3f 6c23 ba6c 6c78 ea3f
00000520: 25c5 8055 4467 e63f a96b 6a68 6026 ec3f
00000530: 4f24 3f5a a5ef fc3f 2499 f11e d47f 0440
00000540: 2196 cf67 8406 0340 50e8 15f6 0091 0540
00000550: 4d07 8f99 24db df3f a19a fb43 6912 e83f
00000560: ac42 8da4 8dd4 f03f 69ee a961 362f ee3f
00000570: 5ca2 2d27 3c50 c33f 305e 6de4 0fd9 f23f
00000580: 43d3 ff87 41b2 f53f 8cec 8723 8b1a df3f
00000590: c92a 8f30 e8bf da3f 55b7 0476 5199 c7bf
000005a0: 0a95 88aa 466f d3bf 9481 3241 41ee dcbf
000005b0: a90c b70b 7fb9 e3bf 7440 e55a a33e ecbf
000005c0: e5dc aa90 9c14 f3bf d633 7939 a7d9 f6bf
000005d0: 2c85 3023 ad4c f4bf 01ce 2bba 74b0 b3bf
000005e0: 92f3 aff7 2a12 d9bf 2797 2a44 504a d5bf
000005f0: 0e1b a788 0639 dabf 6beb 5672 c480 b7bf
00000600: b9ba 6948 f48b e6bf b7d9 9f8c d6c1 e9bf
00000610: 64e1 eb6f d2e1 eebf b301 41aa 1b75 e6bf
00000620: a2de e569 f695 f3bf f7c4 8ab8 d9f4 eabf
00000630: ebd5 48cc 7c3e e4bf 5e05 10de d18e dbbf
00000640: b331 dc7b 27da aabf d86c dc53 40dd bc3f
00000650: 70a9 4859 63df ce3f 7929 5406 e58e a03f
00000660: de9f 1c35 8d11 b9bf a85b 91c8 aa55 d53f
00000670: d8ae cca0 5412 e23f 8836 2321 cd4d d03f
00000680: 1e1b 3be1 bd4c ccbf 5db4 0724 4ffe e9bf
00000690: 8455 4675 ca57 f2bf c242 98b0 cc85 f4bf
000006a0: c006 8d1a 9075 f3bf 40f7 578a 1fca f6bf
000006b0: cb5d ec24 efa9 edbf c2be 1acc e61d edbf
000006c0: 9d60 994e 32dc e6bf c6e1 1d7e 5c7c c9bf
000006d0: 856d d81e ec2a b03f 2bf7 84bc c2ca d33f
000006e0: 0137 b24f 0462 d73f bf89 1a16 2d11 93bf
000006f0: 9eef 0318 1d80 c1bf 0dbd e895 248d b2bf
00000700: b989 9804 4edb 8fbf 02af 97d8 4bf3 d23f
00000710: 251c 2b61 06f9 c53f 7913 b01e 96cf 983f
00000720: 55a3 c28b a371 a93f 49d6 90a5 264e e03f
00000730: 1bcb 72f6 78d9 d33f 681e 87ed 5356 f03f
00000740: 54d3 ca6b a6cc f13f 0aad adb0 1d05 ed3f
00000750: 5236 5620 1ef2 da3f 217f 4dc0 d2db a2bf
00000760: d18f d798 6ae7 c6bf 046e 0a2a b60b d7bf
00000770: 7eb5 6428 26b4 d4bf ee26 2aba 3a41 d3bf
00000780: 3e22 072c 32ce d0bf d968 63f0 66e8 c6bf
00000790: bdd3 3121 73cc d4bf 4254 9951 be20 edbf
000007a0: c573 6b3b b8f0 e5bf 8673 3fba f46a e2bf
000007b0: f433 da91 4523 d8bf f971 2cd5 c915 e4bf
000007c0: cef2 9d59 0926 b6bf 8510 8476 e817 813f
000007d0: d3db a1e9 3853 93bf 9ad8 6b29 268d b03f
000007e0: 6117 84cc 9ff6 a4bf d170 1d86 a1f9 dbbf
000007f0: 2847 ae42 b260 e0bf 8293 50a8 4133 cd3f
0.42105263157894735 0.5112781954887218 0.5288220551378446 0.39097744360902253 0.3032581453634085 0.22807017543859648 0.2731829573934837 0.3283208020050125
0.22305764411027568 0.22556390977443608 0.21553884711779447 0.20802005012531327 0.19548872180451127 0.15538847117794485 0.15037593984962405 0.14035087719298245
0.10776942355889724 1.8276422015981215e-05 3.5113353212398106e-05 4.3804467907006546e-05 4.251499328694959e-05 9.272923237047018e-05 0.004461730992988377 0.01813345113032556
0.0383842915466299 0.06903806612631044 0.07779707437740699 0.06204358632802934 0.05248224512371262 0.03872330435345359 0.02284346536077453 0.016306114049223653
0.014334135711321703 0.007154008689244642 3.248201919606091 3.0954017238821967 3.2335018506381457 3.288042500022868 2.693703228334237 2.2645371035098565
3.05574089321039 3.077244493784303 3.134191636051828 3.209384658992824 3.166234962314375 3.1318230987957616 3.0761831676816738 3.1197939321454538
3.1242928822505456 3.0888742050180498 2.8493281297855373 0.44021057257505153 0.5266773024657343 0.519199881839457 0.43585030414851833 0.36580351664645533
0.32950685412329367 0.3720795408593379 0.3688351604266443 0.3319548956986633 0.3332643342616214 0.3421918230014939 0.3440614147144422 0.3281803850365366
0.26388425845084096 0.22128802012760568 0.2243138284025294 0.21547200948688505 0.26463987412886436 0.26421221164543457 0.279450334681529 0.29642520058055893
0.24959415601129611 0.25898550156017375 0.25528421564160264 0.24145572433890214 0.2302812214274827 0.22592941998509966 0.22178767144102937 0.2153293565531034
0.2159252249400197 0.20678220119614552 0.1817020051991882 0.17504937504954216 0.17259969607986425 2.827689333050885 2.8705150924605447 2.7258934549666347
2.4941497012294978 2.527128608695814 1.710852144995039 2.1351153946773636 2.1738730722788278 1.8291297061334204 1.6628143280632737 1.8669282468322057
1.9545993298995477 1.9129971821645746 1.746480580502702 1.6614208855124004 1.745880950579646 1.7218242626535343 0.0 0.0034953648171131605
0.0025949531764464908 0.003129996282458098 0.004312200838866648 0.006723655571891595 0.004957812530528103 0.005396151466255123 0.003978692709561743 0.005473848850429079
0.005417960781422797 0.006701342283203649 0.002702160258952025 0.009219768403776495 0.006602392143881422 0.004968634698322426 0.004314438701608376 0.7
0.81 0.81 0.79 0.56 0.515 0.545 0.52 0.505
0.505 0.525 0.53 0.435 0.32 0.25 0.27 0.26
-32.044497000101444 -31.681869772649932 -31.27977674618402 -31.018378523618967 -29.483159631992713 -25.508936727875117 -23.54906956915113 -22.488281822824913
-21.522248947956097 -21.561470129730345 -21.46747346220591 -21.70391310637684 -21.949725157506442 -22.612444706166045 -23.240036913117926 -23.645646950592308
-24.401034723323402 0.30932629587436905 -0.14051787905952237 0.3278409394032075 0.9996261958263317 0.9312496226475759 1.673890186217886 1.2296547375558478
0.8924741794073012 1.3084665729020806 0.9471667844420076 0.8272001384330969 0.7001058263760213 0.8796846427315944 1.8085073018321685 2.5624163072090074
2.3781822309708933 2.695802614730418 0.4977504253002863 0.7522474601544965 1.0518928935818321 0.9432632358070353 0.1508860770511714 1.1779936716974468
1.356019526717504 0.4859950873357739 0.4179630731784241 -0.18436640036218913 -0.3036667504660079 -0.4520419251148493 -0.6163935879525485 -0.8826462531378767
-1.1925321246215443 -1.4281379933411151 -1.2687198042479606 -0.07691125436013381 -0.39173387706960583 -0.3326607385337063 -0.4097305616855217 -0.09180858413212227
-0.7045842565838348 -0.8049118753977414 -0.9650661645855902 -0.7017954182884324 -1.224111951507361 -0.8423889736497178 -0.6326278676921765 -0.4305920284824277
-0.052445634717602906 0.11275102660549707 0.24119226321756626 0.03234019949202866 -0.09792406603503376 0.33335370623302163 0.5647376194587777 0.254748613701715
-0.2210919713745278 -0.8122935966217814 -1.146433313469374 -1.2826659105523253 -1.216201881136314 -1.424346485523941 -0.9269939156683277 -0.9099000917830937
-0.7143794570101992 -0.19910770566981578 0.06315494301855125 0.3092505303392154 0.3653574732096417 -0.018620209192371947 -0.13672221825242742 -0.07246616992846473
-0.01555500937962938 0.29609962607968054 0.1716621374564237 0.02422937929442834 0.0496951206308213 0.5095399125772896 0.31014846865871143 1.0210761335782994
1.1124633989940849 0.9068745089292929 0.42102769048583355 -0.03683336827702833 -0.17893726790418765 -0.3600898180536378 -0.3234954256502859 -0.3008562868131851
-0.2625852041206008 -0.17896734941206807 -0.3249786209265116 -0.910247001049932 -0.685634723714991 -0.575556148305268 -0.377152817186299 -0.627659717898097
-0.08651789129175855 0.008346382252519166 -0.018872155437261128 0.06465376387845581 -0.040944093432740976 -0.43711126420181495 -0.511803751216779 0.22812672346585933
