feat_pickles/2755_B_388.24675_388.51675.wav.npy (npy, 2528 bytes, 1 tensors)

array (column-major) f8 [9, 34]
000000 38 d8 e1 60 87 83 cd 3f c6 05 19 17 64 5c c0 3f
       0.23057644110275688 0.12781954887218044
000010 04 f7 11 dc 47 70 bf 3f 04 f7 11 dc 47 70 bf 3f
       0.12280701754385964 0.12280701754385964
000020 a0 9a 81 6a 06 aa b9 3f 08 5d 21 74 85 d0 b5 3f
       0.10025062656641603 0.08521303258145363
000030 70 1f c1 7d 04 f7 b1 3f f4 cd d1 37 47 df bc 3f
       0.07017543859649122 0.11278195488721804
000040 d4 7b 51 ef 45 bd c7 3f 6a de 5d 12 05 df 90 3f
       0.18546365914786966 0.016475753065121536
000050 6a 12 31 dd 6b 87 9b 3f 26 69 87 1b 29 c5 a1 3f
       0.026883778930157844 0.03470734082266551
000060 14 3b b3 ac a1 d2 a3 3f 37 3f e2 e6 8c 74 a6 3f
       0.03871636613040699 0.04385795896916849
000070 e8 e4 7b 45 58 ca a5 3f 64 b0 e4 c5 0b e3 a4 3f
       0.04255939338868037 0.04079472342195414
000080 17 24 5c 62 06 bd a6 3f b6 67 b9 85 5b 4e ab 3f
       0.04441089583094298 0.05333219535232507
000090 3b 27 1d 40 90 db 03 40 7a 71 44 84 a7 6d 09 40
       2.4822087296387543 3.1785421689402797
0000a0 17 00 f7 37 b6 5f 0a 40 a2 90 7a 9c f6 66 0a 40
       3.296734273171761 3.300275061121355
0000b0 04 07 3c c4 fd 6d 0a 40 83 d9 62 84 1c 65 0a 40
       3.303706677514926 3.299370798365261
0000c0 0d 02 16 4d 03 6b 0a 40 ec a1 c4 39 b2 7c 0a 40
       3.302252390131122 3.310886813462494
0000d0 79 5c e8 c9 74 5d 0a 40 b6 55 54 d2 f4 f2 d8 3f
       3.295632913020708 0.3898288778303497
0000e0 9b 28 16 bd c6 1a d1 3f ea 79 d0 24 cd 14 d5 3f
       0.2672592970417413 0.3293946132197606
0000f0 e0 71 9f e7 ee b6 d5 3f b4 c4 50 72 46 05 d5 3f
       0.3392903577748978 0.32844697154639424
000100 94 26 11 07 78 23 d4 3f fa bc c7 8e 55 4d d5 3f
       0.3146648472798941 0.33284510558492253
000110 60 a4 26 86 50 e6 d5 3f 0f 46 90 fb 4c 1b d5 3f
       0.3421822843616322 0.3297913033175925
000120 76 fe 18 56 cd e3 d3 3f 47 6f fa e9 75 94 d1 3f
       0.31077893646213484 0.2746863160079908
000130 64 67 6c 1d ed 16 d3 3f be 59 0b 12 1b d8 d2 3f
       0.2982743060434727 0.29444004785673517
000140 47 e4 85 de 86 e2 d2 3f 55 64 64 c8 57 b4 d1 3f
       0.29507610064280637 0.27663225717112044
000150 4c f8 41 ae d5 07 d1 3f f8 6c 05 32 76 57 cf 3f
       0.26610319154122375 0.24485661928597557
000160 7e 36 93 47 36 18 cb 3f 38 0c 8f 13 72 d9 ff 3f
       0.21167639250636577 1.9905873073592044
000170 07 27 7e 26 f9 30 f2 3f 90 f8 f0 86 ee 23 f6 3f
       1.1369563583015763 1.3837723990577935
000180 62 62 15 5c 8d f1 f4 3f ab 47 7a f9 e3 06 f3 3f
       1.3089727017415034 1.189182257196516
000190 96 bd a3 ab 82 7c f3 3f 0a be 4d 80 92 e0 f3 3f
       1.2178980545685127 1.2423272144186535
0001a0 22 a0 19 96 64 f8 fa 3f 48 f2 59 68 3d 64 00 40
       1.6856428015980858 2.0489452507447687
0001b0 00 00 00 00 00 00 00 00 7e d9 bd d6 45 ec 80 3f
       0.0 0.008263154617208054
0001c0 ef cf b4 be 88 51 7a 3f f4 48 58 4a 72 ff 6d 3f
       0.006425413284251376 0.0036618454203188825
0001d0 86 be f7 05 d7 5e 64 3f 5a 57 7a 82 f1 12 64 3f
       0.002486629454999281 0.0024504391656802573
0001e0 b4 cb a9 69 f3 d2 71 3f 94 f4 b8 bc 1b 6f 71 3f
       0.004351569014590707 0.0042563518032327115
0001f0 5a e7 9e a8 1c c8 62 3f 48 e1 7a 14 ae 47 e9 3f
       0.002292686437581998 0.79
000200 00 00 00 00 00 00 c0 3f 0a d7 a3 70 3d 0a c7 3f
       0.125 0.18
000210 ec 51 b8 1e 85 eb e1 3f 29 5c 8f c2 f5 28 cc 3f
       0.56 0.22
000220 52 b8 1e 85 eb 51 c8 3f 9a 99 99 99 99 99 c9 3f
       0.19 0.2
000230 71 3d 0a d7 a3 70 dd 3f 14 ae 47 e1 7a 14 de 3f
       0.46 0.47
000240 12 c0 76 13 25 3a 37 c0 2d dd 0f 52 ec f2 37 c0
       -23.227128235332266 -23.94891846549324
000250 cd ac e9 cf 0f 32 37 c0 2c 83 3b 57 d0 58 37 c0
       -23.195553774404107 -23.346929027585404
000260 24 89 c3 17 48 81 37 c0 06 e6 2e b4 9a 61 37 c0
       -23.505006299246034 -23.3812668432711
000270 ba e5 10 97 91 ce 37 c0 41 08 7b 2e 24 a2 36 c0
       -23.80690902864965 -22.633364586865586
000280 58 67 bd 57 1f f8 35 c0 d9 c1 a7 e9 12 51 fa 3f
       -21.969228252164015 1.6447934271965237
000290 86 95 55 fd 87 d2 05 40 66 a7 d3 11 8d 04 03 40
       2.727798442053145 2.377222193977036
0002a0 0b 13 12 55 19 37 01 40 b2 d9 9e e3 70 83 02 40
       2.151903786291205 2.314180162701825
0002b0 c4 ad 81 c1 64 19 01 40 ca 63 31 7a 11 c6 f1 3f
       2.1373992078494854 1.1108565114175115
0002c0 62 5d 34 88 cf 3d e4 3f ac dd 4f 90 e0 fb e3 3f
       0.6325452480549922 0.6244967287629399
0002d0 90 79 5f 3d ed 9d e7 3f d7 dc e7 5a 36 3c f4 3f
       0.7380281637850192 1.2647002745632585
0002e0 79 0e 22 d8 5a 33 f2 3f ef 1e d5 39 4e b0 f5 3f
       1.1375378077217688 1.355543352039543
0002f0 cf 79 45 7f 0d f3 f2 3f 2f 88 76 5f 73 1b eb 3f
       1.1843390437639874 0.8471009125244161
000300 99 1b 2b ea 1d c8 d6 3f 09 b4 49 1a 91 4d d7 bf
       0.3559641634751017 -0.3641093022077376
000310 43 58 2e 57 5a 31 e7 bf 83 2b ad 87 04 7b ec bf
       -0.7247745230440689 -0.8900168085032053
000320 a6 3b 32 c3 44 c1 f5 bf 45 8a 03 c4 2f c8 f7 bf
       -1.3596847176411102 -1.486373677901285
000330 1f 99 9e 78 d6 dd f6 bf d1 37 76 ca 26 7b fa bf
       -1.4291596137714533 -1.6550662907279625
000340 33 2b 1a 74 b7 46 f7 bf 44 3a 50 22 0b fb eb bf
       -1.4547647986643824 -0.8743949575599079
000350 1e bc 10 0d 90 9b db bf ad b0 38 9e 2d 79 bb 3f
       -0.43136979366221506 0.10731778252437847
000360 70 df 4c f3 08 f6 ac 3f f3 6d 79 a3 db 76 b5 bf
       0.05656459779714751 -0.0838448785884152
000370 a7 b8 3e ee 65 11 aa 3f 4b 9a 8b 56 49 49 bf 3f
       0.050913987476961346 0.12221201289103438
000380 15 ed f5 2f 18 ab e3 3f 09 80 cb ec 67 d9 df 3f
       0.6146355568629668 0.49764440655235426
000390 f7 ab 86 67 7d f0 e7 3f 32 a5 13 6f fc 11 c7 bf
       0.7481066724770916 -0.18023639129322927
0003a0 5f 0d ad 8f c4 7f d3 bf 32 d4 4d 09 c4 d8 b9 bf
       -0.3046733286939424 -0.10096383311413673
0003b0 f6 d1 30 f2 5a 03 cb bf 05 91 bf 58 93 ac ce bf
       -0.21103989434926945 -0.23964158852971465
0003c0 c3 99 01 9a ae f5 d2 bf 98 f7 8e 1f 80 32 a8 3f
       -0.2962452415435132 0.04726028809771704
0003d0 32 60 c1 50 3d 65 b0 3f aa 0d 3d 0f 85 a1 da 3f
       0.06404479238096952 0.41610838401922
0003e0 6a 9e 68 a5 fa bc bd 3f 13 e7 8f 7e 24 f2 e0 3f
       0.1161648420171503 0.5295584175030136
0003f0 3c ff 5c 09 9f 69 db 3f f9 5e b2 64 97 d6 d0 3f
       0.42832160868055147 0.26309761842411167
000400 5d 2f 21 7d cc 40 d3 3f e6 8c f2 95 f3 7c 6e bf
       0.3008300039261849 -0.0037216908963998317
000410 f1 8b f1 df 98 51 c8 bf 4a cf 3e 96 7f f4 e2 bf
       -0.18999014792197458 -0.5923459944228651
000420 c0 3c bf 6c 1f 2d eb bf e4 e5 81 d7 4c 19 ee bf
       -0.8492581485715149 -0.9405883988503629
000430 d3 da 33 55 b4 7f eb bf aa a0 d4 0d 06 c0 c5 3f
       -0.8593389190781074 0.16992259669610138
000440 76 e8 fb 4e 84 7c aa 3f 4e 43 a5 75 89 d7 c4 3f
       0.0517312380233798 0.16282766575252555
000450 ef c3 61 a9 1a 34 c9 3f 12 c9 82 0c c4 c2 d3 3f
       0.19690259237862004 0.3087625620056694
000460 ee af 16 fd 03 bd d5 3f 84 f1 76 38 22 c4 c0 3f
       0.3396615954941343 0.13098552472173364
000470 84 c4 2a 08 35 56 bb 3f f0 cb bc 0e 77 0c c8 3f
       0.10678416680709019 0.18788040370563364
000480 8f 66 00 16 1e e1 99 bf b9 47 6c b1 3b d7 d7 bf
       -0.02527281770026107 -0.37251179052793365
000490 0d 7a b5 02 fc 00 d2 bf 48 f5 78 7f 49 47 da bf
       -0.28131008400478735 -0.4106010193680345
0004a0 25 4c 9b 21 70 ab da bf ea de 4e a7 01 71 cb bf
       -0.41671374589822313 -0.2143861834463146
0004b0 87 20 cd 75 3c dc ca bf d5 e5 34 f2 d7 a6 bd bf
       -0.2098460746003676 -0.11582708037612773
0004c0 b3 98 b2 86 20 6d a9 3f 29 6f 6f a5 29 22 dd bf
       0.04966069835909206 -0.4552101245478633
0004d0 f1 35 35 14 38 e2 d9 bf 2f 2e aa f8 31 ab 98 bf
       -0.4044323155729606 -0.024090557863514824
0004e0 79 1b c0 e0 9d 0d c4 bf 72 0c e1 fc c5 af c5 3f
       -0.156665549031654 0.16942667815792195
0004f0 72 8a e2 c6 7f 01 c1 3f fc 97 62 52 e4 1c 70 3f
       0.13285824977090815 0.003933803445908875
000500 6b 88 55 6b 30 f7 d4 bf 72 ba 49 8f 4e b6 c6 bf
       -0.3275872276482292 -0.17743856426701005
000510 5f a6 97 9b da 14 df bf 04 7b 8c 2f bd b1 e3 bf
       -0.4856478232819423 -0.6154466561018528
000520 97 2f a2 88 0f 9d da bf 5d 02 88 32 41 83 d5 bf
       -0.41583622305983553 -0.33613614973731903
000530 81 39 a9 ec 8c 12 b0 bf 7e b7 a2 3a 37 25 da bf
       -0.06278305795533436 -0.40852146841177006
000540 48 8e 70 78 b7 bc c0 bf ec 4d 1f e1 6d 07 d0 bf
       -0.13075917607158005 -0.25045344338033604
000550 bc f3 13 a9 df 0d c6 bf f9 cf 9f 87 b3 e5 e3 bf
       -0.17229839092024501 -0.6217897080337017
000560 28 dd 14 09 fc 56 b6 bf 21 be 3f 86 24 c7 b7 bf
       -0.08726477834430979 -0.0928824260479293
000570 8c a9 a2 b0 62 ff b0 bf 0a 30 86 d7 da 32 c6 3f
       -0.06639687359225926 0.17342696689263476
000580 4a 6c 41 39 80 2d a5 3f 1a b1 7c fd 3c 6e a6 3f
       0.04136276911659616 0.04380980104756045
000590 ba 95 a0 77 3a e4 d3 bf f6 dd e4 c9 af 87 c0 bf
       -0.3108049553141786 -0.12914082868677185
0005a0 7a 38 23 ba 57 07 d6 bf 67 00 15 4b c0 88 d4 bf
       -0.34419816186426255 -0.32084662754278387
0005b0 d8 ec 41 8f 1b 3d cf bf 06 ac 93 d2 dc 64 d9 bf
       -0.24405235762592414 -0.3967811638273705
0005c0 86 c3 5e 61 d5 73 d1 bf a1 d9 22 b0 ac 76 d4 bf
       -0.27269491680913693 -0.3197433204726626
0005d0 d1 64 2f 56 79 52 d0 bf 43 80 ef c7 da 44 da bf
       -0.2550338117267304 -0.41045255207973613
0005e0 71 03 7b 27 85 e4 de bf e9 c2 26 19 10 7c b4 3f
       -0.4826977620651212 0.08001804937408576
0005f0 e2 71 b2 ab e6 b0 b2 3f 9e 3a 0e 58 4a 64 82 3f
       0.07301179591963305 0.00898035126900015
000600 b3 b7 ff 95 6f b0 91 3f b2 fa bd 82 a2 a2 85 3f
       0.017274611978727438 0.01056410752766843
000610 fe b0 91 2b 15 60 77 3f cb 0d 54 35 79 b4 62 3f
       0.005706865974485218 0.002283322081554328
000620 cc 11 e1 71 6d 29 75 3f 75 be be 58 b0 e0 81 3f
       0.00516646148577533 0.008729341228757218
000630 44 9e 0a e7 69 68 83 3f b0 54 20 23 c0 6a 59 3f
       0.009476497042967165 0.0015513302173577985
000640 e9 e9 df af ab 73 83 3f 4d 52 05 4e 6a af 47 3f
       0.009497968010681883 0.0007228154245618263
000650 10 0f 75 dd f8 5b 5d 3f a0 ab 28 0a e0 70 60 3f
       0.0017919473956035693 0.0020069480681476765
000660 5f 2c 77 00 fa ab 38 3f f2 25 51 0d 61 ef 66 3f
       0.00037646153984089396 0.0027996917292838425
000670 f6 f2 8a 3c 09 71 6f 3f fe 2b cd 68 45 25 a5 3f
       0.003838079490689923 0.041299981158395824
000680 b2 f5 f1 86 cf a2 a2 3f 95 6b 45 35 39 b2 97 3f
       0.03639839670448043 0.023140806080259663
000690 89 eb ed fb ec e5 71 3f ea 2c 19 d0 41 b9 6c 3f
       0.00436966487802238 0.003506306210316991
0006a0 0c ba 7a af 98 8a 67 3f b5 75 08 b2 f9 e7 4a 3f
       0.0028737051141754007 0.0008211106506369944
0006b0 18 61 8c c4 fc 1b 4a 3f 4c e3 7f 34 a6 dc 5a 3f
       0.0007967933862316505 0.001639520940442024
0006c0 45 78 83 8d f5 16 89 3f 65 fe 57 03 9a b4 95 3f
       0.012250822430754602 0.021196752981266793
0006d0 e3 18 06 8b 67 97 63 3f ea e7 ce 78 b5 ca 82 3f
       0.0023915312123704443 0.009175698994898302
0006e0 e1 85 04 19 7c 9b 56 3f 8a 47 61 73 2d 49 52 3f
       0.0013798438922737399 0.0011160796980402587
0006f0 d2 ad 74 57 23 e5 45 3f 07 25 76 39 3a b3 58 3f
       0.0006681845251583168 0.0015075749014122357
000700 77 dc aa 4a 53 51 57 3f 15 14 b7 e1 2b e2 7c 3f
       0.001423198070069435 0.0070516313675783775
000710 1a 4f b9 77 3d bd 73 3f a1 3c b0 49 bc 26 78 3f
       0.004819145305720496 0.005896316050907264
000720 b1 d9 91 cf d4 f4 73 3f 45 41 e0 fe 1d 65 76 3f
       0.004872161190283484 0.005467526598309573
000730 b9 e4 4a 1c b1 ab 86 3f be 87 c4 42 9c 7e 90 3f
       0.011069663692398245 0.016107980323006414
000740 12 d4 02 70 41 3b 8a 3f 20 db 35 91 e4 5c 86 3f
       0.0128083336170253 0.010919366532772978
000750 d3 2a 0c 8e ef 74 80 3f 5e dc b9 3e 2a 2d 78 3f
       0.0080355372642961 0.005902447719214525
000760 44 df fe f4 b2 63 5c 3f b9 cb 02 22 71 00 6a 3f
       0.001732754481038116 0.003174038851363883
000770 25 42 70 10 ee 27 78 3f 5a b6 78 d2 c2 3d 6b 3f
       0.005897455156642671 0.0033253483886912906
000780 a5 63 8d 97 8a 32 43 3f 1e d4 3f d0 15 ee 3a 3f
       0.0005858589857822184 0.00041091949992672235
000790 4e a2 f3 8b a5 87 51 3f 2f eb 28 3b 51 48 68 3f
       0.001069938341794824 0.002964171080092191
0007a0 fa 46 d4 00 6e ec 83 3f db 37 f6 aa 51 f0 7f 3f
       0.009728297615342541 0.007797545447273148
0007b0 37 bb 0c 18 8c 52 62 3f 62 4a 1b 0b 73 06 6d 3f
       0.002236627217278377 0.0035431143704525584
0007c0 3d da d5 c2 bb b1 5b 3f 6e a9 a8 ab c9 06 3a 3f
       0.001690324173379345 0.000397133098575828
0007d0 04 9f a3 42 3b 95 4b 3f 48 56 54 c8 21 a0 5a 3f
       0.0008417643887499164 0.001625092497595475
0007e0 65 ea 4a 3d f6 0a 59 3f 83 4a 65 a5 e7 7d 44 3f
       0.001528492420375693 0.0006253605923041836
0007f0 a9 28 26 2e 9b f7 51 3f a2 b3 7b 10 3e a3 16 3f
       0.001096631568176446 8.635584174117178e-05
