feat_pickles/2773_B_458.13825_458.693625.wav.npy (npy, 5792 bytes, 1 tensors)

array (column-major) f8 [21, 34]
0.18045112781954886 0.12030075187969924 0.09022556390977443 0.10776942355889724 0.13784461152882205 0.16040100250626566 0.16541353383458646 0.17543859649122806
0.18045112781954886 0.17293233082706766 0.14786967418546365 0.12030075187969924 0.09774436090225563 0.06766917293233082 0.042606516290726815 0.047619047619047616
0.08521303258145363 0.14035087719298245 0.16040100250626566 0.14285714285714285 0.16541353383458646 6.326583185276799e-06 0.000753022123138827 0.005077430106954269
0.015070663587657032 0.029828524105287732 0.03495344851363884 0.039287834294451075 0.04245859994174957 0.047007535655058615 0.04901490503888277 0.038281962452203847
0.0273062696750149 0.014865245299482322 0.00706017916007462 0.003703461893155616 0.0018763677826593083 0.0005384348142521071 0.001165197976783532 0.001959908380711207
0.0009817626140227699 9.223812933034574e-05 3.1795452644451645 1.3295005663311048 1.63496648586419 2.266274628168695 2.7614304758660135 2.9941568635865106
3.0646768474007735 3.050800748055128 2.98265006538226 3.039350843737338 3.1371674819369244 3.182118852243476 3.010192527203863 2.81292222966624
3.0836347715808574 2.7144648823203115 2.5150239072611655 1.9512395917048162 2.6995467435650164 2.369323572289277 2.468662445437515 0.31920083934887256
0.1860898784330142 0.2185739963038868 0.2434763024218133 0.2658962010801695 0.25769735707204616 0.27944727008158987 0.2772350164833482 0.2658522462225059
0.24233276019095074 0.2337895664018817 0.2116814606480251 0.18547928619737727 0.19457217430184984 0.14400360134828924 0.1649812370739157 0.16736936636151142
0.23275373004751612 0.23188560974789976 0.22539965907900147 0.24985215973639632 0.2980133703521642 0.19859593617309138 0.18380695881598558 0.1934221533997654
0.21087418043696438 0.1958000583427601 0.20849361310684666 0.18891203939412343 0.18304791450658606 0.17252366203952058 0.19443962369651652 0.1719729117839353
0.16619746852781406 0.1949417669035313 0.18035199714814065 0.21626156151065173 0.19584844059411838 0.1891320432141397 0.18037104555660188 0.18108275319338196
0.22250596211858933 1.2248502226391988 1.0899915944337737 1.7131079747990234 1.7244370716162665 1.828509362571936 1.8628784158842846 1.9289932796755627
1.9612296703094596 1.909876798960476 1.7293060914014573 1.6785260820082404 1.6525690147520815 1.4531425009325996 1.0732196043733817 0.19692561586623294
0.28812337917120934 0.5930819796453543 1.473856364179016 1.5614000325345165 1.7605799456895135 1.5832321100638673 0.0 0.014422977299452225
0.008637058588480318 0.005428134126864093 0.00570326504907599 0.00430641495465177 0.014956320765200058 0.004952852248906857 0.0015694705280423658 0.009088038863672942
0.005190900321269747 0.002518429647283667 0.004449901903116435 0.008394138718305102 0.017456916470618547 0.026079659682799603 0.010620615136171744 0.02032379942311483
0.0032777196530450266 0.003664375106448262 0.008529274107274904 0.265 0.2 0.27 0.32 0.39
0.395 0.425 0.4 0.37 0.33 0.265 0.265 0.215
0.13 0.07 0.085 0.09 0.315 0.315 0.305 0.365
-34.278952511789576 -28.24885958697868 -24.66962314923851 -23.249215857767854 -22.442145928246365 -22.474172986105874 -24.009706930134776 -22.765583085616278
-22.86167587952128 -21.90653350963052 -22.417219865249635 -22.951777593634965 -24.002618128818327 -25.173140099611302 -28.417225303941223 -27.93581162653474
-29.163614226081226 -26.691612570281094 -25.93431886694065 -26.934907111204048 -30.384390666370145 1.6479611234308447 3.244009425667161 2.778391210845344
2.2943161799450285 1.9975350086323906 2.0005136432023902 0.8322359523907801 1.1556086856196113 1.2161091457859383 2.1333140209525943 2.214123877718334
2.671247777421926 3.1381578433203536 3.098837931240507 3.611342554236022 3.3676381156197652 3.2307091145098106 2.4222604097843092 2.5486933501824245
2.6521213039450675 2.0120457620313683 0.44471923516465667 -0.2378660753170673 -0.9552644192242555 -1.1060373136101143 -0.6596735213092771 -0.8549967568624535
-0.9096842616907821 -1.3683717414609926 -1.568456004692799 -1.5307241508912832 -1.062124490478942 -1.017020131774878 -0.9658537121816875 -0.3996531268964948
0.35048706721235073 0.667502769261643 0.5024454657006713 -0.9694060140771141 -1.144918336891491 -1.1665758339795624 -0.33897207519479966 0.3900634491738762
0.5493261926997165 0.17247458586794603 0.027220661351314845 0.04280952645971031 -0.05334051801476541 0.2268347483295655 0.1550197753731854 0.4386461288205991
0.37757102381269114 0.2950981419407248 0.3216124574976941 0.6238929069229365 0.4762308203347782 0.7007795846402964 0.6271225987439104 0.9814394042201503
-0.0685711603676549 0.04164025212114519 0.3091688894940636 1.0449588337074922 0.3863239901879266 0.574378684977975 -0.00488845511499699 -0.3674377820085905
00000000: 9071 41c6 0519 c73f c0ec 01b3 07cc be3f
00000010: 9071 41c6 0519 b73f 6cb9 b1e5 c696 bb3f
00000020: 4e1a 3969 e4a4 c13f 8048 0122 0588 c43f
00000030: c452 114b 452c c53f 4c67 319d c574 c63f
00000040: 9071 41c6 0519 c73f 2a62 a988 a522 c63f
00000050: d62e 59bb 64ed c23f c0ec 01b3 07cc be3f
00000060: 5c90 7141 c605 b93f 2c15 b154 c452 b13f
00000070: 085d 2174 85d0 a53f 1886 6118 8661 a83f
00000080: 085d 2174 85d0 b53f 701f c17d 04f7 c13f
00000090: 8048 0122 0588 c43f 9224 4992 2449 c23f
000000a0: c452 114b 452c c53f d3f6 aef1 1d89 da3e
000000b0: 178e 2eb2 ceac 483f fc0e 1d44 12cc 743f
000000c0: 286f e739 5edd 8e3f 6ca4 145e 5e8b 9e3f
000000d0: 363b 7f1c 6be5 a13f 75c5 d9f6 881d a43f
000000e0: 0a16 5e34 22bd a53f e9a9 9b28 5f11 a83f
000000f0: 162d 514c 7b18 a93f 9290 8481 b199 a33f
00000100: d876 ebbc 2cf6 9b3f cd2f 4473 ab71 8e3f
00000110: 00f1 8a69 22eb 7c3f ee98 d1f6 b856 6e3f
00000120: dc29 c190 0ebe 5e3f bce8 88f5 b7a4 413f
00000130: af9c 08cd 3117 533f 9cf6 becc 390e 603f
00000140: ec5c 7594 cf15 503f ca5f e4fe fe2d 183f
00000150: 9a8c 776d b56f 0940 3b7d c662 a245 f53f
00000160: df7b 2d9e d228 fa3f b0e9 9d97 5421 0240
00000170: 8f2d 80dc 6817 0640 7f95 8183 08f4 0740
00000180: 5b28 834b 7584 0840 a812 fc38 0a68 0840
00000190: 22d5 31a3 77dc 0740 ff5f d72c 9750 0840
000001a0: 39f3 c743 eb18 0940 5ef7 92ba fa74 0940
000001b0: 9108 d8d1 df14 0840 fcdc b45e dd80 0640
000001c0: 57fc 05b5 48ab 0840 5aa6 3d5d 39b7 0540
000001d0: 3dc2 b2da c41e 0440 7185 9001 4738 ff3f
000001e0: 9214 8df6 ab98 0540 a4fe c4ea 5ff4 0240
000001f0: dd23 a018 d2bf 0340 70fc 765b c96d d43f
00000200: bd42 fe0a cbd1 c73f c6cb f092 3bfa cb3f
00000210: 4558 2042 3b2a cf3f 2747 f17f 7104 d13f
00000220: f3f6 380e 1d7e d03f fa3d 7dcd 76e2 d13f
00000230: 3187 46f0 37be d13f dc00 c623 b903 d13f
00000240: 6c80 e287 c204 cf3f 02ca eb06 d1ec cd3f
00000250: 418e 53cb 6018 cb3f efcd 2606 c9bd c73f
00000260: 7145 abb2 bde7 c83f 2708 26c3 b56e c23f
00000270: d2d1 d7ec 1a1e c53f d7fd 6f01 5c6c c53f
00000280: 75bd 49cd dfca cd3f 2ddf 237b 6dae cd3f
00000290: df0d 2362 e5d9 cc3f a18e 73d3 27fb cf3f
000002a0: e1ba dbab a612 d33f e9af 7d75 976b c93f
000002b0: 0629 7286 fc86 c73f f341 969f 0ec2 c83f
000002c0: 9c16 46d6 ecfd ca3f be8a 91ef f90f c93f
000002d0: 1801 dc30 ebaf ca3f b65b 820b 452e c83f
000002e0: bb11 3433 1d6e c73f 9279 1f5f 4115 c63f
000002f0: da5a 69c8 65e3 c83f 7277 f457 3503 c63f
00000300: 39a2 006a f545 c53f cdd0 bc10 daf3 c83f
00000310: 9880 c234 c615 c73f 66fa 0877 75ae cb3f
00000320: e283 a9cb 8f11 c93f 617d 1d92 7a35 c83f
00000330: 98cc e7fe 6516 c73f 54e8 6a3b b82d c73f
00000340: 0570 3b4b 137b cc3f 25bd 0b8c fc98 f33f
00000350: 9420 b006 9b70 f13f 2375 64e8 e368 fb3f
00000360: 47a1 a953 4b97 fb3f 02d2 8a08 9341 fd3f
00000370: 4c5b 0a99 59ce fd3f af90 a60e 28dd fe3f
00000380: abc8 de5c 3261 ff3f 63ca 6ef9 da8e fe3f
00000390: 4c7c 35dd 3cab fb3f a255 3b2a 3edb fa3f
000003a0: dee3 0b35 ec70 fa3f 3eee de59 1240 f73f
000003b0: 115b e351 e82b f13f c1ef f1cb db34 c93f
000003c0: ea36 b00a 9d70 d23f 3b8f 4d0f 87fa e23f
000003d0: cb67 3269 ea94 f73f 6958 bb99 7efb f83f
000003e0: bdad 8be0 552b fc3f dd38 6b31 eb54 f93f
000003f0: 0000 0000 0000 0000 152d 7f3e cb89 8d3f
00000400: 8d88 5e61 4eb0 813f 34d6 d9a8 cf3b 763f
00000410: cdf5 db8d 4e5c 773f 71b0 4a76 9aa3 713f
00000420: 4cae 7064 6ba1 8e3f 0b46 e526 7149 743f
00000430: 4c32 c225 d6b6 593f 064f a2ed bf9c 823f
00000440: d2cb ddb1 0d43 753f 1193 1d9f 87a1 643f
00000450: 7006 4f72 0f3a 723f 8e87 2f3a f230 813f
00000460: e43c 52d5 39e0 913f 69b7 b655 a0b4 9a3f
00000470: 42d6 62d5 42c0 853f 2a35 6917 c3cf 943f
00000480: 119d e356 e0d9 6a3f 3b54 c267 c004 6e3f
00000490: 0a80 cbca cb77 813f f628 5c8f c2f5 d03f
000004a0: 9a99 9999 9999 c93f 48e1 7a14 ae47 d13f
000004b0: 7b14 ae47 e17a d43f f628 5c8f c2f5 d83f
000004c0: 48e1 7a14 ae47 d93f 3333 3333 3333 db3f
000004d0: 9a99 9999 9999 d93f ae47 e17a 14ae d73f
000004e0: 1f85 eb51 b81e d53f f628 5c8f c2f5 d03f
000004f0: f628 5c8f c2f5 d03f 85eb 51b8 1e85 cb3f
00000500: a470 3d0a d7a3 c03f ec51 b81e 85eb b13f
00000510: c3f5 285c 8fc2 b53f 0ad7 a370 3d0a b73f
00000520: 295c 8fc2 f528 d43f 295c 8fc2 f528 d43f
00000530: 85eb 51b8 1e85 d33f 5c8f c2f5 285c d73f
00000540: fba2 45b7 b423 41c0 975e 0b43 b53f 3cc0
00000550: ba9f 366c 6cab 38c0 edc1 469c cc3f 37c0
00000560: b1e0 bd79 3071 36c0 adf8 9b66 6379 36c0
00000570: 3279 4327 7c02 38c0 ba17 cb40 fdc3 36c0
00000580: c24b 5aca 96dc 36c0 5897 8094 12e8 35c0
00000590: 1c7d cceb ce6a 36c0 4eba 45b2 a7f3 36c0
000005a0: c4a6 e994 ab00 38c0 ec74 d9e8 522c 39c0
000005b0: c07d 0b47 cf6a 3cc0 eb2e cb59 91ef 3bc0
000005c0: e12d 369f e229 3dc0 1cdc 7a85 0db1 3ac0
000005d0: be8b 7185 2fef 39c0 526b 8b12 56ef 3ac0
000005e0: 8af2 3c6d 6762 3ec0 3870 a37b 0c5e fa3f
000005f0: e63f b936 bbf3 0940 c498 d02b 253a 0640
00000600: 6161 fc70 c25a 0240 230f eb44 e7f5 ff3f
00000610: 730c 064c 0d01 0040 ae5c c24a ada1 ea3f
00000620: 3e5b 7b88 5f7d f23f 0c46 18dd 2e75 f33f
00000630: 9bb7 00f1 0611 0140 5bbe 6094 86b6 0140
00000640: a251 9c27 b75e 0540 78f9 d57f f21a 0940
00000650: 1942 928a 6bca 0840 4ac6 a890 07e4 0c40
00000660: b7cc 9a40 ecf0 0a40 88ab 2d05 7ed8 0940
00000670: 745a d310 ca60 0340 8e87 d456 b963 0440
00000680: 64c0 cb5f 8b37 0540 4cd7 cf72 ab18 0040
00000690: 1fcc bbaa 4776 dc3f 5547 2843 6572 cebf
000006a0: 3538 f3af 8691 eebf 37c7 a12e 54b2 f1bf
000006b0: a7ef 01a5 0b1c e5bf 3021 9d28 225c ebbf
000006c0: e6ba 342b 221c edbf 4b87 65c4 d9e4 f5bf
000006d0: 23ed d552 6518 f9bf 2a68 749b d87d f8bf
000006e0: 1934 ee3f 76fe f0bf 218c d5e6 b645 f0bf
000006f0: 244c 510b 46e8 eebf eeee 70b5 ea93 d9bf
00000700: a345 d64e 616e d63f 6bfb 7ec4 2e5c e53f
00000710: e5a6 6683 0814 e03f b238 e0c2 5f05 efbf
00000720: 77a2 d8e3 9551 f2bf 37f0 f36b 4baa f2bf
00000730: be02 4eee b7b1 d5bf bd45 64af ccf6 d83f
00000740: 4168 0f86 1494 e13f 13d4 d8b0 a513 c63f
00000750: 0018 1ea9 bbdf 9b3f 5812 3458 21eb a53f
00000760: d7a8 d9c8 724f abbf fbff d5c8 eb08 cd3f
00000770: 3e05 bb20 b0d7 c33f 634b 7336 c712 dc3f
00000780: f255 cca7 1f2a d83f d8ba 2f51 e3e2 d23f
00000790: 1315 bc6a 4c95 d43f a117 ee41 eef6 e33f
000007a0: 13d9 abd5 907a de3f 5481 b74e c96c e63f
000007b0: 0801 8669 6311 e43f 5d33 049c f367 ef3f
000007c0: 5254 3a2b e18d b1bf 5f72 1d02 df51 a53f
000007d0: 3c54 544f 6cc9 d33f 2a0a 07c1 26b8 f03f
000007e0: 961c e141 88b9 d83f 17ff 6f68 4f61 e23f
000007f0: d7cd 8cad ea05 74bf c7aa 42c2 1984 d7bf
