feat_pickles/2773_B_382.933625_383.153625.wav.npy (npy, 1984 bytes, 1 tensors)

array (column-major) f8 [7, 34]
000000 2c 15 b1 54 c4 52 c1 3f 4e 1a 39 69 e4 a4 c1 3f
       0.13533834586466165 0.13784461152882205
000010 92 24 49 92 24 49 c2 3f c6 05 19 17 64 5c c0 3f
       0.14285714285714285 0.12781954887218044
000020 e4 a4 91 93 46 4e ba 3f 4c 67 31 9d c5 74 b6 3f
       0.10275689223057644 0.08771929824561403
000030 4c 67 31 9d c5 74 b6 3f 1d b2 64 f2 09 de a4 3f
       0.08771929824561403 0.040756522025138
000040 cd 1c 5d 0d b9 e2 a7 3f b9 0f 6e e9 0e 95 a3 3f
       0.04665163314944607 0.0382465991924898
000050 e1 a6 bc 40 ea e9 95 3f 85 9a 7d 34 35 3e 8b 3f
       0.021400127602794753 0.013302245773684671
000060 e5 f7 cc d9 ab 0f 8c 3f b1 80 e2 b7 a5 b0 87 3f
       0.013701765617607673 0.011567396806924842
000070 c0 a9 78 bd 70 4e 07 40 86 d9 22 49 24 d9 06 40
       2.913300972218366 2.8560262407074246
000080 fa 54 68 1c 0d 93 05 40 be d5 b2 02 15 9d 04 40
       2.6968023509349424 2.5767002306772318
000090 76 a9 51 82 01 8a 07 40 6b fb 3f 90 18 d0 06 40
       2.942385690800786 2.8516093511129177
0000a0 f2 ea cf ea 40 5f 07 40 8f 51 5e bd 3f fd ce 3f
       2.9215105385495628 0.2421035456324145
0000b0 4f f6 17 63 5c 68 cc 3f 4a c0 21 2a 2d ae cf 3f
       0.221934841523693 0.2475029426309468
0000c0 7f fe e4 96 4a 0c cb 3f b5 7c eb 5c f6 47 cb 3f
       0.21131260269065774 0.21313361680129153
0000d0 e0 20 39 3b 70 b6 c8 3f 82 39 96 4b d5 91 c7 3f
       0.19306757823711163 0.1841379756046529
0000e0 bb 5a 74 94 26 e2 cb 3f a1 a7 be 43 29 97 c8 3f
       0.2178390717387709 0.1921130734238519
0000f0 70 42 71 b8 75 cf cc 3f 30 df fa b7 99 66 c8 3f
       0.22508117204644718 0.19063111766240004
000100 6d 61 c6 23 0c 4a ca 3f 8d 62 b0 b5 b1 71 c7 3f
       0.20538474795172182 0.18315717097791087
000110 81 27 64 fa 8d 6a c7 3f c4 16 3c 07 ca 3d f8 3f
       0.18293928838857812 1.5150852472883551
000120 f5 fd 05 ba fc f5 f5 3f ea 74 6e ec 1f 26 f8 3f
       1.3725554720439253 1.5093077884296755
000130 65 fb f1 53 c8 f6 f6 3f 7e f4 1e ad c9 19 f7 3f
       1.4352496413336777 1.4437958490882745
000140 e7 df 7d 57 7d 2d f5 3f 75 1a 9f 29 06 57 f4 3f
       1.3236058633465235 1.271246111473059
000150 00 00 00 00 00 00 00 00 f0 f0 0a 1e 9a 17 66 3f
       0.0 0.0026968011955813484
000160 a1 a9 4a 01 8a be 65 3f e7 15 60 83 0b 98 71 3f
       0.0026543326769871843 0.0042953920110497595
000170 e8 65 26 83 f9 1e 71 3f 85 c2 c1 c9 a3 c6 66 3f
       0.004179930360260077 0.0027802657114580098
000180 5c df 53 97 a9 e2 77 3f 52 b8 1e 85 eb 51 c8 3f
       0.0058313965466750516 0.19
000190 66 66 66 66 66 66 c6 3f 0a d7 a3 70 3d 0a c7 3f
       0.175 0.18
0001a0 0a d7 a3 70 3d 0a c7 3f 1f 85 eb 51 b8 1e c5 3f
       0.18 0.165
0001b0 7b 14 ae 47 e1 7a c4 3f d7 a3 70 3d 0a d7 c3 3f
       0.16 0.155
0001c0 49 0d 7e 18 69 09 36 c0 c4 1e 2a f4 ed 14 36 c0
       -22.03675988271178 -22.081755886348006
0001d0 c1 f9 23 a2 e7 07 36 c0 eb f8 61 ad f9 23 37 c0
       -22.030878194602113 -23.14052852289107
0001e0 62 68 1e 0f a7 c5 37 c0 c3 e3 65 57 17 19 38 c0
       -23.772080368922964 -24.098012411475576
0001f0 4f 1a 7b c0 0f 86 38 c0 11 2a cb 29 ae 95 04 40
       -24.52367785458983 2.573086096298774
000200 ce 6d 6c c4 7f 98 05 40 ec 7b 60 70 a7 c8 02 40
       2.699462446745861 2.3479756144947626
000210 77 ce ed 92 80 e0 05 40 df 9a f8 6c d9 ad 06 40
       2.7346202353308473 2.8348873628013815
000220 17 fc 04 ef 94 bb 09 40 d0 3a 14 8f 63 a4 0b 40
       3.2165926621814935 3.4552680185364366
000230 c6 b0 08 7c 6d f7 d6 bf f0 18 20 2a cb 0a e4 bf
       -0.35885178673448725 -0.6263175795327509
000240 a5 4d 90 2c 91 e1 df bf 74 5b 28 a3 f7 f8 e6 bf
       -0.49814252235338535 -0.717891520182873
000250 3f 86 6f 80 26 17 d2 bf b3 35 9a c2 f8 23 e0 bf
       -0.2826629881147688 -0.504391079027917
000260 06 af 0d d6 ba ec db bf 9e a7 d0 05 a3 a6 de bf
       -0.4363238420835248 -0.478920703581588
000270 5b c6 df c3 53 e9 db bf 0e 86 50 14 23 0a d7 bf
       -0.43611616257030555 -0.3599937151321634
000280 a7 5c 02 12 9c c1 c1 bf 07 3b 7d 26 81 a8 a7 bf
       -0.1387209976134944 -0.046207462261568515
000290 23 51 25 eb 27 1d bf bf d2 ec 45 62 ff 40 c7 bf
       -0.12153863421309956 -0.18167106913083458
0002a0 4f 5c 02 9c 9a 85 e0 bf ec 6b c7 0b ae c9 e6 bf
       -0.516309075074682 -0.7121191244181069
0002b0 fa cb 12 96 1c b8 db bf f5 d4 d7 8c 96 eb d6 bf
       -0.43311228423698334 -0.3581291556759674
0002c0 cd a4 86 9f 8a bb d8 bf ae 38 53 70 5c e7 d8 bf
       -0.3864466245527865 -0.3891211602139134
0002d0 e0 84 69 b3 62 92 d4 bf cd 90 46 0f 60 85 ef 3f
       -0.32143466492386885 0.9850311563827973
0002e0 9f 17 2c 2f c4 55 ed 3f 81 b2 b0 36 13 9c ee 3f
       0.9167195245106433 0.9565521305244858
0002f0 f5 1e e1 a6 80 d8 ed 3f c1 8f b4 5c 8e 2c e7 3f
       0.9326785334933151 0.7241889773035767
000300 3e b9 ed d5 91 24 e0 3f 21 3a 52 32 20 c4 dd 3f
       0.5044640711110231 0.4650955668848003
000310 ef 01 25 1d d1 9c d7 bf a9 fa f1 1c b2 64 7b 3f
       -0.3689463410010196 0.006687827829522299
000320 c6 15 0c 5d cc b5 c5 3f 91 15 62 4b 92 52 db 3f
       0.16961054366417566 0.4269147621310703
000330 f6 f6 13 f6 7f f0 e3 3f 58 2c 20 c2 28 1d de 3f
       0.6231078916750608 0.470529737068039
000340 93 18 03 03 1d 0f d9 3f 26 64 83 7d 82 66 dd 3f
       0.3915474442877748 0.45938169724610345
000350 3d b2 6a ad 98 bc b5 bf 99 f4 d9 ec 7a 29 c6 bf
       -0.08490900262649688 -0.17314087452897267
000360 db bb 33 63 21 ad b1 bf a1 56 80 54 dc 5e b7 bf
       -0.06904801055837544 -0.09129120886822274
000370 18 07 53 20 2c 86 a6 3f b3 ca 6f d1 b6 5b b9 bf
       0.04399240393241949 -0.09905569661331519
000380 cd ec 04 dd ad c3 ab 3f 1b 46 7a 07 c8 6e b2 bf
       0.05422728846539258 -0.072002889466852
000390 46 8d 52 95 0d 69 b6 bf 8f 59 7c f6 03 57 be bf
       -0.08754048247879095 -0.11851525085180568
0003a0 de 6b 10 a0 90 67 c6 bf dd 0a bb 7b cb 76 b6 bf
       -0.17503555122024655 -0.08775016566054768
0003b0 63 da 0f c6 72 8f b3 3f 55 ad 29 8d e6 12 e0 bf
       0.07640759788032762 -0.5023072011075934
0003c0 cc b7 9c 0a cb 11 cc bf cd cc a3 b7 5d 2c d2 bf
       -0.21929300325558498 -0.28395789083078854
0003d0 ea 92 0d 46 51 bc b7 3f f3 81 8e dd cf 9f 69 bf
       0.09271724663046724 -0.0031279621002371304
0003e0 8b af 19 59 47 cf 9b 3f 8c 09 4f 59 5a 42 a4 bf
       0.027157893002751215 -0.039568732644983035
0003f0 47 d9 9c cd 43 0b a2 bf 19 e2 e6 3f 31 05 db bf
       -0.03524219403191125 -0.42219191780489634
000400 bf 74 86 13 98 34 cd bf bd c3 4b 47 39 7d cc bf
       -0.2281675429666503 -0.2225715253948958
000410 73 9f 22 da e5 ba d8 bf 1e 82 cb 46 72 19 e2 bf
       -0.3864073400713927 -0.5656062491144132
000420 03 6d 61 a0 76 fb de bf e8 10 5c 78 fa f0 b4 3f
       -0.484098106977129 0.08180203855960466
000430 ba ae 65 db 31 a2 b7 3f 1d 58 26 a3 0d ef ac 3f
       0.09231864553810967 0.05651133171629417
000440 ca f2 35 89 31 f1 db 3f e0 13 f7 97 b4 bf d4 3f
       0.4365962829540818 0.32420077171656025
000450 d7 8a 38 1f cd e9 d5 3f 6c 82 4e 0d 93 f6 d6 3f
       0.3423950962916655 0.35879970836143715
000460 30 77 86 42 43 a0 d4 bf 35 18 43 76 e9 31 da bf
       -0.32228166100127265 -0.40929638432533305
000470 f1 0e 8d d8 25 88 cc bf 56 d2 29 e3 32 90 d3 bf
       -0.2229049022081351 -0.3056761949913257
000480 3f 64 1d 82 2a a6 d7 bf ef 52 ca 1b 8f 2a c8 bf
       -0.36951697069668293 -0.18879879815053566
000490 62 64 95 01 7f 15 c8 bf c0 5b 27 c8 2c 95 79 3f
       -0.18815600945780192 0.006245779923537975
0004a0 0f c7 27 8f 2d 09 6b 3f de a1 1d f9 5e 43 80 3f
       0.003300274832548029 0.007940999963197134
0004b0 d4 3a 2f 9c 4a 56 87 3f ce 05 85 9a f6 aa 94 3f
       0.011395056620953005 0.02018342321503557
0004c0 2d 24 c3 c3 3e 40 9d 3f 78 1a b8 81 c7 a6 6c 3f
       0.028565388391857894 0.003497495328477481
0004d0 88 36 05 b7 0c 35 78 3f 2b b6 1c 3f ae fd 7f 3f
       0.005909967105549925 0.007810288095965438
0004e0 ce e0 3f 17 c1 30 76 3f b1 d8 4a 83 e5 df 51 3f
       0.0054175894365402055 0.0010909787498980911
0004f0 e6 3c cb c6 b9 03 65 3f bd d9 eb 7e 65 ee 83 3f
       0.002565253109743193 0.009732048927145404
000500 89 9a 09 48 8e ee 59 3f 04 5d ea 3b e3 48 ac 3f
       0.0015827550379527175 0.055243588508512104
000510 52 41 3b ce b8 9d a3 3f ce 88 bf 35 8c d5 9b 3f
       0.03831269757722801 0.02718180730870117
000520 d0 12 9b 02 19 f4 85 3f 1f 79 51 a9 04 77 98 3f
       0.010719485656758648 0.02389151843487369
000530 df 52 37 77 bd d2 91 3f 76 fa af 72 e8 ee 9e 3f
       0.017405472184537692 0.030208236694301914
000540 7c e9 2a fd 5a a1 71 3f ee 9c 29 ec 09 77 80 3f
       0.004304271150142088 0.008039548415764899
000550 5c 85 ac c2 94 d1 74 3f 2c 9a ca e1 57 f9 85 3f
       0.005082684607971313 0.010729490831477305
000560 fb 10 92 ef 4a 30 78 3f e1 94 81 d0 fe 53 7a 3f
       0.005905430524880235 0.006427760476161754
000570 49 31 44 d6 dc ec 6c 3f 98 49 25 a5 90 7e 93 3f
       0.0035309136602618457 0.019037494735422905
000580 b0 a8 47 d1 f1 df 89 3f 9f b4 9e 13 58 78 90 3f
       0.01263417167588829 0.01608407611609108
000590 2f e4 ca 95 5d 4f 98 3f 65 78 65 cc 3f 25 96 3f
       0.02374025561104903 0.021626469469417837
0005a0 91 08 b7 1f 48 16 8a 3f a1 dc a3 b3 cb 5b 8b 3f
       0.012737811534752093 0.013358680171661698
0005b0 4b a7 05 56 bd 0b 9a 3f a3 f2 9e 1c 6f 45 9c 3f
       0.025435407996531805 0.027608619806175693
0005c0 b8 d5 b8 3a 30 39 86 3f 72 87 82 af 2c 1b a1 3f
       0.01085126570897442 0.03341045038656788
0005d0 bb cc 03 02 be b4 7a 3f 2b 2a b5 4d 81 a5 7c 3f
       0.006520025461429653 0.006993775455451027
0005e0 df 17 96 89 fc af 78 3f 08 e3 01 1c c9 a3 8d 3f
       0.006027208780670506 0.014472552458970181
0005f0 92 a5 1f 8a da 53 8e 3f 38 d8 80 9d 9d 70 98 3f
       0.01480837568301999 0.02386709474395607
000600 f7 32 9d a8 a1 e4 98 3f 51 99 aa ca 09 22 8a 3f
       0.024309659878144676 0.012760235307109598
000610 23 a7 6c db 9f ba 8e 3f 74 70 c8 b2 55 cf 95 3f
       0.015004395374109308 0.021298731839224108
000620 1c e5 40 56 c5 78 24 3f ff ff a3 16 96 1b 42 3f
       0.00015618714235347212 0.0005526049474440241
000630 84 14 03 06 55 fa 72 3f 0c 6e 8a b1 9e 17 6b 3f
       0.004633266566263509 0.0033071612818511616
000640 3c 68 f0 72 d2 af 8c 3f 33 11 d3 d4 1a ac 96 3f
       0.014007228977835344 0.022140902747893775
000650 8a e3 a7 4e 28 fa 8c 3f 86 4d cf a9 13 99 69 3f
       0.014149012470612527 0.003124750523491651
000660 6d 5f dc c9 9d 65 57 3f 47 f1 dd 00 04 b0 74 3f
       0.001428035822248898 0.005050674093464664
000670 58 04 da ad 7c 2a 76 3f a8 48 77 df f6 31 6a 3f
       0.005411612537160236 0.003197652982387462
000680 66 ee bd 14 87 b8 5f 3f 02 dd 0e 46 88 1f 5d 3f
       0.001936084666310922 0.001777537421942033
000690 08 fa f0 29 f7 0c 90 3f 9f cf 11 af 2b cb 80 3f
       0.015674459395308232 0.008200017242621814
0006a0 d3 52 eb 48 8f df 8c 3f 7d 93 ce fa 31 fe 9e 3f
       0.014098281300371529 0.03026655286125245
0006b0 b8 34 81 9b af 16 aa 3f 69 45 00 7d 4e 3b b0 3f
       0.050954330189236285 0.06340494682105703
0006c0 1f d9 86 f3 10 b6 a3 3f 61 c7 65 ce 9d df a7 3f
       0.03849842999209074 0.046627932972923565
0006d0 27 41 f8 a4 65 43 ab 3f f5 5e 1f 13 c0 02 a6 3f
       0.053248573673160764 0.0429897330611179
0006e0 2f 02 be 05 c6 24 a7 3f b8 15 d8 f5 e0 da a3 3f
       0.04520243473144025 0.0387792873480452
0006f0 0a de 1c f8 d3 15 95 3f a1 6e 65 9b b8 3d ac 3f
       0.020591079729653607 0.05515839478422647
000700 78 28 f0 72 6f d5 87 3f cc 5c 1c f4 a7 64 7b 3f
       0.011637564368374806 0.006687789982400005
000710 22 2f 58 2a c6 3d 68 3f 28 65 ed b6 9a 87 68 3f
       0.0029591436784865014 0.002994348694681865
000720 36 93 d1 fc 9e 74 6a 3f 41 dd 95 e9 ba 8f 66 3f
       0.0032294373727829407 0.0027540827401783268
000730 62 de a0 71 90 31 77 3f bc 11 60 54 2e 0d 91 3f
       0.0056625025118176315 0.016651843929155183
000740 f5 f4 f5 fd 7d ec 8f 3f a0 21 cb 01 a4 af 87 3f
       0.015587791741149529 0.011565476708157274
000750 f6 7b d2 e2 0a dc 8b 3f bb c6 9a ba a2 e1 8d 3f
       0.013603291556419688 0.014590522117348006
000760 85 d4 11 c0 f4 4d 90 3f d6 f9 bf 96 d3 bd 90 3f
       0.015922378752709427 0.016349130703014435
