feat_pickles/2806_B_51.434375_51.875.wav.npy (npy, 4432 bytes, 1 tensors)

array (column-major) f8 [16, 34]
000000 92 24 49 92 24 49 d2 3f 28 af a1 bc 86 f2 ca 3f
       0.2857142857142857 0.21052631578947367
000010 5c 90 71 41 c6 05 c9 3f 0a 10 29 40 a4 00 c1 3f
       0.19548872180451127 0.13283208020050125
000020 0a 10 29 40 a4 00 c1 3f 90 71 41 c6 05 19 c7 3f
       0.13283208020050125 0.18045112781954886
000030 06 aa 19 a8 66 a0 ca 3f 28 af a1 bc 86 f2 ca 3f
       0.20802005012531327 0.21052631578947367
000040 e4 a4 91 93 46 4e ca 3f 80 48 01 22 05 88 c4 3f
       0.20551378446115287 0.16040100250626566
000050 18 86 61 18 86 61 b8 3f 3c 3e f1 f8 c4 e3 b3 3f
       0.09523809523809523 0.07769423558897243
000060 3c 3e f1 f8 c4 e3 b3 3f a4 00 91 02 44 0a b0 3f
       0.07769423558897243 0.06265664160401002
000070 c4 52 11 4b 45 2c b5 3f 38 d8 e1 60 87 83 bd 3f
       0.08270676691729323 0.11528822055137844
000080 c0 a2 04 c4 4c d1 96 3f c3 81 91 d7 f7 b7 a8 3f
       0.022282790626521942 0.04827856546831157
000090 9f 27 3f cd 33 91 aa 3f 69 1f 5a 16 0c 52 a8 3f
       0.05188905601933346 0.04750097058155129
0000a0 9b f2 6e 10 45 14 a9 3f d4 be 33 47 a4 c2 a9 3f
       0.04898277116396806 0.050313123408953025
0000b0 1f 4f 7f 5b 76 5a aa 3f 5a 25 e8 1f b0 96 aa 3f
       0.051471422833541995 0.051930908102870446
0000c0 5d a5 44 90 cb 63 a9 3f 3f 0b d5 27 e5 b0 a8 3f
       0.04958950172506136 0.048224602806405496
0000d0 ff f2 d2 ba 73 a7 a1 3f 85 f7 29 33 c6 22 8d 3f
       0.034480682902971786 0.01422648280754025
0000e0 90 96 c4 1b 61 d4 72 3f 1a ae 27 75 35 c7 70 3f
       0.004597071962313529 0.004096230334180296
0000f0 ff 93 9b 5e 96 3c 69 3f 6a 1b 46 e5 9f 9a 60 3f
       0.0030806481271263837 0.002026855751128866
000100 62 38 1a 00 50 92 ff 3f e5 6f dd 5c 99 4b 08 40
       1.9732208255768673 3.0369136099889027
000110 d8 53 a2 d5 1a 39 0a 40 47 21 fa b1 8b 39 0a 40
       3.2778832140124727 3.2780984787424674
000120 0c b7 7a 3e bd 35 0a 40 e4 d8 b1 a8 88 2e 0a 40
       3.276239860649076 3.2727215937876384
000130 1b af 60 58 ab 2b 0a 40 02 6e 12 3e 66 24 0a 40
       3.2713229088311784 3.2677731370329193
000140 78 57 b8 1d 5f 0e 0a 40 b4 40 3a 20 44 62 0a 40
       3.2570173570520033 3.2979815023209884
000150 b4 63 4f 02 bf 58 09 40 0b ab 86 41 81 4a 06 40
       3.168333070800566 2.7863793486807302
000160 2b 2c c0 c6 94 78 09 40 2e 61 a0 1c df 18 0a 40
       3.183877518405571 3.262144302029035
000170 03 05 a4 d8 0d d7 09 40 ba 1e f2 71 0c df 09 40
       3.2300068783812335 3.2339104558958214
000180 78 0c f7 c4 30 48 d0 3f 72 80 22 72 95 10 d0 3f
       0.25440615877977946 0.25101219316457624
000190 4b f2 ef f1 5b 08 d0 3f 4a 5c 5f 6f 2c ab cf 3f
       0.25051020266235885 0.24741130292997787
0001a0 b6 97 55 d2 a9 c0 cc 3f a2 32 f2 e7 bd f0 ce 3f
       0.2246296193144965 0.24172185731403767
0001b0 e0 1f 89 cd 54 64 d0 3f 98 3b 73 c3 33 5e d0 3f
       0.2561237342056284 0.25574964606215067
0001c0 16 50 01 27 20 7b d1 3f f0 dd e9 ae a5 5c ce 3f
       0.27313998993963773 0.23720236817074136
0001d0 78 cf 68 6c be 9f d1 3f 36 56 5b a8 06 b7 c9 3f
       0.27537499033791546 0.20089801044984917
0001e0 0d 26 c8 fb b6 7c c6 3f da 11 0a 61 98 24 c9 3f
       0.1756809930232496 0.19642929781197332
0001f0 83 41 12 e1 70 26 ce 3f 59 0c d1 be 44 6c d0 3f
       0.23554812421617663 0.2566081870501811
000200 68 6c e5 e7 e4 8d c4 3f fd 42 31 0d 83 ae c4 3f
       0.1605802662187188 0.16157568115388435
000210 a4 11 5f 2a d9 5a c5 3f c7 3d 05 64 67 ef c7 3f
       0.16683497017778592 0.18699352630436136
000220 f5 e5 30 e1 65 c4 c6 3f 7b 71 20 8a 0f 1c c7 3f
       0.1778685903134797 0.1805438446471149
000230 c2 6d ae 2c ca bb c6 3f dd 79 ce 7c 96 8b c6 3f
       0.17760588819224493 0.17613488287038495
000240 79 a8 fa 9b 80 bc c9 3f b6 d9 d2 72 42 fe c6 3f
       0.20106513611000645 0.1796343861257818
000250 de 9b d5 e7 fc cb ce 3f 16 db 85 94 c2 97 c9 3f
       0.2406002170566514 0.19994385006040066
000260 5e 15 18 77 a4 76 c9 3f 22 33 4c 07 92 f1 cb 3f
       0.1989331799997371 0.21830964428263494
000270 66 08 57 8d d0 9a ce 3f 44 3b 2a 32 6e 9b cd 3f
       0.23909956838002983 0.2313058609911086
000280 bc 9f 82 58 3a 92 00 40 29 42 05 eb 99 d8 00 40
       2.0714003481734533 2.1057623253803013
000290 72 7d de 71 f5 28 00 40 38 92 ed ed 7a 9a fc 3f
       2.0199993988059584 1.7877148908675178
0002a0 b5 f7 9e 9e 5c 50 fc 3f 3d 6e a3 89 fa 8f fe 3f
       1.7696195789462597 1.910151040697101
0002b0 e6 2c 16 87 e2 4b 00 40 e0 69 7a 5f ff 87 00 40
       2.037053161014785 2.066405054019228
0002c0 8a 08 fb 19 52 79 00 40 52 ed 1b a8 bb a9 fd 3f
       2.0592386274084378 1.85393872897733
0002d0 be 0b 50 76 60 58 fb 3f ec 37 4f 54 73 ce f3 3f
       1.709076368483451 1.2379029553735519
0002e0 de 6c 3a 92 c6 d9 e2 3f a2 49 56 38 7d cd e0 3f
       0.5890839439411157 0.5250841236432289
0002f0 15 e0 aa 77 fb b7 e9 3f a1 ff 46 96 89 89 f4 3f
       0.8037087762122633 1.2835784788330573
000300 00 00 00 00 00 00 00 00 9c 43 02 b8 3e 32 73 3f
       0.0 0.004686589236499918
000310 e8 37 c1 52 15 78 76 3f d4 4a 0c 99 70 17 73 3f
       0.00548561410330526 0.004661025843932538
000320 c1 d7 13 f6 e6 4e 66 3f eb 60 9e a1 64 2c 5a 3f
       0.002723170372173706 0.0015974982002032133
000330 3b 32 a7 58 95 c9 59 3f 4a a1 6f 08 9f 99 6d 3f
       0.0015739401302311679 0.003613291369664183
000340 8e 47 3d 1c d2 99 55 3f 6a 60 90 a4 18 4b 59 3f
       0.0013184120043274491 0.0015437832501046475
000350 46 d5 cd 1b aa 8d 6b 3f 35 df 26 12 c8 9e 70 3f
       0.003363449328782994 0.004057675864195966
000360 0d 86 d6 a4 7d 0f 78 3f 5f f2 21 dc 0e 93 70 3f
       0.005874148174741756 0.0040464954819268975
000370 e0 b2 c4 cf 5f 7a 6e 3f 01 4e 0e d2 b9 07 6a 3f
       0.0037204619713036985 0.0031775121028176927
000380 c3 f5 28 5c 8f c2 d5 3f 1f 85 eb 51 b8 1e d5 3f
       0.34 0.33
000390 7b 14 ae 47 e1 7a d4 3f 5c 8f c2 f5 28 5c cf 3f
       0.32 0.245
0003a0 29 5c 8f c2 f5 28 cc 3f 9a 99 99 99 99 99 d1 3f
       0.22 0.275
0003b0 d7 a3 70 3d 0a d7 d3 3f d7 a3 70 3d 0a d7 d3 3f
       0.31 0.31
0003c0 d7 a3 70 3d 0a d7 d3 3f f6 28 5c 8f c2 f5 d0 3f
       0.31 0.265
0003d0 29 5c 8f c2 f5 28 cc 3f 66 66 66 66 66 66 c6 3f
       0.22 0.175
0003e0 52 b8 1e 85 eb 51 b8 3f 0a d7 a3 70 3d 0a b7 3f
       0.095 0.09
0003f0 00 00 00 00 00 00 c0 3f 71 3d 0a d7 a3 70 d5 3f
       0.125 0.335
000400 d3 79 18 a4 c8 84 36 c0 62 25 26 b5 3a df 35 c0
       -22.518686538672977 -21.871989557087893
000410 47 68 48 6a cd e8 35 c0 f8 70 70 8e 1c 8f 36 c0
       -21.909384386708805 -22.559029486133085
000420 f9 db c8 4c ff 7b 36 c0 e9 0e be bb 56 5a 36 c0
       -22.484364317930133 -22.35288594617933
000430 a3 bc 2c f7 21 6d 36 c0 b5 11 32 b3 f8 f9 35 c0
       -22.426299522802434 -21.97645111057655
000440 bb 6b 6d 3a 2a ea 35 c0 5d 67 e1 04 85 6a 36 c0
       -21.914706851686542 -22.416092209844795
000450 e9 0c d2 04 91 b3 36 c0 04 3a dd 97 58 4c 38 c0
       -22.70143156173882 -24.2982268252472
000460 f0 67 7f f6 5f 7e 3a c0 52 44 67 f9 68 d8 3a c0
       -26.493651777367575 -26.845351779662742
000470 f0 14 c2 aa 01 83 3a c0 e4 55 7d a6 d7 fc 3a c0
       -26.51174418676686 -26.987665563201418
000480 3e 6b 0a 62 38 89 ff 3f 4d 8d 98 a6 2a e2 fd 3f
       1.9710010366167832 1.8677164561894017
000490 05 8c 11 62 9b 6b fb 3f f5 4b 80 7c b2 27 fc 3f
       1.713771231727834 1.7596917022062801
0004a0 2d bd 8d da 5f 83 02 40 eb e9 47 ad 44 70 fe 3f
       2.314147670221834 1.90240924537522
0004b0 71 77 2b 5e 2b cc f7 3f 71 ab 49 3d 0d 83 fa 3f
       1.4873460463054153 1.6569950479558566
0004c0 5e 66 60 11 4a 43 f8 3f 3f 0f d4 cc 2a 79 00 40
       1.516428058507152 2.0591636659827652
0004d0 d1 d5 ee fb f2 b2 fc 3f 9a ee b5 2c 74 7a 08 40
       1.793688758957945 3.0597918980618717
0004e0 90 52 7e b9 db 4b 09 40 9b 6c d7 17 06 45 06 40
       3.1620401851344653 2.783703027974821
0004f0 4d 9a 25 42 8e f9 01 40 59 ae 73 13 af a5 fb 3f
       2.2468533675885625 1.7279501685942675
000500 a1 5f a3 5e b7 39 fb bf e1 05 2a e2 a3 4f fb bf
       -1.7015908905795885 -1.7069434008156963
000510 a2 17 71 4f 55 cf fa bf 7e 3f e7 dd 67 41 f8 bf
       -1.675618467635538 -1.5159681957338473
000520 83 66 05 73 bb 04 f5 bf 5e c0 b5 56 eb 94 f9 bf
       -1.313655328084139 -1.5988572489841526
000530 08 85 39 11 aa bf fc bf 3f 33 c4 df 6e 80 f9 bf
       -1.7967930481757453 -1.5938557377696296
000540 b0 14 5b 2d 8a 0f f7 bf 2a 7d 68 a8 ce ea f6 bf
       -1.4412938853941277 -1.4323259905284638
000550 88 0f c1 49 dc 2e e0 bf ba 76 c6 6d 48 b1 e1 bf
       -0.5057202759276018 -0.5528909820602259
000560 50 0d e8 98 4e b5 d0 3f 70 b7 9d a6 34 7b d6 3f
       0.26106610233565153 0.35126987715818014
000570 27 0b 6b 47 5d 9a db 3f 56 88 6b 86 e5 9d e6 3f
       0.43129665350368146 0.7067744851485809
000580 8d 60 77 80 dd 12 ee 3f f7 2a 6d 6a c2 27 ee 3f
       0.9398028859241251 0.9423534468308777
000590 f8 d5 62 4e e1 09 e7 3f e7 42 b0 a8 07 89 d2 3f
       0.7199560671785425 0.28961364243973126
0005a0 9f 16 92 d9 08 16 b0 3f aa d7 3b cb ab 1c 81 3f
       0.06283622085364947 0.008355466975881704
0005b0 f5 e7 3b bc 77 f7 b4 3f aa c2 80 f1 3b 33 db 3f
       0.08190105767781104 0.4250020845820851
0005c0 6f 72 ba 26 e5 9c de 3f 58 74 e1 cb 8c ed d1 3f
       0.47832611829816235 0.28012390051100544
0005d0 c1 42 a4 2a 8f 19 d6 3f c4 b1 1f 91 93 41 bd bf
       0.3453100124761868 -0.1142818669611137
0005e0 88 5d 10 72 c7 bd e0 3f 18 a3 77 a2 f2 18 e0 3f
       0.5231663921176031 0.5030453847112737
0005f0 4c 78 9e bc 44 ed e4 3f 9e 17 dd 49 11 17 f1 3f
       0.6539634403195662 1.0681317220018864
000600 5b b8 cd cc 24 a6 a3 bf ca 75 37 d1 3f 8c b8 bf
       -0.0383769512180698 -0.09589003427341605
000610 f3 6a bc ba 8d 87 b8 3f 44 ce 16 0e 03 dd b2 bf
       0.09581838425621551 -0.07368487447711752
000620 4e f3 51 b4 da bc ae bf d5 b3 ab 21 47 c8 a8 3f
       -0.06003459407018018 0.04840299879092639
000630 ba b6 45 05 1c d8 b1 3f 6b a4 d7 6d 03 84 51 bf
       0.06970381859511124 -0.0010690721022632809
000640 aa 23 fc f5 27 30 aa 3f c7 51 1f 9f 01 53 ac 3f
       0.05114865186448665 0.05532078807269474
000650 57 a3 1e 0c af 18 c9 3f 3f ea 39 a2 ba a7 c4 3f
       0.19606578914433712 0.1613686840172068
000660 e2 8f b1 05 7d 9d a5 3f 77 a1 f9 a0 1c 5a d1 bf
       0.04221716589452719 -0.27112498970247806
000670 95 b4 93 8b 24 bc d2 bf 45 67 c3 e8 c8 cb da bf
       -0.29273332243503464 -0.41868803721228104
000680 13 75 5c f6 75 ff d3 bf 1c 9e 58 23 bf a3 ca bf
       -0.312467089259216 -0.20812215066801876
000690 ee 75 52 fa ba 16 bf bf a7 06 29 0b 2a 34 d3 bf
       -0.12144058810596167 -0.30005885209912225
0006a0 07 6a 07 1c 49 44 a7 3f 41 65 48 02 62 2a bc bf
       0.04544285266065989 -0.11002171092731762
0006b0 d0 3a 17 f9 37 08 c4 bf a6 64 98 b3 8b 6a c0 bf
       -0.15650081312784048 -0.12825151700306953
0006c0 42 2b b5 ec 83 ad c3 bf 94 31 d6 4e 18 7e c3 bf
       -0.1537327676581644 -0.15228561257789563
0006d0 89 c6 4a b5 58 73 c4 bf d9 89 e9 21 c8 8c a2 3f
       -0.15977009632256436 0.03623032964675916
0006e0 7f 08 ea 44 d2 54 d1 bf 89 79 d7 2f d1 f7 c0 bf
       -0.2708020852079542 -0.1325627788164179
0006f0 a2 f8 49 5b 2d 27 ab bf 7c ed 71 c6 54 35 bf 3f
       -0.0530332731186587 0.12190751881455769
000700 4e d7 f5 39 51 8a c1 3f 06 35 3f 18 32 96 b3 3f
       0.13703360872357923 0.07651055423703576
000710 0b 33 5c a9 09 cb b1 bf e8 0c b1 b2 cd 43 a2 bf
       -0.06950436005372411 -0.03567354971212372
000720 fc b9 8a 17 be 93 b2 bf 84 c2 44 a8 76 bc c1 bf
       -0.07256687235597065 -0.13856394973983666
000730 bc c7 da ee f7 ec a4 bf 78 1d 88 95 2c 66 a8 3f
       -0.04087042608934108 0.0476545269521535
000740 44 a2 6f 35 ba 5f c1 3f d9 bb 7c a4 5b 04 a8 bf
       0.13573386773284046 -0.046908248738297416
000750 a4 65 a3 bf 72 67 d1 bf a4 31 29 47 d4 35 d2 bf
       -0.2719389792888143 -0.2845354742937849
000760 fd d4 b0 aa 23 7b d7 bf 33 46 29 2d 93 31 bd 3f
       -0.36689082783716725 0.11403770306176213
000770 93 4f b5 f2 18 5d a1 3f 04 6e d1 5a 35 d6 c3 bf
       0.03391340220210206 -0.15497462210156254
000780 ba cc 0a df b9 04 d0 bf 5a 16 64 b7 69 1d bb bf
       -0.25028845578635706 -0.10591755606955058
000790 b9 d0 ef 46 80 de ce bf 41 3c 07 89 81 8e da bf
       -0.24116519416532414 -0.41494787580171894
0007a0 d3 81 f1 6e 46 20 da bf 5b f3 e8 fe 59 6c c7 bf
       -0.4082199176246181 -0.18299412676597168
0007b0 0d ef 90 fd e9 e9 c2 bf 9f 51 26 19 66 53 d4 bf
       -0.14776348954352905 -0.3175902600862858
0007c0 d3 11 cf 95 b2 33 a0 bf 38 85 f2 b0 35 1a c6 bf
       -0.031644421374526076 -0.17267485752112477
0007d0 ec 6e 3b 92 84 58 b2 bf e3 5c c6 83 ec a0 aa bf
       -0.07166317529793859 -0.05200900181369563
0007e0 bc c1 2c b8 63 f4 c5 bf 9a 0e 24 2f 6c 77 a3 3f
       -0.1715206765452545 0.03802049708795359
0007f0 be 4c 8d ab a4 f4 d0 3f 01 1f ac 94 da 28 c8 3f
       0.2649318385421785 0.18874675998107907
