feat_pickles/2849_B_290.5415_290.9715.wav.npy (npy, 4432 bytes, 1 tensors)

array (column-major) f8 [16, 34]
0	0x3fbc3b070ec1c3b0	0.11027568922305764
1	0x3fb905c64171905c	0.09774436090225563
2	0x3fb905c64171905c	0.09774436090225563
3	0x3fb8618618618618	0.09523809523809523
4	0x3fb905c64171905c	0.09774436090225563
5	0x3fc00a44029100a4	0.12531328320802004
6	0x3fc9aa066a819aa0	0.20050125313283207
7	0x3fd05c64171905c6	0.2556390977443609
8	0x3fd00a44029100a4	0.2506265664160401
9	0x3fce79e79e79e79e	0.23809523809523808
10	0x3fcbe8e6fa39be8e	0.21804511278195488
11	0x3fcecc07b301ecc0	0.24060150375939848
12	0x3fd129b44a6d129b	0.2681704260651629
13	0x3fcc8d272349c8d2	0.22305764411027568
14	0x3fc5d08574215d08	0.17042606516290726
15	0x3fcaf286bca1af28	0.21052631578947367
16	0x3f9527474f5a6af4	0.020657648294767975
17	0x3f9789f7ffe97d7a	0.02298724650824855
18	0x3f919bb2745edf04	0.01719549975652425
19	0x3f86f11cff55c3ad	0.011202074567991572
20	0x3f87c9e45274770a	0.011615546957326046
21	0x3f9083a275eb19e5	0.016127146193662418
22	0x3f99b2f89caf816f	0.02509678322155778
23	0x3fa938deeed50c5a	0.04926201501304979
24	0x3fb7ba240fa3b9fd	0.09268403417420497
25	0x3fba3f9d34a05e97	0.10253317389321591
26	0x3faf1858bc28da24	0.06073262497777801
27	0x3f93644ca86f281a	0.01893729951897436
28	0x3f5ddcb1289db521	0.0018226366105083618
29	0x3efd8a31aff235ae	2.817136828219484e-05
30	0x3ee7bec4bb26cc8d	1.1322588623885358e-05
31	0x3ef3460f92d55363	1.838080895784649e-05
32	0x400a54a3199da413	3.291326713679618
33	0x400a5db2352e9c65	3.2957500605439685
34	0x4009e8077920eee2	3.2382955039191623
35	0x400a70d3b0df1157	3.305091268355834
36	0x400a42b2eb18fec2	3.2825678221705354
37	0x400a2f487f1afdea	3.2730874948608646
38	0x400a2e7708173ab6	3.2726879722680122
39	0x40099c995876ce58	3.2014643584496234
40	0x4009fcdc83a9c25d	3.248467472665921
41	0x400a2d188cb6a5df	3.2720194810142256
42	0x4008b6a1f62a63d9	3.089176104706422
43	0x4004876bd7fdeee8	2.566123664318969
44	0x3ffed1bb1b4012b8	1.9262038292373926
45	0x4007342390185757	2.9004584557941757
46	0x400996e928114042	3.1986868982567396
47	0x4008ac9e16ae1e9a	3.084285905064303
48	0x3fcae69949ef5d2e	0.2101623164187258
49	0x3fd013c5256cef15	0.25120667128406754
50	0x3fce117905313de8	0.23490822557003743
51	0x3fce7e83d0192b12	0.23823592816400968
52	0x3fd31a3efa61659b	0.2984769291993758
53	0x3fd25895aa3bcc42	0.28665677666066725
54	0x3fd2b3b6a4d101a6	0.2922188386474097
55	0x3fd4e672f6c061d0	0.32656549546075286
56	0x3fd4c3685a7cef9a	0.3244267352745226
57	0x3fd3a3a90b344688	0.3068640336433437
58	0x3fd483ba8afc8cbf	0.32054008076574897
59	0x3fd488d297868357	0.3208509902706757
60	0x3fd3720671baa426	0.3038345442424223
61	0x3fdab6f9003c52ac	0.41741776488314986
62	0x3fdb1add57d78bff	0.42351468637770034
63	0x3fdca56b699fff8d	0.4475964099401544
64	0x3fc83d20e174eaf7	0.18936549194935257
65	0x3fcdb0b375ca8845	0.23195498706360432
66	0x3fcdae3d03eee2c2	0.23187983219192715
67	0x3fce7e271d7395d7	0.23822487772046827
68	0x3fd0d3bc48fe3819	0.2629233086416903
69	0x3fd051898ce2f1fe	0.2549766422123695
70	0x3fcf13ea4017b178	0.24279525880355002
71	0x3fcd9dfcba77d55f	0.23138388733756707
72	0x3fcc9d4b058340ab	0.22355020302939485
73	0x3fca8232a206bc63	0.2070983210701086
74	0x3fc93e856729d2a5	0.19722049271844813
75	0x3fca5a8e387c32e6	0.20588853605331464
76	0x3fca758e7ca537d2	0.20671254240227072
77	0x3fd1b7b4da6c9135	0.2768375523612748
78	0x3fd2c19af09e8b39	0.2930667257116287
79	0x3fd19a4c8f00a819	0.2750426670560287
80	0x3ff3a8950a8db3cb	1.2286577617880876
81	0x3fee1f78045f049b	0.9413414082884118
82	0x3fecc2fa7dfb7f2b	0.8988010845750741
83	0x3fea89aaf331359f	0.8293051481102117
84	0x3ff1356a62ff1316	1.0755409113928116
85	0x3ff5eb0df8edf172	1.3698863719756358
86	0x3ffa6012c0f09695	1.6484553848944519
87	0x3ffd94cde7b1d184	1.8488291788645208
88	0x3ffc7ea496013064	1.780918680148738
89	0x3ffa51644e70278f	1.644871050261347
90	0x3ffc2172b36b8ec3	1.7581660278892037
91	0x4000f7d07bafc5b1	2.1210031188026837
92	0x4001dbf5eb68065a	2.232402648079
93	0x4006f46175d11fd9	2.869326515621634
94	0x40019228fecf6900	2.196367254929214
95	0x4005d9c5031453bb	2.7313328018740015
96	0x0000000000000000	0.0
97	0x3f76a872e8aaabd0	0.005531739103996139
98	0x3f723c8eb17e948d	0.004452283283091008
99	0x3f98fe123c1cd39a	0.024406704825384297
100	0x3f72cdde5c2da957	0.004590862840681296
101	0x3f94c8c9f7bac48c	0.02029719900628328
102	0x3f83e03f51d9f7b6	0.009705061612517923
103	0x3f870bb5157ed19b	0.011252798765647045
104	0x3f7fa6bfd6b84230	0.007727383966554188
105	0x3f785876696cdd56	0.005943739458238303
106	0x3f832bda3d3cb9b1	0.009360985750018399
107	0x3f74f6ae5ac8b96b	0.005118065903430095
108	0x3f75ab3a04840a40	0.005290247565656048
109	0x3f7a2944040c6242	0.006387010275624551
110	0x3f6b25eb1f813782	0.003313979363190834
111	0x3f66af1136e3b182	0.0027690254420262303
112	0x3fc3333333333333	0.15
113	0x3fc28f5c28f5c28f	0.145
114	0x3fc1eb851eb851ec	0.14
115	0x3fc1eb851eb851ec	0.14
116	0x3fc70a3d70a3d70a	0.18
117	0x3fc7ae147ae147ae	0.185
118	0x3fca3d70a3d70a3d	0.205
119	0x3fda8f5c28f5c28f	0.415
120	0x3fd0f5c28f5c28f6	0.265
121	0x3fd0a3d70a3d70a4	0.26
122	0x3fd3d70a3d70a3d7	0.31
123	0x3fdb851eb851eb85	0.43
124	0x3fdccccccccccccd	0.45
125	0x3fe5c28f5c28f5c3	0.68
126	0x3fe4f5c28f5c28f6	0.655
127	0x3fe599999999999a	0.675
128	0xc0382099c21677cc	-24.127346163258878
129	0xc0388e3b6be7e686	-24.555594200245217
130	0xc038aeee4ff33289	-24.68332385718762
131	0xc038f053f28f6ebf	-24.938780937211728
132	0xc0392ccb46417f21	-25.174976721754437
133	0xc0381ad08fb7738f	-24.10474489430231
134	0xc037187588576610	-23.095543404901093
135	0xc03666f143f01687	-22.402118917575105
136	0xc0359a5e42a696d7	-21.603000798865505
137	0xc0356902c0bfa513	-21.41019825629071
138	0xc03645aac9e40188	-22.272137277761004
139	0xc036f6876d3658a7	-22.9630039460832
140	0xc039a16be48b68f2	-25.630552562747603
141	0xc03f250bff0fdf4b	-31.14471429955965
142	0xc040765eb374e4f1	-32.92476504523973
143	0xc0402209be005754	-32.26592230812699
144	0x400419b8aae5126f	2.512559256664012
145	0x3ffc59863d13b012	1.7718565355126015
146	0x4002bee630f107b2	2.3432124923283135
147	0x4003bd2974a58ded	2.4673642266295617
148	0x3ffda1b0c89897a3	1.8519752345832579
149	0x40008afec4b39645	2.0678687445932007
150	0x3ffaf734e3936063	1.6853531732249614
151	0x3fe2e7c67e176eec	0.5907928908086126
152	0x3fe5a0f2a3fc4392	0.6758969500389063
153	0x3fe58c50159e592a	0.6733780309903399
154	0xbf8be79792b22f12	-0.01362532059126623
155	0x3fdf0fbbb25274c1	0.4853352776934337
156	0x3fef3a87958869e6	0.9758947296680247
157	0x3fd367dc6c991c21	0.3032141743210009
158	0x3fda3039a0113c74	0.40919342643332546
159	0xbf8af8ccd346ba54	-0.013169861028328324
160	0xbfd9d12337168892	-0.4033897436112365
161	0xbfc102c9858a7b73	-0.13289755840829862
162	0x3fcbbd3bdd6807cc	0.2167124587140833
163	0x3fd52ebb20a4695f	0.3309772318622403
164	0xbfa1344abfa813cb	-0.03360208119924087
165	0x3fb5fd4b076f1cf9	0.085896195712042
166	0xbfdb7dd8a93a85f2	-0.4295560505507573
167	0xbff08ed664d0114e	-1.0348724306105228
168	0xbfecfc00ae42800a	-0.9057620433341083
169	0xbff3ba98d98ab90f	-1.2330559251527722
170	0xbffa746307e4ee32	-1.6534147556657328
171	0xbff6e09074965d85	-1.4298252634233404
172	0xbff3c0a1a223f0fa	-1.2345291455849847
173	0x3f9fdc5768aff2e5	0.031113973393064227
174	0x3fde879c102d11c6	0.47702695445721266
175	0x3fd10fd1391e46ca	0.2665904100223143
176	0xbfbf5399194fe9f9	-0.12236935489628555
177	0xbfde67dcbfcdf6c6	-0.4750892518130566
178	0xbfe42b3882774f46	-0.6302759693303208
179	0xbfe37801edd090a8	-0.6083993573015691
180	0xbff66981c988cda8	-1.400758540385917
181	0xbff28f1dd29f8ecc	-1.15994055056301
182	0xbff828d7fb0c2c99	-1.5099716002030503
183	0xbff52b287038ebfd	-1.3230366119084913
184	0xbfddf9c481f59d01	-0.468369604981902
185	0xbfcad3dbd9207a57	-0.2095904169263629
186	0x3fceb5c4a7a30f73	0.23992212472341698
187	0x3fd5263d8c4eb326	0.33045901014229384
188	0xbfa78416a1843f52	-0.04592962953222347
189	0x3faadf2692eb4923	0.052483754572352014
190	0x3fbd474e131006ba	0.11436927762408802
191	0xbf813509a26a8464	-0.008401942509694567
192	0xbfe18c7b354dc562	-0.5483985940065106
193	0xbfd249b18d9a2c7a	-0.2857478983721148
194	0x3fc7a51da916ecc1	0.18472643619847953
195	0x3fcf81f52a67e7db	0.24615349360084235
196	0xbfcaa6dfa440c5b4	-0.20821757812659103
197	0x3fc46cf03897f984	0.1595745350204646
198	0xbfc6eaad86585ee2	-0.17903679904770003
199	0xbfdcd9f9b8440d35	-0.45080416674337026
200	0x3fd9ca50b59adb0b	0.40297334418157565
201	0x3fd884082e946c14	0.383058591354428
202	0x3fdc1e66972a18c9	0.43935551416542445
203	0x3fcaecb20279cd8b	0.2103483688439208
204	0x3fadb1c9a0d7e000	0.05799703682345125
205	0x3fd1c8ec1cf98332	0.2778883250194212
206	0xbfb5b62ba1d607c9	-0.0848109502894935
207	0xbfc679666316132d	-0.17557983244128064
208	0x3fb8bce72aead08e	0.09663243100914284
209	0x3fcc4026135f4ce0	0.2207076639739176
210	0xbfa766cc7734d454	-0.04570616679340192
211	0xbfd8504a5d15cf38	-0.37990054216719527
212	0xbfe90e4654f9b7f0	-0.782992521255208
213	0xbfe068492bbfa45a	-0.5127302031006693
214	0xbfd1a9cbb2a493e0	-0.27598850675195585
215	0xbfaadf386dd780ca	-0.052484286697791996
216	0x3fe4e848f9a448c1	0.6533551097693576
217	0x3fc9548d75b4049f	0.1978928398821482
218	0x3fe35c7e0aa3afad	0.6050405700493592
219	0x3fe4456c4b89a989	0.6334744906755968
220	0x3fdfec3afc870d56	0.49879336033719335
221	0x3fdfef1a49cd00f6	0.4989686699591539
222	0x3fc52fc0fe653704	0.16551983281754457
223	0x3fd669190cb6cc7c	0.3501646637116165
224	0xbfde2af2b3c2118a	-0.47137134127140057
225	0x3f773bbcc2460b90	0.005672204341297241
226	0xbfde4bc138ba061a	-0.47337370433533155
227	0xbfe69d6e5383ef17	-0.7067176467093955
228	0xbfe3860d5fc7fc1e	-0.610113799164427
229	0xbfdef614a5fce5d6	-0.48376957139734367
230	0xbfdfd912d1b2a182	-0.4976241157369473
231	0xbfe9b2277908cf63	-0.8029973377183349
232	0xbfd27bf0f4749690	-0.28881477234458774
233	0xbfe9552d79f1bb7e	-0.7916476613735168
234	0xbfdefc651faa8339	-0.48415496914281025
235	0xbfd7165cc14455c7	-0.3607398879406358
236	0xbfdf648d9985abe3	-0.4905122756233011
237	0xbfc0ef1e25a2d60a	-0.13229729497622628
238	0x3fbd2514caf01124	0.11384706453833765
239	0xbf9dc2ac6655a0dc	-0.02906293272590764
240	0xbfc910a17ab1a61b	-0.1958200310794361
241	0x3fd7c817397c376c	0.37158756841460305
242	0xbfc40cf2aaa88111	-0.15664513905449742
243	0x3fb44594710706b6	0.0791867042489923
244	0xbfbfc9d0f88987a0	-0.12417322223475802
245	0x3fc36092da918401	0.15138469383512645
246	0x3facb6ddc64e2650	0.05608265920370725
247	0xbfbf8afdd01186f4	-0.12321459131046791
248	0x3fc4f68cbb4f2f13	0.16377410074198248
249	0xbfaf1d1c3ef9df5c	-0.060768969237811915
250	0x3fd43199ab02b72f	0.31552735996489195
251	0x3fc80876d3b9c95c	0.1877583059136424
252	0xbfc138627d4222bc	-0.134533225213337
253	0xbf94e3fc44935b58	-0.020400945363543727
254	0x3fb26b0c070083fd	0.07194590731570823
255	0x3fd8e79ae3bc01f5	0.3891360496491239
