feat_pickles/2875_B_295.13275_295.25275.wav.npy (npy, 896 bytes, 1 tensors)

array (column-major) f8 [3, 34]
0.06766917293233082 0.08521303258145363 0.14786967418546365 0.019671620822589872 0.032519194858613515 0.0844752397928459 3.222920487849893 3.051798163444067
3.155619995252396 0.24142071563718226 0.22516844669355982 0.26139742295505397 0.21120933798087857 0.18435174685706165 0.18175994706738188 1.4255014609412544
1.7924391316725927 1.9959253602194693 0.0 0.0083775201928329 0.008176584757301108 0.215 0.24 0.405
-23.793059176700943 -23.205957390731715 -22.563672600089575 2.2235761875479647 2.3114164641707107 1.5519070448864913 -0.8756828963808415 -0.8992055488517823
-1.3669527487898576 -0.015028555209272243 0.7454073172060557 0.4439802149913046 0.0544253366734818 0.06740037555471547 0.0626562129147913 0.6484862490432816
0.8178854626534293 0.6210112515514143 -0.7024480804291199 -0.5044518506438246 -0.6314076930126359 -0.14179497576806604 -0.17569048652333363 -0.4145652300663672
0.047159883141338406 0.45009102836190346 0.22924372914851884 -0.7239646319678501 -0.862074027112485 -1.0674237008827392 -0.5495316363611141 -0.6704555216869283
-1.0731046641946542 -0.9453466104660925 -0.8378198471671482 -0.5667449981255943 -0.20524456456927465 -0.5321702231074755 -0.16155224374867203 0.015151783025983774
0.012474045082414549 0.004208810737869628 0.011531335621810945 0.027915892356008914 0.04456360213622717 0.1699813648702411 0.06645843968185391 0.01912099835687331
0.03739658276002435 0.07239472599346752 0.04059685079770199 0.0012880370248138254 0.005848413277093135 0.003188234847105921 0.0016176848529053745 0.002428426123072756
0.0022516448227549307 0.0046307169404063405 0.005958454712059563 0.0006865928627832476 0.004533779807800112 0.000245821843808692 0.000248985681599772 0.005822638806109245
0.012334598727491076 0.003878788670366764 0.003630084429156515 0.0069788044379821765 0.0023162729066230564 0.003497102302448763 0.005486910337975821 0.001307688098634323
0.0027110874939294334 0.0012509632596400643 0.0008321496042731623 0.045694993457495975 0.023936888587201024 0.01525084788390295
00000000: 2c15 b154 c452 b13f 085d 2174 85d0 b53f
00000010: d62e 59bb 64ed c23f 5c8d 5e20 cc24 943f
00000020: 0ceb d11c 5ba6 a03f 6166 3b58 2ba0 b53f
00000030: a663 6789 8ac8 0940 8ce1 cf27 156a 0840
00000040: a4b3 31b2 b53e 0940 e48a 1ebf dfe6 ce3f
00000050: 2bea 51d5 51d2 cc3f d470 b641 bcba d03f
00000060: 6f6c 9e57 e808 cb3f 1714 db89 d698 c73f
00000070: b144 30f2 e843 c73f 5b49 b29e dace f63f
00000080: b8ab a9a7 d4ad fc3f ed64 366e 4fef ff3f
00000090: 0000 0000 0000 0000 8795 ffb9 3b28 813f
000000a0: 4630 01a1 e2be 803f 85eb 51b8 1e85 cb3f
000000b0: b81e 85eb 51b8 ce3f ec51 b81e 85eb d93f
000000c0: 26b9 1bed 05cb 37c0 ed8f a19f b934 37c0
000000d0: 3809 f7d8 4c90 36c0 8576 ed4f e2c9 0140
000000e0: ad64 48ea c77d 0240 0283 437b 9cd4 f83f
000000f0: a5e9 3323 9805 ecbf 8267 16b7 4ac6 ecbf
00000100: 06ad 73d8 09df f5bf b325 0a89 4ac7 8ebf
00000110: e32b 3372 60da e73f 605b ddfd 2b6a dc3f
00000120: ce3b 2c42 a3dd ab3f 01e1 bea8 2641 b13f
00000130: c938 5cd1 3c0a b03f cb7d f13b 66c0 e43f
00000140: c40c 3f22 1e2c ea3f 3690 fbfc 52df e33f
00000150: f197 9265 747a e6bf 3b80 1d35 7824 e0bf
00000160: 97d3 fde7 7d34 e4bf 369a d477 5626 c2bf
00000170: 9403 eb9e 067d c6bf 9d66 4c9a 3c88 dabf
00000180: f9ea 8c17 5725 a83f 7f64 c299 4ace dc3f
00000190: a3c3 c0c7 db57 cd3f 2867 38e0 b72a e7bf
000001a0: 85bb 2545 1c96 ebbf 3444 e4df 2a14 f1bf
000001b0: 293a c95e c395 e1bf dc2c 6223 5f74 e5bf
000001c0: ea6a decb 6f2b f1bf 1fc3 ea88 4740 eebf
000001d0: 4db9 7091 6bcf eabf 4edf 0368 c622 e2bf
000001e0: a8de 4032 7445 cabf 29da 04d9 8907 e1bf
000001f0: d77b bf71 bead c4bf 91dd 94e4 e507 8f3f
00000200: 7722 6cfd fd8b 893f 9956 9607 423d 713f
00000210: f3bf ffaa bd9d 873f 28b3 d4d2 fb95 9c3f
00000220: f7ba 885b 0ad1 a63f 5108 8609 f3c1 c53f
00000230: 5e0c fa98 6b03 b13f a045 707a 7494 933f
00000240: f277 df17 a525 a33f 9879 8bf4 7588 b23f
00000250: 4a52 fe44 1cc9 a43f c97b 7239 6b1a 553f
00000260: 4e41 237c 81f4 773f b627 cf8c 361e 6a3f
00000270: 292e 76e2 0f81 5a3f 7c6e f058 c7e4 633f
00000280: a0b3 079c 0a72 623f 3da8 0e9d a8f7 723f
00000290: 6dc7 f781 e467 783f 02cf 16f2 8e7f 463f
000002a0: 773c 0740 0392 723f a805 a1c7 341c 303f
000002b0: 2795 115c 4951 303f 9682 fab3 7ad9 773f
000002c0: b49e 26d1 e142 893f 5221 98cf 68c6 6f3f
000002d0: 7151 f5bc d6bc 6d3f 1894 388d ce95 7c3f
000002e0: f2e7 3d8c 93f9 623f 8111 a280 f4a5 6c3f
000002f0: 3bb3 5247 7179 763f 7af9 7c67 d76c 553f
00000300: d1ca ef03 9035 663f b344 7992 eb7e 543f
00000310: f548 f9aa 9344 4b3f 8454 fb8c 5565 a73f
00000320: e79f 9966 e982 983f b95a 2e27 d63b 8f3f
