feat_pickles/2887_B_342.496125_342.842125.wav.npy (npy, 3344 bytes, 1 tensors)

array (column-major) f8 [12, 34]
0.07769423558897243 0.09022556390977443 0.12030075187969924 0.15538847117794485 0.17042606516290726 0.15789473684210525 0.15037593984962405 0.16541353383458646
0.15037593984962405 0.12280701754385964 0.14786967418546365 0.22055137844611528 0.030005778116481495 0.07050134030087775 0.09925661390365778 0.10304441645718071
0.08670054970853518 0.07182100374880111 0.05721758125159366 0.04475334255104313 0.03056067712969387 0.01778751804585711 0.008456851919048679 0.0023632947416730296
2.5710046595137954 3.280093557227795 3.2956688129008174 3.3062299063262732 3.3166197873224244 3.3065753792948653 3.309816580005958 3.299949408113878
3.262395855003884 3.227653730868795 3.073838985259696 2.4934706449382404 0.22214825438929742 0.25253822748807075 0.2263371021416148 0.23375512375212856
0.24235673487581433 0.2553636936349726 0.3087378407290288 0.3091014086580512 0.31619251965299083 0.3079125621305133 0.28445614782307205 0.28356591510085577
0.18100358485238274 0.18981180180629442 0.18014536244467586 0.19386597669738453 0.1895926653667826 0.19760559850356768 0.21576383767967358 0.21757015847195382
0.2256465980157346 0.25049270057130163 0.2664257526986608 0.2698226173186824 1.6461992026860786 1.7053692302551042 1.7933975658372259 1.869644558285756
1.9329980976477392 2.0112053193594637 2.105988316202269 2.115219366391686 1.9717355082600374 1.6613861914342172 1.5321881489759053 1.5156523663655592
0.0 0.014176231526485833 0.019039084559663938 0.00991596396143663 0.009339644353787667 0.005415499342928406 0.009793595027183475 0.0019216581860331395
0.0021195110603245714 0.002803678283841102 0.007760909493179874 0.004093104824346735 0.26 0.22 0.215 0.21
0.255 0.255 0.35 0.4 0.25 0.2 0.16 0.155
-23.18518879416348 -23.32624820701737 -21.797634961938645 -21.793238353308315 -21.746006754383345 -21.99183841768006 -23.443546866776575 -24.013321973130424
-24.445114617068207 -24.78918098771126 -25.159242245333445 -26.88818894150846 2.4418469137549805 1.3934995950327609 2.401414818171118 2.0858453538170645
2.0469776876525105 1.7393118707825894 0.19480059131164743 -0.09631697307410494 0.05023696582144013 0.9705299927367569 2.2295327432847434 2.3439018020254165
-1.0475966934741083 -1.3442281565485978 -1.251618785228652 -1.0373063985817605 -1.048493169252151 -1.2429645416844992 -1.1427319423693973 -1.1520143361809652
-0.9496869665106049 -0.09798134060561635 0.6853481946074902 0.9005215884897813 0.40853030424593656 0.5177223056409315 0.08119384184282026 0.503678829989484
0.3168544773082437 -0.16263096319011328 0.13119913664167926 -0.0009989980147919724 -0.3828232684961169 -0.6690768190839763 -1.3322875944883348 -1.2877205166669166
-0.7467524651502051 -0.2827402374207427 -0.6274302100532062 0.28365790755827963 -0.2902736967164335 -0.04886827742484148 -0.2349653204161694 -0.1936146512591311
-0.13882043652148573 0.021813990254676154 0.011707163337920897 0.06938021948390123 0.008353090481406783 0.1228486947638747 -0.13387820003231324 0.5457884791407385
-0.31097039554282147 -0.03612353749272321 -0.05129981624937755 0.08657097355803152 0.19733135163118304 0.05795688677473504 -0.01813203809845926 -0.35939832410077976
0.09186081092737722 -0.23126805469264833 0.08766371542419603 -0.04149170571951942 -0.4750504501159396 -0.3657900049978429 -0.5173636877693192 -0.8348385713619472
-1.0589072592142947 -0.8325684334820234 -0.585118300068447 -0.7289718329966436 -0.4802093173299362 -0.7330530458746298 -0.6005018022434299 -0.5419588825148501
-0.1888743527181488 -0.19432397415825667 -0.5460095600366698 -0.47814297723833266 -0.366389428275627 -0.30318376989594087 -0.08212733084279132 -0.04485043649830108
0.03689469655573651 0.2353312054181742 -0.022150036081883314 0.31185822424262355 0.37076106296615613 0.4667826733434139 0.23463222055923244 0.07777017227944698
-0.02063102918039956 -0.10077282352697971 -0.18519094776786982 -0.08528289472650633 -0.4931221676266034 -0.3315691686988665 -0.46024566465631284 -0.3255762190754135
-0.4600400106333503 -0.45699949291579484 -0.28219160640104973 -0.0411964181656269 -0.2901944988911786 -0.1987852737607856 -0.015909315724143915 0.03874724693711711
-0.35597324525395 -0.4771077808127196 -0.2207761650463486 -0.23360856325822352 -0.3311304061342671 -0.2777613553965581 -0.2515791070646319 -0.08218457578084154
0.015242499381033657 0.03067409112078628 -0.058409056090028534 -0.23619699263591284 -0.7689862020969997 -1.1062445059616797 -0.6525901019997805 -0.6309107522442889
-0.24722756987386765 -0.0694754344114959 -0.34328118513647055 -0.3760717196922798 -0.3993358036419875 -0.3572798899635969 -0.6127266224836558 -0.5092539948294755
-0.519181012625672 -0.8478238916529814 -0.5410909373395395 -0.633927249253008 -0.536402919218343 -0.6567964430918496 -1.1139922044333217 -1.1271396584259246
-0.9888453501649439 -0.6392230407572876 -0.3927741921700287 -0.2685746207495901 0.02719603548946952 0.021360573194226136 0.036812360710736326 0.08943055842951451
00000000: 3c3e f1f8 c4e3 b33f 9071 41c6 0519 b73f
00000010: c0ec 01b3 07cc be3f 3c3e f1f8 c4e3 c33f
00000020: 085d 2174 85d0 c53f 5e43 790d e535 c43f
00000030: f833 e1cf 843f c33f c452 114b 452c c53f
00000040: f833 e1cf 843f c33f 04f7 11dc 4770 bf3f
00000050: d62e 59bb 64ed c23f b0c3 c10e 073b cc3f
00000060: f626 ceae d5b9 9e3f 999b ea36 600c b23f
00000070: a6be a0a6 e168 b93f 1410 b86e 1e61 ba3f
00000080: 031b 8bd9 0132 b63f bb59 447e dc62 b23f
00000090: c9b0 7670 9f4b ad3f c06d 49fd e8e9 a63f
000000a0: d739 4353 4c4b 9f3f 03c8 2221 e436 923f
000000b0: 8cfd 5a73 d351 813f 9e9a 0a34 305c 633f
000000c0: 8dcd 13e4 6a91 0440 d3e8 e0b0 a13d 0a40
000000d0: 67d9 4e9c 875d 0a40 f1d3 45aa 2873 0a40
000000e0: c287 7ef4 6f88 0a40 56a4 deca dd73 0a40
000000f0: c112 771d 817a 0a40 e76d 12e0 4b66 0a40
00000100: f7c7 7eff 6219 0a40 a026 871e 3cd2 0940
00000110: bbe1 d6e4 3897 0840 bd5d ccbc a0f2 0340
00000120: 3096 bb9f 5a6f cc3f c444 0319 9629 d03f
00000130: 32ea c839 9df8 cc3f 73d7 e419 b0eb cd3f
00000140: 3ce4 20a5 8b05 cf3f c0de 2ff6 e057 d03f
00000150: 6701 3e5c 5cc2 d33f fb5d 5546 51c8 d33f
00000160: 4f90 c98c 7f3c d43f 2a33 18e4 d6b4 d33f
00000170: 88f5 028f 8734 d23f 4f95 e7a6 f125 d23f
00000180: d72a b31e 202b c73f 3091 93cc c04b c83f
00000190: e9eb 1cd4 000f c73f 7276 dcae 99d0 c83f
000001a0: 2ae9 a78c 9244 c83f 7a27 8ae7 234b c93f
000001b0: f12f 3f41 269e cb3f 787d 9cc5 56d9 cb3f
000001c0: d432 77db fce1 cc3f 1dca 3589 1208 d03f
000001d0: a3c9 a999 1e0d d13f 18b6 4615 c644 d13f
000001e0: c7ce a3f9 d456 fa3f 4dce f83e 3149 fb3f
000001f0: 45f3 5fa5 c1b1 fc3f feb4 8f69 10ea fd3f
00000200: 3c09 ca69 8fed fe3f 6485 81d0 f216 0040
00000210: 5ac6 fe66 10d9 0040 2325 9421 f8eb 0040
00000220: b86b 4588 3a8c ff3f 7cc6 e3af 0995 fa3f
00000230: 81b9 72b8 d783 f83f 4752 1ab2 1c40 f83f
00000240: 0000 0000 0000 0000 bd53 4b96 6d08 8d3f
00000250: 783e 1e56 fb7e 933f a3a8 6127 d24e 843f
00000260: 8c41 72d8 a920 833f 8935 1c09 902e 763f
00000270: 85f0 d012 aa0e 843f 3ee1 09c4 047c 5f3f
00000280: c5da 00d6 ef5c 613f 140b 3451 bdf7 663f
00000290: 07e5 5d47 e7c9 7f3f 5634 c175 eec3 703f
000002a0: a470 3d0a d7a3 d03f 295c 8fc2 f528 cc3f
000002b0: 85eb 51b8 1e85 cb3f e17a 14ae 47e1 ca3f
000002c0: 52b8 1e85 eb51 d03f 52b8 1e85 eb51 d03f
000002d0: 6666 6666 6666 d63f 9a99 9999 9999 d93f
000002e0: 0000 0000 0000 d03f 9a99 9999 9999 c93f
000002f0: 7b14 ae47 e17a c43f d7a3 703d 0ad7 c33f
00000300: 9084 6688 682f 37c0 ab84 a300 8553 37c0
00000310: 35ac 0bce 31cc 35c0 6164 31ab 11cb 35c0
00000320: ecab 744c fabe 35c0 2dda 5e1f e9fd 35c0
00000330: 750c 9749 8c71 37c0 d2e9 9e11 6903 38c0
00000340: 8e47 1308 f371 38c0 47d8 e4c3 07ca 38c0
00000350: 48d9 8b19 c428 39c0 9c72 b859 60e3 3ac0
00000360: 5354 e308 e788 0340 af7a 3a3b c64b f63f
00000370: dd65 e1f8 1836 0340 4243 59b0 cfaf 0040
00000380: b7df 80d6 3560 0040 8ee4 28af 38d4 fb3f
00000390: fd65 76cc 39ef c83f 922a 67a9 3aa8 b8bf
000003a0: c4b7 81da a8b8 a93f 79ed 52ea 940e ef3f
000003b0: 3127 4e43 15d6 0140 86e0 8596 4fc0 0240
000003c0: 8ee7 1dc0 f4c2 f0bf 4ad1 2b62 f581 f5bf
000003d0: 66dc 596b a106 f4bf 7871 1d98 ce98 f0bf
000003e0: 3247 00c6 a0c6 f0bf faf5 89c9 2ee3 f3bf
000003f0: 4d23 094a a148 f2bf f0b9 a695 a66e f2bf
00000400: 4237 d3eb d563 eebf b7f4 841d 4e15 b9bf
00000410: 2ec7 4656 5fee e53f 84fa 7ca6 12d1 ec3f
00000420: 8d51 0a4a 5c25 da3f 8a66 645e 2e91 e03f
00000430: 85fc 599f 1ec9 b43f 8fc1 cf10 231e e03f
00000440: 3e53 6800 5847 d43f 58f8 1b66 17d1 c4bf
00000450: 6cd9 9120 22cb c03f f8e3 58f3 195e 50bf
00000460: 6eac 952a 2d80 d8bf c146 0fca 1369 e5bf
00000470: 3f1a f3cb 0c51 f5bf e48f 17d4 809a f4bf
00000480: 5ee1 006d 65e5 e7bf 3a10 3f82 6a18 d2bf
00000490: 076e 1685 e813 e4bf 0bbc 0d7f 7327 d23f
000004a0: 894f 9220 d893 d2bf 44fe b34a 4305 a9bf
000004b0: 8ed8 70f7 5713 cebf db9a 9769 5dc8 c8bf
000004c0: 2628 7039 dec4 c1bf cad5 f41a 6856 963f
000004d0: 0b89 52dd ecf9 873f 4d33 aced e6c2 b13f
000004e0: d05f 81d3 6c1b 813f 1efc 5d16 0373 bf3f
000004f0: f59f 64bd eb22 c1bf 772d 8e66 1977 e13f
00000500: ca5b b85f f0e6 d3bf 8c4d 4bc8 c87e a2bf
00000510: f5ec 2932 f843 aabf bdf1 36ec 8329 b63f
00000520: c29e dd5a 2742 c93f 5809 8d6a 86ac ad3f
00000530: 3122 927a 3491 92bf f200 10d4 6100 d7bf
00000540: 7a95 b7aa 3084 b73f f4d9 c10d 319a cdbf
00000550: 27f3 ca16 2171 b63f 3ebe 3d9e 663e a5bf
00000560: b0ac cc00 3a67 debf a5d7 2a7b 1a69 d7bf
00000570: 076e e34a 3e8e e0bf ad0b 2e61 ffb6 eabf
00000580: 8328 fdbc 48f1 f0bf 7c97 2f8e 66a4 eabf
00000590: 18b9 6203 4ab9 e2bf cf9f cdbc bc53 e7bf
000005a0: f4a8 4adc bfbb debf 9c78 48a9 2b75 e7bf
000005b0: 0c63 3a8e 4f37 e3bf 13b2 8527 ba57 e1bf
000005c0: 9522 fde7 082d c8bf b552 eba4 9bdf c8bf
000005d0: a525 750a e978 e1bf da3e 8300 e599 debf
000005e0: 2bd0 02a5 ec72 d7bf 3663 18e6 5c67 d3bf
000005f0: 07db 13f8 4b06 b5bf 1b6c f1eb a2f6 a6bf
00000600: 4f99 3496 dce3 a23f 98e9 7f3b 551f ce3f
00000610: 2fc1 4ec2 7fae 96bf c015 8732 7cf5 d33f
00000620: 3778 049c 8cba d73f cb5c 166f c4df dd3f
00000630: bae3 f1b8 6d08 ce3f 0b65 8bfa bee8 b33f
00000640: 5257 73ee 4c20 95bf a9bb 5f6d 3fcc b9bf
00000650: bcd0 1644 56b4 c7bf b230 c28b 19d5 b5bf
00000660: 99e3 b847 508f dfbf 411b fbe3 6d38 d5bf
00000670: 03c7 743b aa74 ddbf dd30 52a3 3dd6 d4bf
00000680: 0e64 21a8 4b71 ddbf bd29 17cd 7a3f ddbf
00000690: 85af 2c62 6d0f d2bf 8ea8 7769 b217 a5bf
000006a0: bfde 8df2 8b92 d2bf 414f ddbc cb71 c9bf
000006b0: 879f f21a 884a 90bf 2756 cfdc add6 a33f
000006c0: 0e78 a701 44c8 d6bf 417f d012 ef88 debf
000006d0: 7520 4eb4 6442 ccbf 233b a1a9 e2e6 cdbf
000006e0: 39b4 4396 3d31 d5bf 9c55 6190 d7c6 d1bf
000006f0: 39c4 4c41 df19 d0bf 84df 3661 0c0a b5bf
00000700: 1985 cea2 7537 8f3f 6f0f cb68 0769 9f3f
00000710: 5dd0 64b3 cae7 adbf 4774 64fb b33b cebf
00000720: 9a9e a2f3 889b e8bf efc2 6770 2db3 f1bf
00000730: 1b09 39a3 04e2 e4bf f6af f2be 6b30 e4bf
00000740: 7d8f a32b 27a5 cfbf 843a ac5e 24c9 b1bf
00000750: 9c91 dfa5 51f8 d5bf 34d8 411e 8f11 d8bf
00000760: e2e8 30c2 b78e d9bf 4b60 ba78 acdd d6bf
00000770: 3e96 9edc 749b e3bf 65cc a408 cf4b e0bf
00000780: 3ace bd7f 219d e0bf 1658 ed91 5f21 ebbf
00000790: 3d21 01f1 9d50 e1bf 95b7 72cc 2149 e4bf
000007a0: e0b1 7074 362a e1bf 02ad 66f9 7904 e5bf
000007b0: 19a4 607d e9d2 f1bf 5e6c 2f98 c308 f2bf
000007c0: c252 f800 9fa4 efbf 08df dce0 8374 e4bf
000007d0: 6351 855d 3623 d9bf 09ed 299b 5330 d1bf
000007e0: 6e52 080c 47d9 9b3f 420c 2ccd 8bdf 953f
000007f0: 8dad aeda 11d9 a23f 8fc0 b7cb ebe4 b63f
