feat_pickles/2957_B_323.106_323.576.wav.npy (npy, 4704 bytes, 1 tensors)

array (column-major) f8 [17, 34]
0.11779448621553884 0.05263157894736842 0.05012531328320802 0.047619047619047616 0.047619047619047616 0.05012531328320802 0.06265664160401002 0.06766917293233082
0.05764411027568922 0.047619047619047616 0.047619047619047616 0.047619047619047616 0.045112781954887216 0.045112781954887216 0.047619047619047616 0.045112781954887216
0.045112781954887216 0.04797535761450631 0.12721193443720136 0.20495574568070019 0.24001381806840705 0.19959259887218955 0.1420151152504401 0.08903239382254415
0.05464919606367889 0.07350789464523917 0.09643314206840703 0.0920158759312912 0.08352910744902169 0.07210229430481363 0.059035784659423565 0.0452149140211257
0.03134629388873799 0.02261344323152759 2.4213857356281907 3.183818193103284 3.2702074324910755 3.316600549379052 3.2905491004104186 3.282095354217933
3.2178570094536263 3.305408207223069 3.2228563251124434 3.3022576222941615 3.3171665140985853 3.31580656592216 3.3118625746128547 3.3121019178145574
3.2932815526071626 3.2755543401657357 3.232995656246866 0.21065996169328519 0.20383905948131964 0.2139340958727628 0.18460693978694254 0.18779023300963035
0.14651950313411433 0.19230893898898244 0.18974515477920706 0.17110339057028495 0.19295579997579607 0.16842766164928344 0.21407788447949874 0.15735561489244265
0.1881311538551546 0.19592298909246642 0.18154417591780908 0.14209409822674768 0.231234716346641 0.2219809822442423 0.225992444213544 0.21320604339588967
0.23087048234717475 0.19973171029978792 0.23449967981293582 0.22102003539890677 0.21636078427278685 0.2339424022775692 0.21065377591206777 0.23761627177927128
0.19635961921937914 0.22797491458494668 0.2301317936041376 0.2235312367513928 0.19930968330283763 0.4946134739883155 0.6237957897711826 0.641404581327577
0.4212542855292182 0.26396513783264414 0.17379386499020305 0.3316447202979803 0.3416482473327092 0.2700092526095399 0.26543299789851055 0.257619804513995
0.4984953559975974 0.3443065272658447 0.3862334963273566 0.3023307163135771 0.19526539063649728 0.09135323145987527 0.0 0.010589487260063259
0.01598984641254435 0.007118227509286528 0.005175076341509381 0.0036357973551504664 0.0028307853332577263 0.011071745188017481 0.013220477037124288 0.0038010360790663457
0.004396541546438343 0.0031069217145592376 0.006414636170471493 0.0022968774206353687 0.0031417062589928816 0.0037891429611178647 0.008134673582729492 0.07
0.1 0.1 0.095 0.075 0.055 0.055 0.05 0.055
0.055 0.06 0.095 0.06 0.055 0.05 0.045 0.05
-23.28776025907167 -21.589721113108318 -21.905502162045458 -21.714571108062714 -22.06029312011737 -23.556838553309387 -22.890585380635628 -23.844975040559802
-23.573987263262985 -23.133051249639365 -23.32573022002516 -22.60921712188745 -24.093965703409125 -23.983735977218196 -24.494768290468535 -25.79134287181329
-26.649155869441763 2.638464791493105 2.767782573215616 2.500291585823883 2.775646095096069 2.957229002392394 3.2491951499499736 2.858418565670421
2.7701098895935723 2.909305864783803 2.947336798447751 2.901922170546238 2.6178656754755476 3.011488575972207 2.9369330839812022 2.774711131971462
2.6303544979729794 3.2331648008522706 0.2145692857858322 0.3921042354115473 0.5364059589722123 0.6385636023383314 0.8526301189462449 1.2737002241980124
0.4842836617042501 0.3843164506730282 0.6612134496305581 0.7898407679083022 0.6490646612489049 0.6321492480674917 0.7487216106404757 0.5778598025330275
0.3846273832632129 0.4577540525011987 0.9864300912323961 0.607503838930047 0.2787770704091925 -0.26605921438839986 0.5230443259203303 0.3359293075786337
0.40069085993513126 0.4274116947813956 0.5746257319629284 0.5920581050466338 0.20563022356414346 0.6222972793899844 0.4017503013022273 0.7178031484857562
0.23529700634215991 0.40767234827953475 0.4984048698661807 0.8102426640779885 -0.1431624129705169 -0.41624533943351194 -0.2996333612149922 0.15871730129189207
0.038949042731993885 0.16026476337877316 0.4157003003331221 0.2212041867677885 0.1886183804249299 -0.14157856061681717 0.1742692038064294 -0.14473721038206522
0.38210547784376614 -0.01900123345071044 0.2868117193755663 0.38440747219053234 0.07947770130388271 -0.22028109345017133 -0.18338548771976995 0.23494131353792252
0.0657811737697643 0.19962394734657166 0.78729947099121 0.36049313738938904 0.4668175163931223 0.6616359983427659 0.172363544327261 0.5993472530937599
0.13684606220443424 0.5576696519635295 0.29940781723810256 0.30453407564095536 0.5855619644337003 0.7046030849156331 -0.2169898046574881 -0.34765503940690706
-0.6738904195359384 -0.6795629749305718 -0.42450857676072173 -0.3912350227598418 -0.20049161687266998 -0.27624957372663417 -0.13148744889806843 -0.25794244036124037
-0.17541974661557608 -0.20238127110128634 -0.5318619744723575 -0.013222751239585233 -0.32917621003340997 -0.2764855106161621 -0.1464989799749037 -0.22414946100971933
00000000: 7ce2 f189 c727 be3f 28af a1bc 86f2 aa3f
00000010: a09a 816a 06aa a93f 1886 6118 8661 a83f
00000020: 1886 6118 8661 a83f a09a 816a 06aa a93f
00000030: a400 9102 440a b03f 2c15 b154 c452 b13f
00000040: 38d8 e160 8783 ad3f 1886 6118 8661 a83f
00000050: 1886 6118 8661 a83f 1886 6118 8661 a83f
00000060: 9071 41c6 0519 a73f 9071 41c6 0519 a73f
00000070: 1886 6118 8661 a83f 9071 41c6 0519 a73f
00000080: 9071 41c6 0519 a73f 1db9 efdf 3990 a83f
00000090: 60ca 080d 7b48 c03f 1cb7 6968 fd3b ca3f
000000a0: 4090 98d5 c5b8 ce3f 6e00 5712 408c c93f
000000b0: 61e7 c421 8d2d c23f 919e c0b3 d3ca b63f
000000c0: 2e40 b1bb fafa ab3f 0dc6 7fd3 69d1 b23f
000000d0: 4030 6fa7 d7af b83f cd72 d639 5a8e b73f
000000e0: 43f3 c1e0 2962 b53f 4878 01c4 4b75 b23f
000000f0: 1ad5 cf38 f039 ae3f 573d 06c2 6826 a73f
00000100: cfb3 3416 9f0c a03f e177 847c fa27 973f
00000110: 1d31 0c7c ff5e 0340 ae4e 3eac 7578 0940
00000120: 7d7b ad83 6229 0a40 4cd4 6bde 6588 0a40
00000130: e528 2168 0b53 0a40 a8c1 8535 bb41 0a40
00000140: 2576 d6d0 2bbe 0940 e49f afdb 7971 0a40
00000150: 7b84 a0e5 68c8 0940 dbc2 550b 066b 0a40
00000160: 9a84 eb98 8e89 0a40 62fb c397 c586 0a40
00000170: f477 36ce b17e 0a40 5d42 504a 2f7f 0a40
00000180: 31be a7ff a358 0a40 f542 7ad5 5534 0a40
00000190: d585 9dd3 2cdd 0940 914e 06d7 e7f6 ca3f
000001a0: 3c51 0ff7 6517 ca3f 94ec a244 3162 cb3f
000001b0: 90f1 7f40 33a1 c73f 2f6d a4a6 8209 c83f
000001c0: dcf5 17ad 26c1 c23f 66d3 d74d 949d c83f
000001d0: 90f2 2cb9 9149 c83f 9ef6 5d45 b7e6 c53f
000001e0: 991a 3c91 c6b2 c83f 2741 43a1 098f c53f
000001f0: b572 5174 e766 cb3f a00a e791 3a24 c43f
00000200: 3e54 9580 ae14 c83f 0ce6 5727 0114 c93f
00000210: 4652 2ced d63c c73f bc53 6bb0 2330 c23f
00000220: f64e 3464 1999 cd3f 5257 8971 df69 cc3f
00000230: c327 8506 52ed cc3f 94f2 d8eb 554a cb3f
00000240: 777c a5f9 298d cd3f 261a db05 cf90 c93f
00000250: 3309 dce3 1504 ce3f d347 e66f 624a cc3f
00000260: f954 4bce b5b1 cb3f db04 771b d3f1 cd3f
00000270: 831e 29f3 b3f6 ca3f a50b 25c2 356a ce3f
00000280: 03b0 66df 4f22 c93f d4b1 3931 482e cd3f
00000290: 1059 a667 f574 cd3f 36a7 bdeb ab9c cc3f
000002a0: 39e9 c7cd fa82 c93f 7135 bc45 bfa7 df3f
000002b0: 1c64 8e96 22f6 e33f face 89e6 6286 e43f
000002c0: 2e76 e988 d4f5 da3f 279f 9108 cee4 d03f
000002d0: 266e 309b e03e c63f 8289 e4c6 aa39 d53f
000002e0: b1e6 419c 90dd d53f f8d2 64e3 d447 d13f
000002f0: b736 50af dafc d03f 2021 ccc6 d77c d03f
00000300: 7aec cd10 59e7 df3f 1ffe 993e 1e09 d63f
00000310: 7c20 d6b2 0cb8 d83f 0428 c9ee 6259 d33f
00000320: 9c86 69d1 74fe c83f 8f0b 81e5 ec62 b73f
00000330: 0000 0000 0000 0000 c100 b5eb f0af 853f
00000340: 8dc7 a36d a45f 903f 39d9 b9a5 0028 7d3f
00000350: 85e3 41fa 7532 753f 8d34 87d7 d1c8 6d3f
00000360: b9f2 b44d 9630 673f 4efc ef7b c8ac 863f
00000370: 9282 1864 5613 8b3f 03f2 d0b4 5923 6f3f
00000380: a0f2 84a2 1b02 723f 92ec f7e4 af73 693f
00000390: b92c 16c9 3b46 7a3f 4e12 f2ac e6d0 623f
000003a0: cb37 5ab4 a2bc 693f e8bf 21a3 680a 6f3f
000003b0: 94fc 0268 e9a8 803f ec51 b81e 85eb b13f
000003c0: 9a99 9999 9999 b93f 9a99 9999 9999 b93f
000003d0: 52b8 1e85 eb51 b83f 3333 3333 3333 b33f
000003e0: 295c 8fc2 f528 ac3f 295c 8fc2 f528 ac3f
000003f0: 9a99 9999 9999 a93f 295c 8fc2 f528 ac3f
00000400: 295c 8fc2 f528 ac3f b81e 85eb 51b8 ae3f
00000410: 52b8 1e85 eb51 b83f b81e 85eb 51b8 ae3f
00000420: 295c 8fc2 f528 ac3f 9a99 9999 9999 a93f
00000430: 0ad7 a370 3d0a a73f 9a99 9999 9999 a93f
00000440: 23cd 05a8 aa49 37c0 9a8f 7ef6 f796 35c0
00000450: 4a71 5cfd cee7 35c0 bccb d321 eeb6 35c0
00000460: f213 b35e 6f0f 36c0 a39d aff8 8c8e 37c0
00000470: 3020 4c67 fde3 36c0 0024 c548 50d8 37c0
00000480: fa08 4cd4 f092 37c0 9ce4 8da5 0f22 37c0
00000490: b353 420e 6353 37c0 7bab 3ea7 f59b 36c0
000004a0: 7c16 e722 0e18 38c0 fe0c fa1e d6fb 37c0
000004b0: 02a9 7a22 a97e 38c0 5d5c 4a72 95ca 39c0
000004c0: 4242 3d14 2fa6 3ac0 fde1 b86d 931b 0540
000004d0: c832 9330 6b24 0640 d59e fcdf 9800 0440
000004e0: 6aa9 9df0 8534 0640 dd76 e0ad 67a8 0740
000004f0: 0adb da06 5afe 0940 64ab 8e8d 0ade 0640
00000500: 650b b15f 2f29 0640 9f75 3a27 4246 0740
00000510: 210b bd50 2594 0740 7544 90f8 2237 0740
00000520: 4ce8 2b8f 63f1 0440 3da0 9052 8717 0840
00000530: e0ea d1c5 d67e 0740 0a51 fdbf 9b32 0640
00000540: 8d71 8d4c f70a 0540 2de9 d181 85dd 0940
00000550: 9b8e 96a0 0177 cb3f b7cd ed5c 3c18 d93f
00000560: 1249 65d4 3c2a e13f ceb0 8eef 1c6f e43f
00000570: c4ad 8ef5 be48 eb3f ce69 7d7c 1361 f43f
00000580: c070 40e6 80fe de3f 2626 bd06 a498 d83f
00000590: bbd5 ba1b a928 e53f 80d6 6625 6046 e93f
000005a0: 2bb5 a140 23c5 e43f fe81 540f 913a e43f
000005b0: 184c f005 87f5 e73f 06ad 31d7 d37d e23f
000005c0: 5abd 102c bc9d d83f d4a9 46a7 d74b dd3f
000005d0: 1f45 b4d6 d590 ef3f a3c4 0ce4 ab70 e33f
000005e0: 170f 12c8 7bd7 d13f 923f 263a 1d07 d1bf
000005f0: 38f5 4574 c7bc e03f ae5c 74a3 dd7f d53f
00000600: 738f ce46 eba4 d93f d6e5 c094 b65a db3f
00000610: 1e11 c780 5563 e23f 8c39 d0d6 23f2 e23f
00000620: 227a a356 1752 ca3f 0ed5 ebfb dbe9 e33f
00000630: dd13 50e5 46b6 d93f f9c9 f64e 3ef8 e63f
00000640: 450b 8b59 361e ce3f 1f06 d6c2 4d17 da3f
00000650: 3083 0f8a dde5 df3f 763e 0106 82ed e93f
00000660: c8c6 dc5c 2553 c2bf b8ad fe7d c3a3 dabf
00000670: 605f cd67 312d d3bf bfd4 2d39 d950 c43f
00000680: a624 7d01 21f1 a33f 7cdd b446 8e83 c43f
00000690: 908f b76e d59a da3f 6ff5 f335 6b50 cc3f
000006a0: 66be aca7 a524 c83f 68fd d40b 3f1f c2bf
000006b0: a437 8609 744e c63f 9078 8db8 bf86 c2bf
000006c0: 0a88 bd88 6a74 d83f d691 0431 0f75 93bf
000006d0: 2ff7 b48a 1f5b d23f 0f5e 59cc 219a d83f
000006e0: dc86 dc8f a658 b43f 68d6 25be 2b32 ccbf
000006f0: 45a1 28f8 2c79 c7bf d6f4 0f95 8e12 ce3f
00000700: 069c 08f6 08d7 b03f bd0c ad0a 478d c93f
00000710: 5417 02a9 8e31 e93f 6645 e1ce 5112 d73f
00000720: 18f0 8693 56e0 dd3f b5a1 d741 1f2c e53f
00000730: f540 f434 0210 c63f 3786 5f4a da2d e33f
00000740: 0e91 e0f8 2b84 c13f 43f6 a406 6ed8 e13f
00000750: d114 cd67 7f29 d33f c44f d97d 7c7d d33f
00000760: b9c6 e071 ecbc e23f 86f2 cbc4 1b8c e63f
00000770: 21e0 4869 52c6 cbbf 57b4 22ec fa3f d6bf
00000780: 8fd3 1fa4 8290 e5bf dac6 1cda fabe e5bf
00000790: 78c3 8305 262b dbbf dc69 f39e fe09 d9bf
000007a0: 468e cb94 b5a9 c9bf 4026 2cb1 12ae d1bf
000007b0: b103 6daa 94d4 c0bf 7a86 6602 2182 d0bf
000007c0: 3aac 647d 2774 c6bf c4f9 5926 a1e7 c9bf
000007d0: 4b08 4b67 0305 e1bf 69e8 18a1 8714 8bbf
000007e0: 05be 2d18 3911 d5bf 8483 7a48 f0b1 d1bf
000007f0: 70dd f183 7ac0 c2bf 6cf4 39f6 edb0 ccbf
