feat_pickles/3093_B_120.0675_120.3475.wav.npy (npy, 2800 bytes, 1 tensors)

array (column-major) f8 [10, 34]
0.12781954887218044 0.17042606516290726 0.20551378446115287 0.20300751879699247 0.18295739348370926 0.17293233082706766 0.17543859649122806 0.19047619047619047
0.16541353383458646 0.13533834586466165 0.004383329982929214 0.010052158848210544 0.021555554562049287 0.018595720648449113 0.009192379208597284 0.009916205203434027
0.007889115602537635 0.005669822064030989 0.00645226821908425 0.005935732014172288 2.516104303590025 2.669392266072878 2.7597296077131275 2.565556197127612
2.59584585031304 2.945557799498879 2.955961796755529 2.661950124137153 2.6336084199687453 2.7347700703999864 0.22503466099654623 0.31414954411063095
0.3762654759468347 0.382521303491314 0.33864670376523615 0.32928853512478273 0.3067981865486652 0.3049531413195034 0.311911812020439 0.30439625618498195
0.21095670884782208 0.2578836802765179 0.25517056136023825 0.2528241599408605 0.2341931779083174 0.2312100870423712 0.2325061422758023 0.2350532060884568
0.23892967659425032 0.2339350315474062 1.4386721201769292 1.997999724421597 2.4925397518009635 2.5442392565678937 2.275685472675262 2.346688534248437
2.1366314758499056 2.0094663576882894 2.155085659998648 2.107591405517485 0.0 0.006275351739217339 0.004451628173748522 0.0029200314671451906
0.004684264650425494 0.004400208545176111 0.003102810684388578 0.0024349475664640595 0.003704459384837495 0.0028429581237476545 0.185 0.355
0.645 0.64 0.445 0.435 0.35 0.35 0.36 0.35
-25.11842780935724 -23.27490699072158 -22.134038029704648 -22.310282572688916 -23.34616899811601 -23.2111231165617 -23.59670425368109 -24.14522628844504
-23.721804913645943 -23.818475131034557 2.7746193819237464 1.5706318735940394 0.7298131036945802 0.6046321625359975 0.9067918494727273 0.9542440608834095
1.3866710444855077 1.4055708035040562 1.4189027270107821 1.4552423643725874 -0.8187028772352191 -0.5575480770975854 -0.5580544016947616 -0.5292417401437978
-0.7271353486228077 -0.6712083547900036 -0.6458604630734628 -0.6966993478118708 -0.5480840446611341 -0.5594394822718461 -0.3109094960851712 -0.2995726912395919
-0.27980798721780087 -0.1675359523040567 0.05413516421413922 0.3182727084997444 0.23918341588566497 0.028075611930017046 -0.18322431050552426 -0.14746326288895775
0.24192605240298892 0.159177409158549 0.16764683891758209 0.16234105131257429 0.1779372081286788 0.1816420293046258 0.20811696805468557 0.3166474092675907
0.10974736777032391 0.22389508863455876 0.29056051205428357 0.3257244664167632 0.5250116685960954 0.3881394129186902 0.5801049882860073 0.5735966710152569
0.429907207093011 0.5201380571657661 0.17664614145815713 0.3502475779077613 0.43075178194503755 0.3135740842319961 0.23282549380533937 0.2626607869589061
0.22700284909490984 0.2600719696002152 0.20587598723065118 0.2551130403966682 0.15413480974838897 0.2686958724609452 -0.25629260045442054 -0.37897070196104893
-0.40124883099843806 -0.4339766902736006 -0.34326436018832146 -0.3039151512037562 -0.5158856307876344 -0.5626731017083304 -0.5070487768327335 -0.3849947469137982
-0.5438161191162425 -0.4496170710632569 -0.5394257062969723 -0.5831938934576469 -0.6062116538818131 -0.5319247076488374 -0.6061348468882122 -0.5979288211625198
-0.5681522401053846 -0.6849455517657379 -0.0585131822244805 0.08990806916894412 0.21619747073746995 0.2489949826408466 0.11869284818985452 0.15006325493022266
0.1619814184985567 0.10399610933106308 0.06804774895789142 0.039576717562734405 -0.4162606696586545 -0.46481545053338913 -0.36460101066843026 -0.31731252617976397
-0.3488909638552843 -0.24617221614242096 -0.13792605136694444 -0.2969808653584038 -0.30390693364646565 -0.2524268576693783 -0.20539607282762834 -0.16298184968990753
-0.15784176431891261 -0.1253608379297889 -0.24308347646146072 -0.25805934954814413 -0.05089791383788855 -0.22315165130386466 -0.23531092687219202 -0.25008210932692115
-0.1630747235798158 -0.14718611373719917 -0.19035331884542692 -0.2237151492372429 -0.18048566168581323 -0.1637404616886922 -0.0711505111655679 -0.16311617939414114
-0.19496836367363424 -0.0905339051783794 0.02096783155187405 0.020017059093901522 0.007800521093377523 0.009300968457185909 0.015391778208763508 0.01658534532894255
0.011985439134880375 0.006474571806972021 0.029359328916049237 0.02585414524782025 0.007906776522260564 0.002274025507153943 0.002082840128468036 0.0017282757489399257
0.0023434764300872437 0.0007528089241039899 0.0012308809564093779 0.0006609068652166615 0.0027675623518645 0.002693597648539051 0.023321658354024416 0.01880048364854967
0.031158662894947953 0.006870597945776469 0.011162493137908507 0.007579877106344045 0.02247165996351154 0.0278245903631168 0.02366768657372628 0.006337604579178733
0.02152361153510597 0.01108690078767256 0.009624915855401707 0.011668158180622428 0.019277654627544497 0.026545639275837727 0.018365349425648374 0.006058487840990642
0.005761312605141305 0.021841759222549828 0.015872709355868927 0.017432554692569234 0.004696810762920077 0.002964141590599836 0.007688352414367845 0.011568447778662635
00000000: c605 1917 645c c03f 085d 2174 85d0 c53f
00000010: e4a4 9193 464e ca3f c29f 097f 26fc c93f
00000020: b276 c9da 256b c73f 2a62 a988 a522 c63f
00000030: 4c67 319d c574 c63f 1886 6118 8661 c83f
00000040: c452 114b 452c c53f 2c15 b154 c452 c13f
00000050: eec1 c92e 41f4 713f 05df 0eec 3996 843f
00000060: 6488 90c7 a812 963f 5160 1fb0 c10a 933f
00000070: 833b 9640 74d3 823f 6eb5 6488 f24e 843f
00000080: a1df 0e2c 2b28 803f fb2a 6d45 3d39 773f
00000090: 529a c68f b16d 7a3f 711d 0fee 1050 783f
000000a0: bdf3 094b fb20 0440 a5d3 1755 ea5a 0540
000000b0: 4372 d71d ed13 0640 aeb4 d553 4286 0440
000000c0: 206a 44d4 4ac4 0440 719a 8a9b 8090 0740
000000d0: bb52 6a4c cfa5 0740 8804 b681 ac4b 0540
000000e0: 51e3 914a a111 0540 9a94 7321 cfe0 0540
000000f0: 9c2a b98e efcd cc3f c38a 80b0 061b d43f
00000100: cc8d 73ca bb14 d83f d92e 21a2 3a7b d83f
00000110: 1179 6439 63ac d53f 90c1 5338 1013 d53f
00000120: 42b6 6cdc 94a2 d33f 27e7 312e 5a84 d33f
00000130: e549 f7f5 5cf6 d33f abb7 556f 3a7b d33f
00000140: aec4 af22 a100 cb3f c96c 3d8d 2a81 d03f
00000150: 856d fce7 b654 d03f 386b a562 452e d03f
00000160: 1401 08c4 0afa cd3f 1718 2dc9 4a98 cd3f
00000170: f6ca 98e2 c2c2 cd3f b424 7c34 3916 ce3f
00000180: 9711 8265 3f95 ce3f 5e42 f146 95f1 cd3f
00000190: f43a 9d0e cd04 f73f a2ec 1c8f cef7 ff3f
000001a0: 84b8 6fae b8f0 0340 8544 811c 9a5a 0440
000001b0: fdfa c895 9a34 0240 32f6 63a3 04c6 0240
000001c0: 5609 433e d217 0140 b077 0519 6313 0040
000001d0: a12e ee8c 9d3d 0140 e739 00e2 58dc 0040
000001e0: 0000 0000 0000 0000 0076 dae7 2eb4 793f
000001f0: d825 b9d6 de3b 723f 6822 f3f4 bfeb 673f
00000200: 0b91 abb7 ce2f 733f 9bf7 c0fc f305 723f
00000210: 30bb 48cd 106b 693f 7844 4b85 74f2 633f
00000220: 8f16 087d d058 6e3f b9e7 4a85 1d4a 673f
00000230: ae47 e17a 14ae c73f b81e 85eb 51b8 d63f
00000240: a470 3d0a d7a3 e43f 7b14 ae47 e17a e43f
00000250: 7b14 ae47 e17a dc3f d7a3 703d 0ad7 db3f
00000260: 6666 6666 6666 d63f 6666 6666 6666 d63f
00000270: 0ad7 a370 3d0a d73f 6666 6666 6666 d63f
00000280: 5320 f048 511e 39c0 4997 f64d 6046 37c0
00000290: 7200 fa50 5022 36c0 b737 bead 6e4f 36c0
000002a0: 1fcc 0d88 9e58 37c0 e60f 212a 0c36 37c0
000002b0: c2f1 269c c198 37c0 1364 cf8c 2d25 38c0
000002c0: 9133 f234 c8b8 37c0 fb61 1096 87d1 37c0
000002d0: 8aae 81a5 6b32 0640 0444 32e3 4e21 f93f
000002e0: 71ef 9102 a15a e73f af75 868c 2559 e33f
000002f0: 9378 3857 7004 ed3f f0af 3cd7 2a89 ee3f
00000300: b501 26fa cd2f f63f a432 94cf 377d f63f
00000310: e376 8b58 d3b3 f63f 60be ab37 ac48 f73f
00000320: 4bb9 5b60 d032 eabf 3c9e a210 6fd7 e1bf
00000330: 035f 95e7 94db e1bf 5110 b35f 8cef e0bf
00000340: 7137 c359 b144 e7bf 4000 94f1 897a e5bf
00000350: 0ec2 d58f e3aa e4bf 72e3 3f6e 5c4b e6bf
00000360: 5ced e88c e789 e1bf 2b5c 0ea1 ede6 e1bf
00000370: d7e7 6cf1 f0e5 d3bf 2b85 e9ef 322c d3bf
00000380: 82a4 90c2 5fe8 d1bf f86a 066e d171 c5bf
00000390: c004 baaf 9ab7 ab3f bdce 8d7e 945e d43f
000003a0: 59bc 7cea 8f9d ce3f dbeb 376c dabf 9c3f
000003b0: 3908 baea e473 c7bf 5d19 bc81 13e0 c2bf
000003c0: 2084 8fd1 6ef7 ce3f 928a 4ce3 ec5f c43f
000003d0: c2e2 369d 7375 c53f 21c7 1771 97c7 c43f
000003e0: 82bd d37c a5c6 c63f eca1 b8c7 0b40 c73f
000003f0: 7bce c4a9 93a3 ca3f 2ab7 ca7e f343 d43f
00000400: b947 654b 6718 bc3f 58d1 b521 98a8 cc3f
00000410: f00e 321e 8b98 d23f 5217 b16e abd8 d43f
00000420: 936f 5445 e5cc e03f 0190 31b1 46d7 d83f
00000430: 69ea 1d56 3890 e23f 285c e367 e75a e23f
00000440: 1cde b184 9983 db3f 7cd2 1d91 f8a4 e03f
00000450: 0381 433c 579c c63f b27d 27d1 746a d63f
00000460: 4173 09ec 6f91 db3f 9992 2909 9911 d43f
00000470: 71d4 c8cc 39cd cd3f 2b87 7b30 6fcf d03f
00000480: 2711 7bea 6d0e cd3f c182 02e7 04a5 d03f
00000490: 6dfb 17f4 245a ca3f 355b 52a5 c553 d03f
000004a0: 97b2 857f b0ba c33f 7c8e 322c 5032 d13f
000004b0: 5f25 4a14 1967 d0bf cd26 c454 0e41 d8bf
000004c0: d393 ac93 0fae d9bf 53e4 fc2a 46c6 dbbf
000004d0: 8109 3914 0bf8 d5bf 3175 cb88 5873 d3bf
000004e0: efb1 1695 2282 e0bf 1ca3 4505 6b01 e2bf
000004f0: 0926 3f5b be39 e0bf 9019 c801 c1a3 d8bf
00000500: 768a d40f f166 e1bf e628 fcad 86c6 dcbf
00000510: ae59 e5b2 f942 e1bf 7f14 743d 86a9 e2bf
00000520: f30b 7cfb 1566 e3bf e027 e9f6 8605 e1bf
00000530: 123a 0be8 7465 e3bf c852 879f 3b22 e3bf
00000540: 45db 4c9b 4d2e e2bf 10fc 0bef 12eb e5bf
00000550: 0afc 1398 70f5 adbf 9824 ba18 3704 b73f
00000560: 0bce 25d5 5bac cb3f 3fbf a74d 11df cf3f
00000570: bb98 3e8d a762 be3f d4d8 20d2 4535 c33f
00000580: 2368 819f cebb c43f d1f7 7c30 7d9f ba3f
00000590: 0e2f 57c8 936b b13f c1dd 3a47 6643 a43f
000005a0: f6e0 b2ca 03a4 dabf b2d9 ad4d 89bf ddbf
000005b0: 8334 3a7a 9f55 d7bf 1f68 a332 d94e d4bf
000005c0: 1e37 e8c3 3a54 d6bf 42fd c138 9282 cfbf
000005d0: b797 f193 8fa7 c1bf cb22 1008 bc01 d3bf
000005e0: 7382 4211 3673 d3bf 159c 94fa c227 d0bf
000005f0: 72c0 c223 6b4a cabf 2e3f 21d9 96dc c4bf
00000600: 64a9 d8af 2834 c4bf d3c5 8ded d20b c0bf
00000610: 7acb ccfe 5b1d cfbf ba1f af5c 0b84 d0bf
00000620: 5099 bc96 4a0f aabf de01 33ba 3b90 ccbf
00000630: 905c a71f ab1e cebf b7ec 3764 5801 d0bf
00000640: a92e 4aee a1df c4bf 0d9b 769c fed6 c2bf
00000650: 4f26 905f 7f5d c8bf f0fe cbb0 b2a2 ccbf
00000660: cf32 2b77 271a c7bf 5910 fe8b 72f5 c4bf
00000670: 7fbf 8c7e eb36 b2bf 8820 f9af fde0 c4bf
00000680: 74cf dd2c b9f4 c8bf 1599 ebe1 3a2d b7bf
00000690: d322 225b 9778 953f 067f ae18 5a7f 943f
000006a0: b516 ce6f 70f3 7f3f 9907 c2da 620c 833f
000006b0: 547a 4580 b985 8f3f 2b69 1faf bffb 903f
000006c0: 826b e668 d28b 883f b62e aaa2 1485 7a3f
000006d0: cb95 1b36 5f10 9e3f 7dc0 3851 8279 9a3f
000006e0: 3b9d a394 6d31 803f 0033 df25 faa0 623f
000006f0: ed91 8147 0810 613f 429d 7df4 e950 5c3f
00000700: e798 0954 a032 633f 4edf c5da 04ab 483f
00000710: dbba fe5c b02a 543f e062 97af 16a8 453f
00000720: 270b 4fb9 ffab 663f 07cd e339 e210 663f
00000730: 9813 adff a1e1 973f 5992 ad19 6f40 933f
00000740: a0ca 7b78 0ee8 9f3f 677b b217 5824 7c3f
00000750: 3ccd c077 5cdc 863f 329d 78c4 130c 7f3f
00000760: c43c 8592 cf02 973f 6167 89a6 0c7e 9c3f
00000770: d77a 398f 573c 983f e4da 70c6 75f5 793f
00000780: a454 8a1e 490a 963f e65b 60a2 bab4 863f
00000790: c109 9b56 3ab6 833f 9697 52ae 79e5 873f
000007a0: a1f0 ac80 85bd 933f 991f 2ab2 c72e 9b3f
000007b0: bead a6bc 5dce 923f 238a 3ef2 c8d0 783f
000007c0: 53af 8993 2c99 773f e01b 31a6 af5d 963f
000007d0: df58 547e ef40 903f a648 29f1 d6d9 913f
000007e0: 98b4 f489 f63c 733f 9fa5 2766 4148 683f
000007f0: 1498 e062 d27d 7f3f 0bac ffc6 32b1 873f
