feat_pickles/3103_B_119.84675_119.9635.wav.npy (npy, 896 bytes, 1 tensors)

array (column-major) f8 [3, 34]
000000 70 1f c1 7d 04 f7 c1 3f 4c 67 31 9d c5 74 c6 3f
       0.14035087719298245 0.17543859649122806
000010 c2 9f 09 7f 26 fc c9 3f 4a f0 6d 80 db 27 b3 3f
       0.20300751879699247 0.0748269260929543
000020 12 d6 d4 82 61 d6 b7 3f dd b7 69 62 05 12 99 3f
       0.0931149429714753 0.024482807284975528
000030 5e 1b b8 12 1a c8 01 40 1f 8e fa 1c f1 10 07 40
       2.22270598053312 2.8832723869288794
000040 79 1f 1d 50 9f 8a 07 40 5c 68 9f 22 78 26 cb 3f
       2.942686677826654 0.2121114892059407
000050 18 8b e4 cc 16 d6 d0 3f 09 f6 66 ac 56 e2 d5 3f
       0.26306695946748127 0.3419396098723558
000060 cc bf 59 b9 49 4e c2 3f 16 b1 90 a7 b2 ea c7 3f
       0.14301415968247821 0.18684991056341776
000070 59 f3 51 f1 98 5c ce 3f 3f 04 39 ed ea c6 f2 3f
       0.2372008493729492 1.1735638872635403
000080 d5 ae 6f a6 27 6b f8 3f 20 36 43 c2 15 0c 00 40
       1.52616086019673 2.005900876690035
000090 00 00 00 00 00 00 00 00 a9 b7 53 b2 47 70 6a 3f
       0.0 0.003227367432024193
0000a0 a9 9c 1a b5 6d 8c 84 3f 00 00 00 00 00 00 d0 3f
       0.010033471192697556 0.25
0000b0 a4 70 3d 0a d7 a3 d0 3f b8 1e 85 eb 51 b8 e2 3f
       0.26 0.585
0000c0 ea 3a 44 87 8d d3 36 c0 90 c6 a5 2d 1a 85 35 c0
       -22.826378301770923 -21.519930699322288
0000d0 1a 27 ce 8f b1 35 37 c0 28 72 f6 05 ca b5 03 40
       -23.20974062712694 2.4637642350992515
0000e0 82 3d 56 64 d2 55 f4 3f 4a 28 bf 9e 21 b0 e7 3f
       1.2709525985154362 0.7402504063150073
0000f0 26 5c ca 1e 0f 9e 04 c0 20 85 4b 7b aa 68 f9 bf
       -2.57717727713636 -1.5880532089434567
000100 94 a1 e0 2d 5e 66 d2 bf 27 2d 51 c5 5a 2c e1 bf
       -0.2874980400106548 -0.5366643766259686
000110 ff cf ac b2 36 f1 d7 bf 70 a1 90 a9 d1 ca e8 bf
       -0.3740975136636279 -0.7747581779304209
000120 90 61 ef b6 4e 38 e5 bf 45 0f 7a 5f 46 e3 ec bf
       -0.6631234715414838 -0.9027435173779642
000130 70 b5 09 98 d5 c6 f3 bf 76 f7 c5 88 03 63 f2 bf
       -1.2360435427648007 -1.1491732924182236
000140 bd 67 b9 72 f2 d4 e1 bf 84 f4 01 41 84 22 ca 3f
       -0.5572445145328327 0.20417836355401076
000150 0c 79 c0 d8 e6 a6 a0 3f 2d 12 e9 09 91 7b d0 bf
       0.0325233592595727 -0.25754190414253025
000160 ac f4 05 dd a1 f1 cc bf be b2 d1 88 d7 e4 e0 3f
       -0.22612403194572062 0.5279348060845093
000170 7e 89 1e b9 f3 76 e8 3f 05 f8 de d0 83 09 c1 bf
       0.7645205131159825 -0.13310287188318184
000180 3c 07 c9 ac d0 12 e6 bf 48 5a 45 82 84 aa e2 bf
       -0.689796769591545 -0.5833151382783592
000190 d7 e5 c6 5b 82 97 ea bf b3 73 db 0c 03 43 e9 bf
       -0.830994776965947 -0.7894301653974395
0001a0 10 da da 08 60 ad e5 bf dd 01 a1 93 a4 6c d8 bf
       -0.6774139569232052 -0.3816310350121322
0001b0 22 65 bc c3 5f 08 e8 bf 41 64 78 d1 88 d1 ed bf
       -0.7510222266165878 -0.9318279353348161
0001c0 b5 87 8f 34 3e c8 e5 bf a1 d2 34 47 2d 94 c6 bf
       -0.6806937243056753 -0.17639699913856524
0001d0 d0 48 c0 38 f3 df 61 3f 29 a0 a0 2a 64 19 dc 3f
       0.0021819830344692384 0.4390497604640609
0001e0 f2 46 dc 82 07 43 c7 bf b1 e7 94 29 85 cb c9 bf
       -0.18173307313605097 -0.20152344255785473
0001f0 2b 08 15 f0 9e ec cc 3f ae 57 ef 61 50 8d 88 3f
       0.2259710953022148 0.011988285053955963
000200 5e 27 6e 6b 8c 98 7e 3f 73 ae c5 aa 18 29 51 3f
       0.0074697003500519814 0.0010473957910005743
000210 51 d1 7b 86 e8 41 92 3f 72 ea f7 53 59 8f 8d 3f
       0.017829545219642032 0.014433572649968005
000220 2c 7c f3 ae 15 d8 67 3f af 46 dd 63 93 41 ac 3f
       0.002910654402156895 0.055187803211663826
000230 59 a5 25 05 9a cc a1 3f 3a db 56 a6 53 f1 65 3f
       0.03476411164121868 0.0026785501274519093
000240 78 bb 4a 8b ec 87 ab 3f 9d 04 10 53 6b 12 a5 3f
       0.053771392825516295 0.04115615261981385
000250 bf 75 16 56 57 74 7d 3f 76 9c d4 81 04 cf 89 3f
       0.007191029698700501 0.012601885997879796
000260 dc d4 66 b7 fe 66 a7 3f 96 25 ce 7a 50 45 c4 3f
       0.04570766438284021 0.158365306819445
000270 46 31 2d ce 2a eb 72 3f 63 f3 23 cf b9 fd 76 3f
       0.004618804176811436 0.005613065545046011
000280 e0 14 df d4 89 5d 90 3f 27 3c 85 38 1f 09 63 3f
       0.015981820695533666 0.0023236856251638463
000290 bd 2b 11 15 a8 ac 59 3f 93 92 39 13 be 0e 5c 3f
       0.0015670434406895716 0.0017124992563363514
0002a0 df 4e 56 fa e3 86 4f 3f 45 35 f4 25 6c af 58 3f
       0.0009621251271476303 0.0015066677222564534
0002b0 c4 0a 8c 52 b4 99 75 3f 3b 60 2c 12 f6 a4 62 3f
       0.005273537048881397 0.0022759252618804993
0002c0 a2 88 d6 3d 14 13 5b 3f 97 4f f4 ed 83 6e 57 3f
       0.0016524980231698368 0.0014301575063812905
0002d0 3a b1 19 ef a6 ad 30 3f 0e 32 56 0f 42 72 43 3f
       0.0002544910958935002 0.0005934546049260485
0002e0 3c 09 55 fa c5 b3 52 3f 81 bd fe 2b 4c a9 5b 3f
       0.001141494119409516 0.0016883128991870002
0002f0 23 91 9f a7 6a 12 59 3f b1 d8 43 22 d0 b3 54 3f
       0.0015302697706767808 0.0012635738904101352
000300 92 c4 33 00 f7 02 2a 3f d2 a8 71 c7 e6 cb 56 3f
       0.00019845261713372482 0.0013913873388227594
000310 36 b9 ee 8d d6 7e 61 3f 5e 30 24 61 de 84 93 3f
       0.002135676433190482 0.019061541251219054
000320 77 4a 99 22 34 d0 90 3f 6f 8a fe 42 69 f5 a5 3f
       0.01641923390554686 0.04288796370316993
