feat_pickles/3221_B_126.3435_126.834875.wav.npy (npy, 4976 bytes, 1 tensors)

array (column-major) f8 [18, 34]
00000000: 4e1a 3969 e4a4 d13f 6731 9dc5 7416 d33f
00000010: 3503 d50c 5433 d03f d2c8 4923 278d cc3f
00000020: f4cd d137 47df cc3f 5c90 7141 c605 c93f
00000030: a24d 8936 25da c43f 2a62 a988 a522 c63f
00000040: c452 114b 452c c53f 9224 4992 2449 c23f
00000050: c0ec 01b3 07cc be3f e4a4 9193 464e ba3f
00000060: f833 e1cf 843f b33f b429 d1a6 449b b23f
00000070: 085d 2174 85d0 b53f 3c3e f1f8 c4e3 b33f
00000080: f4cd d137 47df bc3f c452 114b 452c c53f
00000090: c088 a9fc 14af 273f cddf bac0 e747 363f
000000a0: e032 3bb4 9586 653f 9ab2 1151 5cfd 863f
000000b0: 6af2 7f15 c1d6 a53f 9aa1 f579 a292 b03f
000000c0: cf9d 970e 7d47 a93f 1cc7 e00c 82a1 9f3f
000000d0: 9f82 9c32 3448 993f 4866 c096 0dce 983f
000000e0: a02c 20d1 aa3b 9f3f 45bd 1493 5fe6 9c3f
000000f0: f065 1872 fedb 903f ca71 29e4 14b9 843f
00000100: 4047 5673 81c0 753f 3609 b1cc c6ed 653f
00000110: 2074 1ce7 121f 4c3f 2e4a a12f a0f5 313f
00000120: 30ea a07c 7808 0940 7989 b2f6 9957 0740
00000130: 367d d757 fa50 0240 e8c8 a3b1 1e60 0740
00000140: 6c2f 134c 1276 0340 b27c 95d3 03d4 0540
00000150: 910c 6309 af4c 0640 185c 1a6b 911a 0640
00000160: 66da 3400 c851 0640 841b 9c15 38e0 0540
00000170: f1f2 f866 283d 0640 e95d 16eb 91ea 0540
00000180: b07b 0b28 5348 0640 0ec3 cd0c 7e3c 0640
00000190: dc1a 1056 b8d2 0840 946c 6f02 b0fb 0740
000001a0: 68ce 12bd c42f 0640 08ca b398 c2d4 0840
000001b0: 8122 ad9e b692 d63f 2d6c eecf 4ea8 d53f
000001c0: 793b 0b4e a718 d13f 744f cccd 327d d33f
000001d0: f14d b012 16fe d03f 70d2 e3ce 2660 d13f
000001e0: 91f9 9536 f46b d03f 7169 fc3d 9f35 d03f
000001f0: 6a2a 3986 c17f ce3f 585c fbaa 7739 cf3f
00000200: 9fad 8ff1 9fd9 cd3f 7a8d a064 6761 cd3f
00000210: 48dc 67c2 8149 cb3f 0862 5171 d076 cc3f
00000220: e4de b644 294e ca3f 4c24 76b0 6b1c cc3f
00000230: e6c2 6faa 69c0 ce3f 7d16 5b3e e0d3 d03f
00000240: 20c4 cb85 6f9d cf3f 94cb 5be4 00a3 ce3f
00000250: 1e26 5dc3 2165 c93f 9cc4 ac8b 40c9 cd3f
00000260: 216a 5abd 2c98 c93f 1c74 8ef7 04b2 ca3f
00000270: ae99 c853 855b c93f 6470 91a4 47d7 c83f
00000280: 76c0 1c42 bc03 c73f 6505 8581 96b0 c73f
00000290: b65d 093c 0520 c83f 3b94 09ff e894 c73f
000002a0: ab11 510f e61f c73f becf 6010 ba14 ca3f
000002b0: 39b7 200e f355 ca3f 3e35 5691 5dda cb3f
000002c0: 4294 5096 a252 cf3f 545c bfc1 099f cd3f
000002d0: a67e 8085 cd66 0240 23e6 6098 09ff 0140
000002e0: 3a3b 1eab caef f93f 6f43 e0ed 7900 ff3f
000002f0: 5199 61c9 14f2 f93f 04aa e6ef 023e fa3f
00000300: e2d7 50b3 e686 fa3f 4045 fd1d 5244 fa3f
00000310: 0fe3 680d 028a fa3f 782a 1b72 6f32 fc3f
00000320: d291 df98 354f f93f da70 ec0b 9511 f83f
00000330: c827 4f93 f8c7 f83f c241 8b8b c20d f93f
00000340: 66be 58fe 26c3 f13f d81c 0d86 abbb ee3f
00000350: 55f3 fe67 38cf f03f ffee 6444 3c74 fb3f
00000360: 0000 0000 0000 0000 ea2a 97d7 0e64 6c3f
00000370: 52df 4db7 6b0f 783f cf2a 50ed f86a 703f
00000380: 5aa2 e792 a23c 733f 5c11 0adb 15e4 6a3f
00000390: f549 cf41 001c 773f 47b6 7d73 c36a 703f
000003a0: cb97 a091 0b32 7e3f f9da d85f 98f1 6b3f
000003b0: 241e dcce b766 693f dc69 5e39 16f9 733f
000003c0: af4f 7353 37f2 793f 5d72 86c7 a283 713f
000003d0: 87f0 3480 e233 803f 9b92 8244 3c8a 813f
000003e0: 2434 4af7 bcbb 843f dcb6 e16c c97c 773f
000003f0: 7b14 ae47 e17a e43f 52b8 1e85 eb51 e43f
00000400: 1f85 eb51 b81e d53f 713d 0ad7 a370 d53f
00000410: cdcc cccc cccc d43f 7b14 ae47 e17a d43f
00000420: 7b14 ae47 e17a d43f 85eb 51b8 1e85 d33f
00000430: 3333 3333 3333 d33f 8fc2 f528 5c8f d23f
00000440: 9a99 9999 9999 d13f a470 3d0a d7a3 d03f
00000450: 713d 0ad7 a370 cd3f 5c8f c2f5 285c cf3f
00000460: cdcc cccc cccc cc3f 713d 0ad7 a370 bd3f
00000470: cdcc cccc cccc cc3f 9a99 9999 9999 d13f
00000480: 4831 12be accb 3cc0 a15a ec40 c3ea 3bc0
00000490: 614e 01f8 ee99 39c0 9d68 69b1 a53c 37c0
000004a0: 7bef 1298 0bae 35c0 e060 aa40 b617 35c0
000004b0: 94cf 9ea5 30b3 35c0 521a 16ca cc30 36c0
000004c0: 3b78 df69 39a6 36c0 eb71 9119 e58b 36c0
000004d0: a54a ebba dc79 36c0 bfeb 37c0 b483 36c0
000004e0: 7f41 ad06 558c 37c0 a487 4525 f719 38c0
000004f0: 3592 e2f1 3abf 39c0 51d0 6582 5102 3bc0
00000500: 2f14 89a3 5d9a 3bc0 1964 1d4f f3ab 3cc0
00000510: fb79 be29 9569 f03f 09d5 6eb7 fb07 f33f
00000520: 6e6b d1f1 2063 fc3f 728b 87d1 1c99 f63f
00000530: 0e19 8bd1 6216 fe3f 7df2 16e8 a729 fd3f
00000540: ef00 f601 e2f7 ff3f f067 615f 9cda 0040
00000550: 4423 9fd7 a78d 0240 d64e 523a e8e8 0140
00000560: 9c16 c362 c38e 0340 c83d e1c6 f86e 0440
00000570: 6888 3e81 52ae 0640 626d 79e4 22af 0540
00000580: dd19 6ebe f827 0740 0c50 d44c 1dc8 0340
00000590: 8425 1b03 5dfa 0240 9944 755d 8b3a 0040
000005a0: 6157 b6f8 2c80 debf c38f ec9b 4299 e2bf
000005b0: 2c2e 5ea7 ff23 f5bf 9b20 04e7 afee f4bf
000005c0: 0b55 a26a dcfc f5bf a67b e4ed 58a0 f5bf
000005d0: 883e 1b54 0242 f2bf 5dc0 18f3 b37f f4bf
000005e0: 483c d8e5 b29e f8bf 691c 7793 6feb f7bf
000005f0: 4291 b21e 6756 f4bf 6a49 e612 8059 f6bf
00000600: 6e28 8df1 65fa f1bf 8df6 f03a b36a e3bf
00000610: 5ecd cf6e c34c c23f d25a dcd7 b053 bc3f
00000620: 2ace 8dcf 3c8a d03f e296 3075 d0b0 4b3f
00000630: bb5f 40b0 a933 dfbf 38df 4d4b 2da8 e8bf
00000640: 08fc b301 7b43 dbbf 52e7 2ce4 627e 9fbf
00000650: 39c7 e8a1 fc3c e2bf f695 9de1 21ff e2bf
00000660: f33e 306a 752c dbbf b3ec 7d36 95ce d1bf
00000670: 519c 9ae1 c974 c1bf 0631 2dad 6134 cbbf
00000680: 75be 5b85 cd52 d9bf beea ecfd 5778 dbbf
00000690: 4533 f2d5 1a5b d9bf e704 2b8b 9b93 c4bf
000006a0: a06c d6e4 29ac d63f d4e6 90f4 bce8 e13f
000006b0: 9321 c182 eb6f e23f 94c1 f85e f15e dc3f
000006c0: 48fe 1f73 084b e3bf f3dd 175a f6f6 e8bf
000006d0: 2c27 e52c e890 d5bf 9a78 c3b6 2ea0 a6bf
000006e0: 2874 f689 d1c9 92bf 52de 1832 d51c b9bf
000006f0: fdd4 a08e 80db c9bf bbc1 83ac 1949 943f
00000700: 030b fe56 4601 d03f e843 ea81 d286 d23f
00000710: c0e9 6af7 3074 d13f 914b 614e 3142 b03f
00000720: 122a ad54 4ce4 9e3f fa5e cb09 1bc3 d7bf
00000730: 9344 cf6c a9aa bd3f c0cc 930c 9b3b ab3f
00000740: cf1e 7bef 0e03 d03f 1568 a49a 7bc2 b73f
00000750: 3353 33e7 cfa8 a53f 6723 dd95 cabe d2bf
00000760: 1f58 8fb3 0adf c73f f07b 8bec 09aa a0bf
00000770: 95f3 f6d4 6095 c3bf 4cb4 1336 8799 b7bf
00000780: 9e3b 92d4 1e74 95bf bc9f 54e3 a6ed 7fbf
00000790: 9d86 e633 d5ef b8bf b962 7de0 825b c6bf
000007a0: 24a4 f67a 3ed6 bcbf 019f e1d9 7184 ddbf
000007b0: a83d bd49 9362 dfbf 4afc 441b 3ee9 e5bf
000007c0: c02f 1f0a 4588 eabf 6cb2 132d f9c8 e7bf
000007d0: 5586 2ed2 100f c3bf f716 1633 3a89 e1bf
000007e0: c608 db03 de27 e03f 0a86 1d99 2728 c53f
000007f0: cb8f ddeb e05b d73f 012b 4bb3 da6c e13f
0.2756892230576441 0.2982456140350877 0.2531328320802005 0.22305764411027568 0.22556390977443608 0.19548872180451127 0.16290726817042606 0.17293233082706766
0.16541353383458646 0.14285714285714285 0.12030075187969924 0.10275689223057644 0.07518796992481203 0.07268170426065163 0.08521303258145363 0.07769423558897243
0.11278195488721804 0.16541353383458646 0.00018069392384051884 0.0003399792483196301 0.002627651587181354 0.011225434516938738 0.04265406978081361 0.06473746755148682
0.04937353900077889 0.030889541660321304 0.024689498509476434 0.024223530126709997 0.030501050008791553 0.0282225545426489 0.016464210237335963 0.010118640149067288
0.0053105408345731075 0.002676857262060707 0.0008581964777679731 0.00027403984825472266 3.1291360603911684 2.917774131129758 2.2895399916302734 2.921933543978515
2.43265208657788 2.7285229234690513 2.7874432309486754 2.762972676031051 2.7899322525147907 2.7344819725289558 2.7798622173999026 2.7395361295891587
2.785314858293951 2.779537296323162 3.1028906558670837 2.9978943052534053 2.7733244677890987 3.1038867883555703 0.35270467277272394 0.3383976965503191
0.2671297323367337 0.30451650712460965 0.26550819230143846 0.2714936275872679 0.2565889866890752 0.25327282956427327 0.23827380231735457 0.24394126747822287
0.23320388121588295 0.22953503049312102 0.2131807517286879 0.22237592251873672 0.20551029067222892 0.21961732975276715 0.24024697134111433 0.262931881803844
0.24699205430036475 0.23934947157212305 0.19839880027056805 0.23270422763883836 0.19995650525818667 0.20855772102086767 0.19810549345966194 0.19406981978943627
0.17980149486675473 0.1850765354557026 0.18847718650316175 0.1842318768787282 0.18066097019085467 0.20375753211703612 0.2057479685767534 0.21760148617287628
0.2447093233069229 0.23141595802619241 2.3001966886366345 2.2495300201960773 1.6210428890514792 1.937616280749548 1.621601854939929 1.640139519799619
1.6579348568461616 1.641679875512935 1.6586933635537127 1.762313314177531 1.581838223611261 1.5042925325170047 1.5488210443750052 1.5658593607841884
1.1101446090141507 0.96040893728141 1.0505909025516378 1.7158777877475015 0.0 0.0034656801114797313 0.005874081388235046 0.004008266802893969
0.004696497968759228 0.0032825877063393082 0.005641938213516874 0.004008067589763415 0.0073719455631699555 0.0034111000120690097 0.003100737571802419 0.004876219570997677
0.006334510914900378 0.004275928360951112 0.007911462342797172 0.008564444390068806 0.010123707100570263 0.005734240358021583 0.64 0.635
0.33 0.335 0.325 0.32 0.32 0.305 0.3 0.29
0.275 0.26 0.23 0.245 0.225 0.115 0.225 0.275
-28.79560459083703 -27.91704183359491 -25.601302624052895 -23.2369032747598 -21.67986441099445 -21.092624703975957 -21.69996104361742 -22.190624838253207
-22.649313561494846 -22.546464536675483 -22.47602432484077 -22.514476789143142 -23.54817239503745 -24.101427392458973 -25.746993177237716 -27.00905623422324
-27.602991314856066 -28.67168135135225 1.0257770186068444 1.189449039969363 1.7742013402955439 1.4123809990639669 1.8804653344428206 1.822669893837115
1.9980182720756223 2.1067435695267633 2.3191677899780263 2.238724189411964 2.4447086063181143 2.5541854417312813 2.8351183030327327 2.7105157708698906
2.8945174100256126 2.4727121355335893 2.372247719064662 2.0285861302769033 -0.47657322204883285 -0.5812085194961515 -1.321288732319668 -1.308273222357491
-1.3742336430926254 -1.3516473095585098 -1.141115501919474 -1.2811774726833598 -1.538744829016439 -1.4949794540750878 -1.2710944365617967 -1.396850656343839
-1.1236323772050372 -0.6067749167629742 0.14296763334969403 0.11065202016866785 0.2584373499769038 0.0008450525150507061 -0.48752824985558235 -0.7705294104370983
-0.42599368254008185 -0.03075556295082233 -0.5699446832934206 -0.5936440855554668 -0.42458854074446534 -0.2782338173053162 -0.13637660518472441 -0.21253605800519199
-0.3956788828208809 -0.4292201976528921 -0.3961855973546345 -0.16075462622942568 0.3542580351583613 0.559660413425457 0.5761621049687612 0.44329485201435515
-0.6029093025717396 -0.7801467666276366 -0.33696941742219866 -0.04419084530830837 -0.018348001523566776 -0.09809620354723705 -0.20201117481489198 0.019810105471096167
0.25007780547473163 0.2894788998319755 0.27271675264242035 0.06351001895499865 0.03016776339362976 -0.3712833018921483 0.11588534265981058 0.053189130101509274
0.25018666636286196 0.0928113224548784 0.0423035592772635 -0.29289497981203855 0.18649419562888256 -0.03254729282865998 -0.15299616240181693 -0.09218640394438288
-0.020950776790921936 -0.007795001894272898 -0.09740955845929951 -0.1746677013532201 -0.11264410497700844 -0.461208784842242 -0.49039156151863006 -0.6847219975096632
-0.8291344831172793 -0.7432828789147385 -0.14889726889400615 -0.5480013845233022 0.5048666072182406 0.16528792358717254 0.3649828246473105 0.5445378782108891
