feat_pickles/3229_B_51.552625_51.850125.wav.npy (npy, 2800 bytes, 1 tensors)

array (column-major) f8 [10, 34]
0.08521303258145363 0.12531328320802004 0.14536340852130325 0.17543859649122806 0.17042606516290726 0.16791979949874686 0.17293233082706766 0.14035087719298245
0.09022556390977443 0.07268170426065163 0.03463057859276733 0.03743356012657677 0.01417296493328772 0.018271725420167036 0.05091024007191131 0.0790738468567249
0.10082973953349575 0.12263262178516536 0.10520959288700514 0.059064249719366746 2.543137340137115 2.9406634120262636 3.1125510940042274 3.062874171991978
3.0346749562154 3.27746351145101 3.2834610158573754 3.319515674820945 3.2880548239534413 3.0761133723876695 0.3374637637772252 0.33191491295287817
0.3210727472072965 0.31715629754525954 0.29002967734793533 0.2944997642945376 0.30115398926509607 0.26374478053027495 0.24487897769849723 0.19553326251611744
0.25597973844494804 0.2535844173514936 0.2475889970304876 0.2505528090752976 0.24003091762746656 0.24208517560938747 0.24368461488636664 0.22841283642893748
0.21702810087818858 0.18588410313411685 2.126637591302497 2.1112064567904443 2.1809627822236637 2.2333547082407974 1.9302541110381062 1.7392215208819575
1.5253772974259616 1.657938547755383 1.4867915570230312 1.253535819526046 0.0 0.002428534160289918 0.002582207807215658 0.006384906893248198
0.008701840253208066 0.005547760902250427 0.010113212225314042 0.00793315170827564 0.00735187232733371 0.009973681871450497 0.54 0.56
0.475 0.51 0.35 0.305 0.26 0.235 0.17 0.17
-21.78975482760177 -21.704179669915213 -23.008842911187724 -22.61617450420644 -21.356926387816337 -20.802734879928256 -20.83887863131706 -20.40858423976734
-21.049241512115024 -22.703360052964566 1.2528013353620784 1.276480293116062 1.383397128482583 1.4056561783486963 1.609259123510151 1.6273573538118704
1.382049765167988 1.99777346822102 2.1626556929078085 2.837931688302157 0.11208101934865371 -0.030233638289601728 -0.11930023604707256 0.04421346490684711
-0.12326013602884923 -0.07690808351703686 -0.2201893562076211 -0.12666447320467478 -0.3549510842773884 -0.3452885397282537 -0.43858089719396814 -0.6043440807408508
-0.44271576888072345 -0.3198180975240281 -0.48839471664383 -0.36467542061317865 -0.4724714409583953 -0.5624862663250239 -0.48260126941365017 -0.44666468846855534
-0.5673638893517292 -0.6591718732987483 -0.4025026439929741 -0.387527637563798 -0.39205835905261094 -0.13368123193296172 -0.08321287591871311 -0.32729764476078654
-0.04264050416127784 -0.327889137226471 -0.29865457077914365 -0.40720871331520253 -0.2885840206147927 -0.43586126178925877 -0.3061899038285523 -0.3135901095146473
-0.3211427010489748 -0.364739110427432 -0.23811976487802006 -0.11528484173636205 -0.47723320113014817 -0.5884444671345527 -0.5003858292061019 -0.5178743111949842
-0.24338031844945826 -0.395223297659987 -0.20911898483789731 -0.18651546146713174 -0.5240706594820151 -0.3422198383835982 -0.22247292576578104 -0.2483033408622678
0.04302629148613192 0.16444635053617174 0.24589307615771902 0.01311638188308682 0.32297605082944925 0.23688401460458877 -0.1328553175534597 -0.034237004205227496
0.14669336834048585 0.17206074290709336 0.4249336799785746 0.7248900829934244 0.5049940297266686 -0.05566469298701121 0.017476795362895113 -0.35973497463685306
-0.5133970393641637 -0.6089001060535286 -0.022429098382809754 -0.05795534846432552 0.12232181765665777 0.344448218277342 0.34123120175821914 -0.06977521299495151
0.22934270790595682 0.05141520274239152 0.07876182269621188 -0.028419161237929768 -0.4640475207550651 -0.4656418435931391 -0.4784516468774182 -0.41664203555942375
-0.20216586799047132 -0.38352469069070066 -0.13835889073846 -0.17100065575965068 -0.23544977943789003 -0.35639564642613264 -0.03766311525451981 -0.041591145028171045
-0.01637766547750502 0.014140204821298706 0.13165471606972518 0.19339512281214966 0.1902206782520843 0.07944677738344966 -0.15328383251676334 -0.5658162721554246
-0.09546128764915784 -0.06802600811408688 -0.056326199797797454 0.05651647091072167 -0.07930444237810819 0.02656966746852596 -0.09132605879796658 -0.362267648752238
-0.7679837347825438 -0.6564098694935677 0.008844704383970522 0.010727464890435204 0.02281688242244479 0.03161891868938617 0.013212516757006569 0.008772649155832911
0.006845373107437508 0.05407518592252412 0.08857691435739388 0.026695835441258992 0.008194661066090023 0.030086232860123588 0.044978675004257465 0.022332431712359692
0.008948979622823818 0.0005494358579240195 0.004137536307539899 0.005479696160383185 0.007995280930855699 0.029450102920737405 0.039761976858246624 0.05212878277292877
0.04649062650688467 0.011622198060413228 0.02196266658372648 0.02276856362492616 0.0032393167276266533 0.010708652628002439 0.05286013849116358 0.09225178815434583
0.04909589702923439 0.030291674756246487 0.007399832910158009 0.012458614353516733 0.004923461551446867 0.011925763693788902 0.002195829815491794 0.0044778950432643365
0.01715146774699299 0.07856724144668846 0.004847832168433635 0.006738346164764666 0.0036627776497820935 0.01922021326301444 0.001505043824762125 0.0029819433409138136
00000000: 085d 2174 85d0 b53f a400 9102 440a c03f
00000010: b429 d1a6 449b c23f 4c67 319d c574 c63f
00000020: 085d 2174 85d0 c53f e657 995f 657e c53f
00000030: 2a62 a988 a522 c63f 701f c17d 04f7 c13f
00000040: 9071 41c6 0519 b73f b429 d1a6 449b b23f
00000050: 74b7 fe64 19bb a13f 4672 08d9 7d2a a33f
00000060: d7b0 0127 b706 8d3f 1204 7cbc d2b5 923f
00000070: 49de 4730 e810 aa3f 9ff2 3702 2f3e b43f
00000080: 3ab4 c251 facf b93f 1b72 fdfb d964 bf3f
00000090: 5fd7 ac10 04ef ba3f 409e d059 ab3d ae3f
000000a0: b100 c963 5858 0440 9692 f989 7a86 0740
000000b0: 7604 1f30 81e6 0840 bebf 832c c480 0840
000000c0: a67b d7a9 0347 0840 8f1f 1cca 3e38 0a40
000000d0: 0d63 8635 8744 0a40 9852 ef3b 5e8e 0a40
000000e0: 38ae 02b0 ef4d 0a40 e68b e953 e19b 0840
000000f0: 3287 409d 0199 d53f b3fc 0b0c 183e d53f
00000100: 081a 39b5 748c d43f 7459 6bed 494c d43f
00000110: 4b0b c5a2 d88f d23f aac8 148a 15d9 d23f
00000120: 8406 bd61 1b46 d33f 0e91 b7c9 31e1 d03f
00000130: e1b2 58c0 3158 cf3f 5fb9 e4e3 3b07 c93f
00000140: e4d1 43d7 f861 d03f 3c31 d322 ba3a d03f
00000150: 9635 8c0a ffb0 cf3f b58e 39a6 0e09 d03f
00000160: 4592 9e46 55b9 ce3f b45b 0ba4 a5fc ce3f
00000170: 9dd6 bcb5 0e31 cf3f 0775 39bf a13c cd3f
00000180: 04db caa9 93c7 cb3f 5c56 e7df 0ccb c73f
00000190: 1fb5 c891 5a03 0140 e726 f835 c0e3 0040
000001a0: ea8c 7b9d 9c72 0140 4318 c212 e9dd 0140
000001b0: 2f0d 7e22 52e2 fe3f 8bff 0af2 d9d3 fb3f
000001c0: ff15 6806 f267 f83f 9431 1692 ea86 fa3f
000001d0: 1b20 96f1 e5c9 f73f aea9 5393 7b0e f43f
000001e0: 0000 0000 0000 0000 6414 7659 01e5 633f
000001f0: 3fc3 ab42 4827 653f e54b b664 0f27 7a3f
00000200: b79c 6b3a 45d2 813f a153 42ba 3fb9 763f
00000210: 8831 1f5e 3cb6 843f e547 2199 413f 803f
00000220: 8f3f 5d33 ff1c 7e3f 2a30 abeb 146d 843f
00000230: 48e1 7a14 ae47 e13f ec51 b81e 85eb e13f
00000240: 6666 6666 6666 de3f 52b8 1e85 eb51 e03f
00000250: 6666 6666 6666 d63f 85eb 51b8 1e85 d33f
00000260: a470 3d0a d7a3 d03f 14ae 47e1 7a14 ce3f
00000270: c3f5 285c 8fc2 c53f c3f5 285c 8fc2 c53f
00000280: 6068 545f 2dca 35c0 3ecb 6c1e 45b4 35c0
00000290: 4b5a 6e87 4302 37c0 1832 c09c bd9d 36c0
000002a0: 26c0 1a87 5f5b 35c0 7da6 7808 80cd 34c0
000002b0: ecd1 febf c0d6 34c0 3576 0bfa 9868 34c0
000002c0: be23 7c17 9b0c 35c0 afcb 8867 0fb4 36c0
000002d0: 7c3e bc69 790b f43f 6ec0 8e99 766c f43f
000002e0: 7768 0307 6522 f63f 10d9 3655 917d f63f
000002f0: 6740 a47e 86bf f93f f06e 58dd a709 fa3f
00000300: b074 ed36 e01c f63f 6136 ed4f e1f6 ff3f
00000310: c860 8c6d 1e4d 0140 9251 6c87 15b4 0640
00000320: e3d4 9a78 57b1 bc3f 2d90 c51e 91f5 9ebf
00000330: 832d 3ad4 758a bebf 65b0 a2b3 25a3 a63f
00000340: a1f8 24ed f98d bfbf 23f3 8087 3fb0 b3bf
00000350: 3e65 eb31 2a2f ccbf ac54 fd9c 8a36 c0bf
00000360: 00ac a9c0 84b7 d6bf a840 741a 3519 d6bf
00000370: b34c 869c b511 dcbf 3905 ca65 c956 e3bf
00000380: 7309 3185 7455 dcbf 8837 6253 e677 d4bf
00000390: 5f90 e1e9 db41 dfbf c912 4c93 d756 d7bf
000003a0: 9975 cdda f83c debf 7e15 ca32 e3ff e1bf
000003b0: 0df1 486f f0e2 debf c207 507d 2796 dcbf
000003c0: 264e b650 d827 e2bf 955b c89c ef17 e5bf
000003d0: f636 2073 9ac2 d9bf 657d 68b8 40cd d8bf
000003e0: eb47 90f1 7b17 d9bf 1adb 9e73 771c c1bf
000003f0: 7b4e ad64 704d b5bf bd8b 13d2 71f2 d4bf
00000400: 9f1c b7e5 f9d4 a5bf 817c 46b8 22fc d4bf
00000410: 9b07 930f 281d d3bf 3571 9522 b50f dabf
00000420: 1014 ac1c 2978 d2bf 309a 3ea2 26e5 dbbf
00000430: f1c6 d389 9d98 d3bf dab9 2d40 dc11 d4bf
00000440: 56af 961d 9a8d d4bf b4e8 b6b5 e257 d7bf
00000450: ca55 575d b57a cebf 2c72 fbb0 4e83 bdbf
00000460: 11d7 da1f fd8a debf 935c bb7d 89d4 e2bf
00000470: 3a4e 7a24 2903 e0bf e6ab c025 6d92 e0bf
00000480: a780 1d16 1627 cfbf 6048 84a8 564b d9bf
00000490: 96fd 6c30 69c4 cabf 158f 9917 bddf c7bf
000004a0: cb96 e8d4 2fc5 e0bf f198 7909 eee6 d5bf
000004b0: 5c69 342a fe79 ccbf 74d8 3e64 67c8 cfbf
000004c0: c229 9ac5 8a07 a63f a8ec bff8 930c c53f
000004d0: c382 34a0 6c79 cf3f 776f d6f9 c2dc 8a3f
000004e0: b809 edbd a3ab d43f a900 d623 3752 ce3f
000004f0: 70f3 fe2d 6701 c1bf 15ba bf3a 8387 a1bf
00000500: f8fe c729 d9c6 c23f 2310 db1f 1606 c63f
00000510: a985 9e08 1d32 db3f f4d8 f4af 4c32 e73f
00000520: cc3d 4b3d e928 e03f 9899 d727 1580 acbf
00000530: 360f 17e2 6fe5 913f 29bb d2d7 e505 d7bf
00000540: 77d5 bda0 bf6d e0bf 9efc 4013 1c7c e3bf
00000550: 8db9 2150 a7f7 96bf f5ab 90cc 52ac adbf
00000560: db30 6c8e 7b50 bf3f 73aa 2a8a 700b d63f
00000570: f948 fb64 bbd6 d53f 0a7f e2d1 c9dc b1bf
00000580: fd1d 0413 1a5b cd3f 9f70 97ec 1753 aa3f
00000590: 0e51 a71c bc29 b43f a3fa 62a0 e919 9dbf
000005a0: 67b4 5b5f f4b2 ddbf 706d 7872 13cd ddbf
000005b0: 1393 03a8 f39e debf 4776 375b 43aa dabf
000005c0: bc79 b137 92e0 c9bf a167 ee24 ab8b d8bf
000005d0: 1d90 6a7f beb5 c1bf 4a87 0a78 59e3 c5bf
000005e0: 98a0 44e7 3723 cebf b891 75af 2fcf d6bf
000005f0: 6f39 9170 9448 a3bf ecfb 653f 6f4b a5bf
00000600: 905e 7186 4ec5 90bf ac37 212a 8af5 8c3f
00000610: f61a f1cd 0fda c03f 2490 d7df 2bc1 c83f
00000620: 4fcd 0eb4 2659 c83f 2a6f a2be 9f56 b43f
00000630: 0720 d5fb cd9e c3bf 4b78 0eba 2a1b e2bf
00000640: f0b7 7ca4 2670 b8bf 809f 2008 276a b1bf
00000650: 9739 14a4 c9d6 acbf b367 7e14 baef ac3f
00000660: 9005 71c2 4b4d b4bf e024 5f33 1435 9b3f
00000670: a551 cf03 2561 b7bf 138a f2a5 642f d7bf
00000680: e407 18a0 5293 e8bf 57e3 4745 4f01 e5bf
00000690: eb55 9320 2c1d 823f 08bd fcf6 47f8 853f
000006a0: b24d 340f 4f5d 973f 325e 69db 5a30 a03f
000006b0: 9c1c f4fa 290f 8b3f 99e6 c909 65f7 813f
000006c0: 937b 01da e409 7c3f bded 1f26 beaf ab3f
000006d0: 3779 5806 faac b63f 856f a330 2756 9b3f
000006e0: 45cb 3eca 5cc8 803f a4ba c6e8 ecce 9e3f
000006f0: 1247 52e4 7107 a73f 0a03 611f 50de 963f
00000700: c133 80b6 d753 823f d394 4085 0001 423f
00000710: 96c4 0772 85f2 703f 4055 d0bc e071 763f
00000720: 147e f670 d45f 803f ef33 a2f3 2a28 9e3f
00000730: 3901 768c ae5b a43f f149 61b2 9fb0 aa3f
00000740: 57d2 d590 9ecd a73f 8feb 9d04 61cd 873f
00000750: 4119 d79a 617d 963f b974 9570 a450 973f
00000760: d264 02ed 5689 6a3f ef6b 9206 6bee 853f
00000770: a4c4 29ec 7b10 ab3f ddd4 1e2d d09d b73f
00000780: 0879 37f0 1823 a93f fc34 ade1 c704 9f3f
00000790: 8b17 8585 494f 7e3f 5659 9de9 e683 893f
000007a0: 1395 8ba5 9f2a 743f 2570 5be8 886c 883f
000007b0: bd03 d827 fdfc 613f 7579 40cc 6957 723f
000007c0: adf9 3484 2790 913f 1feb 8c94 fb1c b43f
000007d0: 6c30 eb09 52db 733f 9037 8206 ab99 7b3f
000007e0: 3c97 fcc6 6601 6e3f 5313 8cad 76ae 933f
000007f0: e4db 6880 9ca8 583f c486 16a4 966d 683f
