feat_pickles/3267_B_44.457625_44.627625.wav.npy (npy, 1440 bytes, 1 tensors)

array (column-major) f8 [5, 34]
0	0x3fd1cdf4737d1cdf	0.2781954887218045
1	0x3fd00a44029100a4	0.2506265664160401
2	0x3fcb44a6d129b44a	0.21303258145363407
3	0x3fca4e469391a4e4	0.20551378446115287
4	0x3fc80f6603d980f6	0.18796992481203006
5	0x3fa5381d2b06ce1b	0.04144374037005268
6	0x3fb2c47525ee8273	0.07331020523134572
7	0x3fa9a1e9a1ab2dbf	0.050063420281357456
8	0x3f970be5d5e8891c	0.02250632398693951
9	0x3f83465e6c96fbed	0.009411561669251578
10	0x400206c6c50703e8	2.2533088104978454
11	0x400988a08498be52	3.191712413703308
12	0x40096ee485557a2c	3.1791468064032156
13	0x40080d1c2a52c7f5	3.0064013773453504
14	0x4009fb8403c41945	3.2478103918284966
15	0x3fd77c0259b4efc2	0.3669439197581107
16	0x3fd6163d8ab3b919	0.3451074461471691
17	0x3fd3dd624989415f	0.310387203037882
18	0x3fd02da51e9be23e	0.2527859496035808
19	0x3fcffb9df2ce0cf3	0.24986624103266983
20	0x3fc95deb50c32e72	0.19817868655660537
21	0x3fc9b41dbc883bd5	0.20080920892402668
22	0x3fc86c852c93fb09	0.19081177403128205
23	0x3fc57eab86965405	0.1679281623043211
24	0x3fc80377df92f84e	0.18760584274963538
25	0x3ffdc12023d9f79b	1.8596497917601258
26	0x3ffd744b7c760c0f	1.840892301727539
27	0x3ff76edad1c8d76b	1.464564151259277
28	0x3ff5fb74345e0c6b	1.3738901181793846
29	0x3ff628441bf4bf25	1.3848305789978863
30	0x0000000000000000	0.0
31	0x3f713ed3c598908d	0.004210307344269759
32	0x3f806970823a43a0	0.008013609861593995
33	0x3f81a31fc399b43f	0.008611915737868013
34	0x3f92b614058650f4	0.018272698247145905
35	0x3fe35c28f5c28f5c	0.605
36	0x3fdf5c28f5c28f5c	0.49
37	0x3fd147ae147ae148	0.27
38	0x3fcd70a3d70a3d71	0.23
39	0x3fcc28f5c28f5c29	0.22
40	0xc036e260c968ea5b	-22.884289348711132
41	0xc03601b28b926b3b	-22.00663063358955
42	0xc0378c876d1d583f	-23.548941440262066
43	0xc037dfa65c300829	-23.873632203794987
44	0xc0392a96b7c6daa1	-25.166362272308678
45	0xbfefaf1ab7130844	-0.9901250434561537
46	0xbfd8e15b8bfe73e9	-0.3887547366264799
47	0xbfdefa72799a8f3f	-0.4840360820328335
48	0x3ff55e469edda424	1.3355165677733192
49	0x3ffb1983425582eb	1.6937286940739635
50	0xc003b30779360c90	-2.462416598283717
51	0xc0017560e2af005a	-2.182313700643175
52	0xc0049d09e271429b	-2.5766790095152152
53	0xc0044952738ca01d	-2.5358017947473983
54	0xc001e8feeabed6f8	-2.238767465542761
55	0xbfd55e48caf22ed0	-0.3338796598334115
56	0xbfd10e27dece56b8	-0.2664889980163525
57	0xbfe14cd74e73df70	-0.5406300098684209
58	0xbfec638b0a264d77	-0.8871512602076298
59	0xbfee1e88ab172dd5	-0.9412272779094858
60	0x3fd91bbbb3fde5b2	0.39231770112345565
61	0x3fe5bb95056ecc10	0.6791482072934532
62	0x3fe3ff3e19dca619	0.6249075417628688
63	0x3fd7c78562215e99	0.37155279715578043
64	0x3fc1a1706c652d0a	0.13773923199401167
65	0xbfd178b07c2985e9	-0.27299129605498124
66	0xbf9a6c7451ff7f99	-0.025804345612300137
67	0xbfbec281494583d8	-0.12015541113716155
68	0xbfb1308612ca0809	-0.06714666327209796
69	0xbfcdc9a89d2b9943	-0.23271663355189717
70	0xbfd7834b9610bfcf	-0.36738862662150223
71	0xbfc9891c2968be40	-0.1994967653458719
72	0xbfcf3a95da01bd8a	-0.24397538323271944
73	0xbfdc3ee45efe9f82	-0.44133862759417053
74	0xbfd743a41bdbb7d1	-0.3635034820607617
75	0x3fd947b56719c5fa	0.39500174587655545
76	0x3fd8472a4f3b1ec9	0.3793435834636339
77	0x3fca99d99e49bff3	0.20782013157759102
78	0x3fc7f8cfa8b5fdfa	0.18728061426007497
79	0xbfb298868cdfc292	-0.07263985575969858
80	0xbfe350e8ada67ead	-0.6036265746697232
81	0xbfe08913dc74a236	-0.5167331033490601
82	0xbfd9766e4dae51f0	-0.39785344682721213
83	0xbfd44e0b896573f0	-0.31726349275214627
84	0xbfd4fd5dd62123db	-0.32796426688270025
85	0x3fd750df6bcd116a	0.36431108024068826
86	0x3fdd62cdebb01caf	0.45915554062271274
87	0x3fcc3b65c172fcd1	0.22056266732940924
88	0x3fb241740b558a2b	0.07131123806679145
89	0xbfcdb7a030c2b84c	-0.23216631298913837
90	0xbfa747a488c0ad96	-0.04546846551269394
91	0x3fc41ee73329bc5c	0.15719308851427882
92	0x3fbd6298d4002228	0.11478572059434866
93	0xbfd625bc56ec63aa	-0.3460532044278418
94	0xbfb72096674f0b81	-0.09034099600016356
95	0x3fa00aa9166fae1a	0.03133133314971932
96	0x3fc0178c8341da0c	0.12571865471882437
97	0x3fe080caf24a8219	0.5157217724082016
98	0x3fe077fd9baf427b	0.5146472969737056
99	0x3fc63f5111c0dd63	0.1738072716413895
100	0xbfc40a02d1bd3426	-0.15655551186719768
101	0xbfd26f3709419437	-0.28803802398607864
102	0xbfceb0b7ee936624	-0.23976802014549137
103	0x3fbd3d5ecbfe6715	0.11421768646541992
104	0x3fcbaf52f2e824ed	0.2162879644459176
105	0x3f7b112c0835667e	0.0066081733706028194
106	0x3f7f71732a955c46	0.007676553600808827
107	0x3f8f8aed18554057	0.01540169935711348
108	0x3f9d8806d2d1d8ed	0.028839213006414722
109	0x3f60bea62a5fbebe	0.002044033567464825
110	0x3f66d010d05f2175	0.0027847603223315983
111	0x3f6d3927f6194e6f	0.003567293214283222
112	0x3fa063aca6529250	0.03201045542053704
113	0x3f96cf41c28b398e	0.022274997233404252
114	0x3f396b603cdee863	0.0003878698306568671
115	0x3f5f4e5966fa5936	0.0019107697552605669
116	0x3f42cd66adf1f1d0	0.000573802124463502
117	0x3f3d1629837e1eff	0.0004438258506458264
118	0x3f658324e3b0b707	0.002626010942114901
119	0x3f925d9b68d7c079	0.017935207628341197
120	0x3f8584a97a71c92c	0.010506938981255397
121	0x3f987232000c0ad5	0.023873120549079047
122	0x3f8570b904d028f0	0.010468907794365795
123	0x3f824e7403cbb8a3	0.008938700071180533
124	0x3fa437ef87d92047	0.03948925526907537
125	0x3f5d4f25a9a03897	0.0017888896750295807
126	0x3f7f1ce00501f81d	0.007595896793757742
127	0x3f97937c74023761	0.023023552494627512
128	0x3f937a4baedf02ba	0.01902120833233554
129	0x3f6d8bcdd8fbe7c2	0.0036067028485122507
130	0x3f98ed35967d6dbe	0.024342381773164716
131	0x3f88197dd2ea74c9	0.011767371176853907
132	0x3f4cb6b404884162	0.000876272105474068
133	0x3f7e368f113b8a9a	0.007376250130365714
134	0x3f76811dd6a5aea4	0.005494228893762863
135	0x3f81983c47e72411	0.008591147369672954
136	0x3f79cfd7d99c93cf	0.006301730312576261
137	0x3f5791ef50d5b612	0.0014386021678903832
138	0x3f691cec99b09a6d	0.0030655499554257865
139	0x3f81c9976db8f17c	0.008685286556208587
140	0x3f80a9af026cb9e9	0.008136145841118174
141	0x3f731e734b87cbc9	0.004667711611989264
142	0x3f3edfb7b309e61b	0.00047109827850242016
143	0x3f614bd1399bf676	0.0021113478113637353
144	0x3f8fcac84ae47b65	0.01552349546960636
145	0x3f73ef3f644fff04	0.004866836189648675
146	0x3f528b6d2c1478ff	0.0011318746695177515
147	0x3f5062ce9dd5e8d2	0.0010001199474048328
148	0x3f808288f92e32c5	0.008061475853332731
149	0x3f8a5d89da298944	0.0128737230017505
150	0x3f71cddbc8a33267	0.004346712618098359
151	0x3f821f80507e5fa5	0.008849146324607047
152	0x3f9a96ae5218895e	0.02596542717049865
153	0x3f8f12605ddbece6	0.015171769012786784
154	0x3f58c49226442952	0.0015117099038116266
155	0x3f76f3f5c90f044f	0.005603752230798411
156	0x3f7296edf9a24b33	0.004538468923913896
157	0x3f5e5858cfe5b7a1	0.001852118235173596
158	0x3f69525090dcb10d	0.003091008525094924
159	0x3f74bbe69f2a8ecd	0.005062008730110268
160	0x3f853eb7a4bfbd11	0.010373530116309955
161	0x3f721d283a39292a	0.004422337664048018
162	0x3f3ff498124e3454	0.0004876014011692732
163	0x3f684b279cb85768	0.0029655240703147408
164	0x3fb31b813f5f1537	0.07463844105867144
165	0x3f77f0891d27d367	0.005844626999977765
166	0x3f782aab4c111d86	0.0059000674528485505
167	0x3f86fbc740cc2cce	0.011222416558231887
168	0x3f8199ea264640f8	0.00859435014061248
169	0x3f9515aab0d05d96	0.020590464631906245
