feat_pickles/3379_B_91.707875_91.937875.wav.npy (npy, 2256 bytes, 1 tensors)

array (column-major) f8 [8, 34]
000000 4c 67 31 9d c5 74 c6 3f 6e 6c b9 b1 e5 c6 c6 3f
       0.17543859649122806 0.17794486215538846
000010 c6 05 19 17 64 5c d0 3f cd 40 35 03 d5 0c d4 3f
       0.2556390977443609 0.3132832080200501
000020 d4 7b 51 ef 45 bd d7 3f 55 55 55 55 55 55 d5 3f
       0.37092731829573933 0.3333333333333333
000030 11 4b 45 2c 15 b1 d4 3f 87 83 1d 0e 76 38 d8 3f
       0.3233082706766917 0.37844611528822053
000040 14 03 8b 2c 5d 8d 70 3f 38 65 d8 d8 60 52 89 3f
       0.004041065178797227 0.012364155404656615
000050 49 80 a0 fd 31 81 a2 3f 99 e4 69 47 bb a2 b1 3f
       0.036141931734392126 0.06888933652398278
000060 bb 8f 0a 01 08 a2 b2 3f 6a 03 b1 79 73 4f a1 3f
       0.07278490090771943 0.03380928860179362
000070 46 76 e2 dc b2 30 69 3f 08 f8 0e 0e 5e 5c 2e 3f
       0.0030749791540774256 0.00023163459903047267
000080 aa 26 a6 ea dc 33 06 40 ee f1 04 b4 ff bc 05 40
       2.77532370872071 2.717284590149794
000090 62 96 bb 2d 30 09 08 40 46 80 19 0b 49 2f 0a 40
       3.0044864247200147 3.2730885378987606
0000a0 20 5a 56 d1 58 00 0a 40 08 1d 93 29 15 56 04 40
       3.2501694063642077 2.542032551576657
0000b0 3b b6 43 32 5a e3 f2 3f 19 bc 41 6c 5b 14 06 40
       1.1805059398133284 2.7599400003014236
0000c0 e4 34 b6 aa 0c 8b d0 3f 10 24 52 73 54 33 d0 3f
       0.25848690672940067 0.25313292753031735
0000d0 63 1a ef 0a 3a 99 d5 3f 76 db f4 69 12 96 d8 3f
       0.33747721736691555 0.3841596636515797
0000e0 18 f0 6d 10 3d 25 dc 3f d1 cf 75 5d 4e 2d dd 3f
       0.439772859615688 0.45589026572201613
0000f0 9f 72 c4 1b 14 50 d9 3f 3b 40 db b1 67 c9 da 3f
       0.39551260673196426 0.4185427891616233
000100 9b 35 ab 4a 84 16 d0 3f fb e4 93 ab 79 23 ca 3f
       0.2513743142306681 0.20420761945550922
000110 11 a1 cf c0 91 47 cc 3f 07 12 da 2c 79 1e cd 3f
       0.22093412317850228 0.22749247255355007
000120 56 7b 42 e4 ff ac cd 3f 9e 42 4f a3 0e 70 cf 3f
       0.2318420280980386 0.24560721372701705
000130 ce e8 eb f3 5e 20 cf 3f 4f 8a a0 6a ad d2 d0 3f
       0.24317538175802728 0.26285872853091957
000140 0b 3f 41 f4 93 93 f3 3f 6d 16 3e 4c d3 c1 ff 3f
       1.2235297719198026 1.984820649931318
000150 58 04 a0 36 12 35 00 40 4e 76 ab 74 b1 99 03 40
       2.0259136455138496 2.4500455012155617
000160 c5 39 bb 0f af 66 04 40 20 4d 6e 6d 00 38 05 40
       2.550138590718435 2.6523445653234745
000170 49 85 d3 cf f6 50 04 40 94 29 fe f3 b3 75 06 40
       2.5395332561899164 2.8074721395434583
000180 00 00 00 00 00 00 00 00 18 67 fc 5e b4 e9 84 3f
       0.0 0.010211381100407688
000190 74 ac be 2f 67 dc 7d 3f 14 95 0f 20 36 7b 76 3f
       0.007290270874288674 0.005488597323141126
0001a0 40 d5 b7 0e de f5 70 3f cd 83 d3 90 20 59 72 3f
       0.0041407274361423 0.004479529580948727
0001b0 2e c1 c5 4c 30 95 72 3f 0f 90 d4 da 84 77 72 3f
       0.004536808654265463 0.004508513416372053
0001c0 1f 85 eb 51 b8 1e c5 3f 9a 99 99 99 99 99 d1 3f
       0.165 0.275
0001d0 b8 1e 85 eb 51 b8 d6 3f 48 e1 7a 14 ae 47 e1 3f
       0.355 0.54
0001e0 5c 8f c2 f5 28 5c e7 3f 33 33 33 33 33 33 e7 3f
       0.73 0.725
0001f0 00 00 00 00 00 00 e4 3f ec 51 b8 1e 85 eb e5 3f
       0.625 0.685
000200 24 7e e2 f0 af 22 39 c0 b1 b8 80 e1 df 2c 37 c0
       -25.135497145935133 -23.17529115097631
000210 00 80 05 2f 72 52 36 c0 45 34 a6 48 95 a1 35 c0
       -22.322054804651998 -21.631184139802162
000220 69 34 f5 34 2a d9 35 c0 6a be 96 74 2f 7f 36 c0
       -21.848300275673328 -22.49681786232251
000230 f8 1f 9a cd 92 d3 38 c0 95 d5 bb e1 99 5e 3c c0
       -24.8264587880403 -28.36953554950522
000240 ce 47 3a 2a 6c 5e 03 40 33 17 bc a9 3d d7 01 40
       2.4211047457729142 2.23009808163888
000250 30 b3 6c 43 59 95 db 3f 3b c4 9c 88 ae 41 cd bf
       0.43099052032885066 -0.22856694860959856
000260 46 fe 1c 2d 81 a5 f0 bf e4 d8 a1 49 02 bd e2 bf
       -1.0404063951717872 -0.5855723798875059
000270 63 d6 e4 2b 5b 2f e1 3f ca 0d 7f 29 4e ff d6 3f
       0.5370307786276495 0.35933260013936474
000280 51 fa e0 4d 97 1f d5 3f 87 c6 c5 0b bb 40 f3 bf
       0.33005316357949704 -1.2033033809533735
000290 65 92 2c 18 0c 43 fb bf eb 8a a0 06 4c 5f f1 bf
       -1.7038689560223699 -1.0857658633109917
0002a0 ff 2d 0e 81 b7 ba ed bf 72 69 07 de 94 d1 d2 bf
       -0.9290425797093461 -0.2940418403865329
0002b0 1a a5 94 bf 37 61 cf bf 11 12 3f 80 30 1e d4 bf
       -0.24515435080073972 -0.31434261821803583
0002c0 9b e6 f3 b0 4f ef d0 bf 98 1b e5 24 17 5e d0 3f
       -0.2646064022115781 0.2557428226759213
0002d0 e4 2f 22 4a ab 5b c0 3f 7e 16 e8 6c c9 39 d3 3f
       0.12779751891900937 0.3004020274678182
0002e0 95 ed c8 70 90 89 d4 bf 82 ff bf 4b 68 49 ea bf
       -0.320896253720741 -0.8214608649723092
0002f0 3d 68 9e 6f 3b a2 e7 bf 02 12 b6 ff 74 16 e6 bf
       -0.7385537319235095 -0.6902413362846007
000300 7e af a2 67 3c f8 cb bf 40 91 f4 0f 4d b7 bc 3f
       -0.21851306019140887 0.1121719516709776
000310 2a 8c 89 5c 34 1a a9 3f 50 89 01 ec 67 d1 d1 3f
       0.04902804975133564 0.2784061245676144
000320 6d d2 b4 97 e8 30 bf bf 57 f6 2e 3b d2 bf b5 3f
       -0.12184003547447171 0.08495820946606024
000330 10 70 e1 27 98 ad e3 bf 1c 6e 99 92 17 e2 de bf
       -0.6149407175939832 -0.48254956547109074
000340 ea 4c 4d e2 16 ee d0 bf 37 69 66 e1 dc 4a dd bf
       -0.2645318231563595 -0.45769426357005066
000350 59 5e 7c af 41 4d d5 bf 3f c2 f8 eb 8d 41 c7 3f
       -0.3328403676727923 0.18168806097084375
000360 c8 cb a8 4a 62 72 e1 3f 19 f0 d8 08 66 bd ea 3f
       0.5452128847303976 0.8356199429322287
000370 36 b7 2b 60 70 6d dc 3f dd ef b8 36 d5 53 c2 bf
       0.4441796244781132 -0.1431833760451572
000380 4d a0 73 db 19 b9 d0 bf d9 dc 1e d7 d4 cc a5 bf
       -0.26129766875101695 -0.04257836462005011
000390 e7 51 d7 ef bd 90 91 3f f9 0c 80 ac 31 42 96 3f
       0.01715370918630468 0.021736885217262778
0003a0 31 a3 88 d7 38 0c b5 bf 64 7e ea d1 93 b5 e0 bf
       -0.08221774351171686 -0.5221652126237584
0003b0 f8 59 f6 39 15 a7 d7 bf 94 52 50 70 7e c2 e1 bf
       -0.3695729318655192 -0.5549919313076139
0003c0 bb 44 2e 10 75 f3 c5 bf 31 29 bd 39 a4 33 d4 bf
       -0.1714922265059949 -0.31565194738927277
0003d0 19 44 75 ce 80 af d9 bf a5 25 88 51 a6 b9 e5 bf
       -0.4013368622009366 -0.678912314645619
0003e0 09 fd 35 8a 28 f4 cd bf a9 e7 2d 8f 50 e8 cb bf
       -0.23401362179354404 -0.21802718154122872
0003f0 22 46 30 27 a3 2a de 3f 50 bb 22 b2 20 ca d5 bf
       0.4713523752880936 -0.3404618968588027
000400 3c 8b 9e b2 e0 09 a4 bf f2 e0 23 89 61 f1 7a 3f
       -0.03913786106502079 0.006577855109064711
000410 5e 9f c9 59 94 3c b8 3f 76 6a a1 0e 2d 73 da 3f
       0.09467436973647866 0.4132797854305531
000420 da 96 2d b7 44 97 de 3f 53 35 05 c0 73 76 da 3f
       0.47798269165501284 0.4134797454069787
000430 0a 25 e9 69 7e 4f d2 bf 1b 44 9a a7 ca 5a d7 bf
       -0.28610191672176255 -0.36491648070756505
000440 90 b0 7c 1f d9 26 c5 bf ac 0c df 85 f8 ee a1 3f
       -0.16524805104689166 0.03502632745905862
000450 8c 4f 88 a6 60 20 bc 3f 76 04 cc d7 fd a0 d2 3f
       0.10986904206975917 0.2910761458770773
000460 3a 09 1b bd d8 b7 b7 bf 06 35 e2 16 58 5e c7 3f
       -0.09264902703128977 0.18256665341724715
000470 66 0e d5 c1 0a 1f c9 3f b9 7b 9c ff 4c d7 c0 bf
       0.196259827274946 -0.13157045823115057
000480 cd 7b a8 f0 3b e6 d3 bf ba 7a 5c a8 a5 99 b0 bf
       -0.31092737676402465 -0.0648444686926081
000490 f5 fd d3 d0 fc b7 d0 bf 89 44 7c d6 b1 be 8c 3f
       -0.2612297095620016 0.014035596235347352
0004a0 86 10 7a 05 19 e7 c5 bf 1b 4e 0c 50 25 a9 c3 3f
       -0.17111504332945432 0.1535994187221242
0004b0 01 a0 56 cd a8 6d d0 bf 51 cd 1c a7 cb 18 c9 bf
       -0.25669307758880683 -0.19606919917860435
0004c0 53 14 6d 02 bc e2 c7 bf 97 1e 63 80 c5 29 cc bf
       -0.18660688513242238 -0.22002476471810858
0004d0 aa 66 93 01 d1 c2 e0 bf 0b 28 90 31 98 ac c2 3f
       -0.5237813025261933 0.1458921663291338
0004e0 66 f1 59 c2 ec e9 c7 bf 2b b4 6f e5 95 48 e1 bf
       -0.18682631959735402 -0.5401105385950634
0004f0 8c 22 f4 da 68 ac d0 bf 06 e2 ba 67 9e ee c2 3f
       -0.2605230463237056 0.14790706696454964
000500 99 27 99 b3 6f 36 bd bf 50 2c 2b 1b 1e 34 d2 bf
       -0.11411188254092365 -0.28443100598514537
000510 d3 44 2e ad 29 d6 df bf 46 fd 57 69 b1 45 af bf
       -0.49744645988637365 -0.06107859049734059
000520 29 f5 d2 46 56 32 d9 bf 34 0d 3c 98 91 75 e4 bf
       -0.39369732777034244 -0.6393516515094348
000530 d4 d3 40 f4 8d 74 e4 bf 1c 3b 3d 39 47 c0 e0 bf
       -0.6392278452464049 -0.5234714620545193
000540 4e 4e a6 9f 89 4c 94 3f d8 4d 3c 84 62 33 a6 3f
       0.01982321774410272 0.043360785142933345
000550 1b 60 af a6 52 1d 89 3f 19 b5 e4 a1 82 cb 76 3f
       0.012262960159134242 0.005565176279828132
000560 af 43 f6 42 f1 07 94 3f a9 b6 9f b6 f8 b2 95 3f
       0.019561547958406752 0.02119053473136626
000570 64 4c 48 4b 3c b1 9c 3f a1 e1 bb 50 a4 a8 8e 3f
       0.028019849867700578 0.01497009631519647
000580 13 24 de 85 91 a0 72 3f 6b 4a 1e 58 1e cc 72 3f
       0.004547661255750251 0.004589193851546196
000590 aa d9 80 9a f0 05 65 3f 32 b7 ec 30 2d bd 38 3f
       0.002566308907286448 0.0003774867372382417
0005a0 97 a1 7a ab 22 aa 43 3f c2 80 04 b3 d7 cf 6f 3f
       0.0006001157080009364 0.0038832867504795263
0005b0 4a d7 8a 28 ff 32 87 3f 55 ee 0f 1b 1a 0c 83 3f
       0.01132773725963045 0.009300426436303836
0005c0 a8 0f 02 62 da bb b4 3f b1 85 3b 2e ce 98 79 3f
       0.08099141018652622 0.006249242203666781
0005d0 6b 6c b8 53 59 cd 6a 3f 61 36 9e ad 85 99 82 3f
       0.0032717461269960355 0.009081882820989042
0005e0 d5 18 49 62 c5 79 7c 3f e1 3b a4 5f 9a 71 76 3f
       0.006952067404716729 0.0054794340342274326
0005f0 43 56 1b 3b 4b 8c 83 3f ae e6 fe bd b3 2a 91 3f
       0.009544933072372369 0.01676445815221566
000600 2b 7e 74 7a 6c 1c 76 3f ab ea 31 94 94 ab 90 3f
       0.005398200744167118 0.016279527230362117
000610 35 5d 20 f8 19 fc 80 3f 11 ff 75 d7 6a 44 4f 3f
       0.008293345341412997 0.000954200905582044
000620 26 64 d5 fc 96 c9 5b 3f 3d 2d 21 c6 4e 0f 71 3f
       0.0016960119713387372 0.004164989195554467
000630 b5 59 91 f2 f5 fd 75 3f 0c 19 f0 3d cc b9 70 3f
       0.005369148952999604 0.0040834406090708535
000640 3e b4 09 d5 cc 9d a3 3f 8e d0 e8 05 c8 53 81 3f
       0.03831329441604979 0.008460581474629938
000650 5c 13 03 e1 e0 a4 46 3f 77 40 51 54 df 88 48 3f
       0.0006910417596591545 0.0007487383342184146
000660 0c c4 eb a1 be ff 45 3f 1a 68 7a 58 27 03 3d 3f
       0.0006713562796375485 0.0004426928576123382
000670 24 f8 9d f3 59 ef 82 3f 40 a6 6a 0f da 0c 7d 3f
       0.009245589015105145 0.0070923345544229854
000680 04 10 2b b4 86 00 82 3f a1 19 74 6a 2b 2f 7a 3f
       0.008790066121385116 0.006392640679456469
000690 41 01 0f a6 12 6e 76 3f 6c 00 9a 01 ed b6 74 3f
       0.005476067396500917 0.005057264142692568
0006a0 82 36 d2 98 d5 72 81 3f 18 6b 1c 91 39 40 82 3f
       0.008519810415488441 0.008911561718880232
0006b0 a3 22 ca a0 c7 aa 7e 3f 91 15 50 5b 93 a5 9a 3f
       0.0074870870563549545 0.026022245834629813
0006c0 50 59 4c 21 f7 64 81 3f 4e a5 98 c5 8d 70 8a 3f
       0.008493357375794958 0.012909991829547576
0006d0 df 2d 50 bb 10 69 91 3f 92 ce 30 c3 60 10 74 3f
       0.017002355034532953 0.004898431757328974
0006e0 b1 d9 e7 b9 e5 4b 70 3f 5a 4c 77 0e 99 5d 75 3f
       0.003978631370492301 0.005216215016349579
0006f0 1c 12 d0 33 d1 3b 7f 3f 05 9a 32 e8 8c 44 90 3f
       0.007625405499315476 0.01588649909231245
000700 ca 6b 1f d9 ef 28 49 3f 77 e7 d8 6c 0c 18 90 3f
       0.0007678195126986584 0.015716737884055
000710 bd 99 1a c4 db 93 87 3f fd 30 46 71 cc 03 50 3f
       0.011512486383549065 0.0009774681576316107
000720 83 8d 49 b5 c9 10 57 3f 20 bd 6c cb 46 c6 6e 3f
       0.0014078111463725347 0.0037566549975946023
000730 03 2c 67 37 fa 86 7c 3f bd 86 06 f8 51 ff 6e 3f
       0.006964661987193035 0.003783855529221862
000740 5a 86 fe bb 3c e5 86 3f 05 d6 bc 01 5f b6 82 3f
       0.011179422843102294 0.009136907806900582
000750 27 97 f3 0a f8 27 83 3f 94 52 d9 2e f9 c2 85 3f
       0.009353578409399056 0.010625788442817176
000760 35 66 97 33 a5 c0 5c 3f 6d 59 87 04 6c 89 67 3f
       0.0017549145981007434 0.0028731450768006346
000770 cc 30 9f 0c bc ed 70 3f 57 91 ab 2e 61 b3 70 3f
       0.0041329713512363135 0.004077319734936267
000780 d7 4d 02 bc 3b 7c 85 3f d2 07 ce c6 21 f3 89 3f
       0.010490862536506036 0.012670768622914528
000790 bc 91 6b bd b2 91 61 3f 90 73 37 f8 ad 54 6a 3f
       0.002144669629489308 0.003214206489913392
0007a0 d4 fc 0c 95 4e 39 5e 3f 3a 7a fa 49 7d 7f 82 3f
       0.0018447177319130164 0.009032229251997415
0007b0 dc 4d 6d 90 77 87 7b 3f fc 2c 84 2b 09 69 79 3f
       0.0067209883189493745 0.006203685589081017
0007c0 73 56 e4 db 45 04 98 3f 9a 6a 87 53 b4 fe 88 3f
       0.023453799768580596 0.012204560088254813
0007d0 d5 ad 2e d9 8c c0 8b 3f e6 8b ad ea 3a ab b3 3f
       0.01355085408962157 0.07683151463929469
0007e0 cc bc 19 d9 e1 f0 b8 3f 3f 62 b1 62 5f 4d 95 3f
       0.09742557096773224 0.02080296554444971
0007f0 5e 6e ad 63 ce 52 8e 3f 38 2b c3 2d 37 b5 70 3f
       0.014806377808489642 0.004079070608166195
