feat_pickles/3429_B_119.091375_119.57925.wav.npy (npy, 4976 bytes, 1 tensors)

array (column-major) f8 [18, 34]
000000 35 03 d5 0c 54 33 d0 3f 57 08 5d 21 74 85 d0 3f
       0.2531328320802005 0.2581453634085213
000010 f6 80 d9 03 66 0f c8 3f e2 f1 89 c7 27 1e cf 3f
       0.18796992481203006 0.24310776942355888
000020 45 2c 15 b1 54 c4 d2 3f 35 03 d5 0c 54 33 d0 3f
       0.2932330827067669 0.2531328320802005
000030 f4 cd d1 37 47 df cc 3f 06 aa 19 a8 66 a0 ca 3f
       0.22556390977443608 0.20802005012531327
000040 8e be 39 fa e6 e8 cb 3f 4a b4 29 d1 a6 44 cb 3f
       0.21804511278195488 0.21303258145363407
000050 2a 62 a9 88 a5 22 c6 3f e6 57 99 5f 65 7e c5 3f
       0.17293233082706766 0.16791979949874686
000060 80 48 01 22 05 88 c4 3f 7c e2 f1 89 c7 27 be 3f
       0.16040100250626566 0.11779448621553884
000070 c4 52 11 4b 45 2c b5 3f 04 f7 11 dc 47 70 bf 3f
       0.08270676691729323 0.12280701754385964
000080 a0 9a 81 6a 06 aa c9 3f 89 36 25 da 94 68 d3 3f
       0.20050125313283207 0.3032581453634085
000090 77 ba 98 f6 91 40 59 3f db b6 0f 0b 00 10 77 3f
       0.0015412736341990066 0.005630493325026821
0000a0 c3 15 b4 c4 cc a8 a4 3f db 44 d3 00 0f 8a b8 3f
       0.04035034085431335 0.09585660715244464
0000b0 bd 45 c9 c7 14 8f b9 3f 66 d0 29 9b de 22 a7 3f
       0.09983949544518729 0.04518790859302228
0000c0 7c c4 00 5a 26 bb 7d 3f 50 1c a3 9d f6 2b 70 3f
       0.007258558092915309 0.003948176710941345
0000d0 ea 34 d8 62 84 3b 7e 3f ad 40 a9 0d fd 6e 94 3f
       0.007380978711364986 0.01995463748818398
0000e0 4d b7 7b ce ab 7f 96 3f 54 aa 38 17 d2 49 8e 3f
       0.021971401670206437 0.01478923924795087
0000f0 1d 9b 9a 47 ef 80 92 3f ad 33 3f b6 b3 ee 8a 3f
       0.01806997179542257 0.013150600432618587
000100 8a 03 39 7f 66 49 6d 3f 85 5a f0 c5 26 85 44 3f
       0.003575039090521097 0.0006262244531878991
000110 97 df 53 c5 47 ca 26 3f b2 2f 7d ce 33 ac 20 3f
       0.00017387510403188137 0.0001272023430324266
000120 82 3c 18 3e b0 03 09 40 3c c0 17 a5 1d d5 01 40
       3.126800999750743 2.2290604493973927
000130 4a e4 79 d2 4f 78 05 40 e4 b9 54 b0 33 b3 09 40
       2.6837459987114345 3.2125009322983136
000140 e1 56 c0 2c c8 05 09 40 63 c6 f8 fc b0 74 03 40
       3.127823209399921 2.4319782031459893
000150 7b 3b 67 46 f9 aa fe 3f fc e9 b5 69 e8 00 00 40
       1.9167416334273344 2.0004432924881694
000160 56 0b 22 45 95 11 01 40 44 17 88 ef af 56 06 40
       2.1335854912771692 2.792327758160271
000170 e1 1d ce 61 31 24 09 40 aa 30 1b 2d 92 f5 09 40
       3.1426723137881116 3.2449077152178534
000180 e8 b5 74 58 a8 f4 08 40 7a e4 75 62 db 88 06 40
       3.1194617186181297 2.8168246929386074
000190 da 85 84 fe 26 c6 05 40 14 3c 62 5e 91 88 06 40
       2.7217540630524413 2.8166835187653394
0001a0 f5 e2 52 b1 9e a9 08 40 6c 35 78 bf e1 d9 09 40
       3.082822213499066 3.23138761125181
0001b0 91 e3 7a 0a 48 04 d6 3f c4 1d db 6f f0 7d d2 3f
       0.3440113165229884 0.2889367191641805
0001c0 e7 17 e1 9b 78 a1 d2 3f be 80 2d 47 11 d0 d4 3f
       0.29110541555962616 0.3251994319052861
0001d0 b0 8c aa 23 b9 65 d5 3f 38 74 c4 db 20 f0 d4 3f
       0.3343336914351296 0.3271562715688705
0001e0 6e f9 c8 cf 52 5a d3 3f e7 1f 82 42 1a de d2 3f
       0.30238790790089964 0.29480606551123717
0001f0 3b b0 cd bf 44 91 d5 3f d5 d6 2e f5 6b 9c d2 3f
       0.3369914887505307 0.2907972235073946
000200 ed f1 14 15 ea 40 d3 3f 2d d6 c2 63 33 61 d1 3f
       0.3008370595814814 0.2715576624135306
000210 51 ee 52 22 b7 bd d0 3f 76 81 5e eb 8d e0 d0 3f
       0.26157930709789406 0.2637057112242681
000220 75 cf bf 35 2a 17 cd 3f 78 7f d7 3c 4c 16 d1 3f
       0.2272694361159854 0.2669859499128431
000230 17 ce ab 62 9c 23 d5 3f bd 75 3e eb 0f a5 d8 3f
       0.33029851566172524 0.3850745961479694
000240 db 23 55 74 52 0d d1 3f 59 ee 4f 8b d7 5c cf 3f
       0.2664381156978927 0.24502081205706608
000250 c8 42 03 26 82 01 ca 3f 05 3d c4 c1 83 7b cb 3f
       0.203171032486827 0.2147068687558901
000260 8a cc de eb f8 6e ca 3f ee 84 28 8b 4c f1 ca 3f
       0.2065116073332301 0.2104888610347539
000270 bb 5c bd 30 52 3f c9 3f 7d bd c6 f3 bb 6b ca 3f
       0.19724490527980784 0.2064127865137201
000280 a3 e9 7a fb 2c 44 cd 3f 78 0c e8 c4 d3 1d ca 3f
       0.22864305762580014 0.20403525461742666
000290 88 cf c9 34 eb 68 cd 3f 4d 4d d0 19 d3 6f cb 3f
       0.22976436688952284 0.21435011635240145
0002a0 cf 90 2a a4 25 93 c9 3f ce f6 b1 4a dd 2c ca 3f
       0.19980307117396598 0.20449415347314076
0002b0 0f da dc 9e f0 8d cb 3f d9 06 fd 02 0c d9 d0 3f
       0.21526916272132765 0.2632474927123503
0002c0 38 82 c1 0f 0e 7a d1 3f 1d d6 e2 ef 1e 46 d1 3f
       0.27307464159642647 0.2699048369061943
0002d0 75 1c 39 e6 c5 37 00 40 0a 68 e8 69 04 64 ff 3f
       2.027232931726355 1.9619182717347052
0002e0 64 4d 19 f3 a5 b8 ff 3f 16 82 f5 71 7e 82 00 40
       1.9825801368759466 2.0637177374885693
0002f0 70 78 23 7d 5f 33 00 40 2b 49 8e 2f 50 c7 00 40
       2.025084474225018 2.097320910958975
000300 7b 7a 1e ca c9 15 fd 3f e1 a7 96 0d 24 45 00 40
       1.8178193946147576 2.033760172042989
000310 c8 f1 02 26 e6 0e 02 40 9d 2e ff 40 c4 6b 00 40
       2.2572749108933046 2.0526204183459655
000320 76 b9 28 a6 2d 52 00 40 45 34 ff cc be 87 fd 3f
       2.0401261311700933 1.8456409461680476
000330 f6 a9 a6 43 4d 6b ff 3f ff a8 a6 8f 52 28 ff 3f
       1.9636967318170924 1.9473443614356822
000340 ae d2 79 2d 6b 8b f6 3f 2c c4 b9 bb a8 a6 f3 3f
       1.4090377594376764 1.2281882603676975
000350 91 33 db 1b 10 97 fe 3f 60 ef 66 03 3d ea 04 40
       1.9118805969367012 2.614374186114148
000360 00 00 00 00 00 00 00 00 41 2a 92 aa 07 f2 75 3f
       0.0 0.005357770868736512
000370 53 1e 60 73 bd e0 80 3f 8b 0e 27 9e eb 6b 78 3f
       0.008241157611350724 0.005962295896498336
000380 d6 aa 17 e0 bb bc 72 3f 5e d6 11 e6 ba f0 6a 3f
       0.00457452191174453 0.003288617168943727
000390 15 88 10 59 9b c5 70 3f c4 fe a6 20 fa 21 72 3f
       0.004094702556388459 0.004426934300169886
0003a0 db 6e 59 38 21 60 6f 3f 84 fc 45 02 7e 6c 6d 3f
       0.0038300179319728906 0.0035917721854157886
0003b0 5d 63 4f 88 85 81 63 3f de 55 98 8a 7b 28 7f 3f
       0.002381096654499633 0.007606966575186528
0003c0 a4 ed 65 d0 f0 17 81 3f 4a 1d 13 9a a0 b2 6b 3f
       0.008346444473082588 0.00338107459592477
0003d0 1e e4 da b1 a1 f6 7d 3f 27 b7 96 fc 03 91 81 3f
       0.007315284366705503 0.00857737650479924
0003e0 f5 69 01 20 93 b7 7e 3f b6 f5 e1 bd 32 f4 71 3f
       0.0074992892333178756 0.004383276185874354
0003f0 f6 28 5c 8f c2 f5 d8 3f 00 00 00 00 00 00 d8 3f
       0.39 0.375
000400 ae 47 e1 7a 14 ae d7 3f f6 28 5c 8f c2 f5 d8 3f
       0.37 0.39
000410 a4 70 3d 0a d7 a3 d8 3f 48 e1 7a 14 ae 47 d9 3f
       0.385 0.395
000420 00 00 00 00 00 00 d8 3f 52 b8 1e 85 eb 51 d8 3f
       0.375 0.38
000430 00 00 00 00 00 00 d8 3f 00 00 00 00 00 00 d8 3f
       0.375 0.375
000440 ae 47 e1 7a 14 ae d7 3f b8 1e 85 eb 51 b8 d6 3f
       0.37 0.355
000450 5c 8f c2 f5 28 5c d7 3f 66 66 66 66 66 66 d6 3f
       0.365 0.35
000460 f6 28 5c 8f c2 f5 c8 3f 71 3d 0a d7 a3 70 cd 3f
       0.195 0.23
000470 52 b8 1e 85 eb 51 e0 3f 71 3d 0a d7 a3 70 e5 3f
       0.51 0.67
000480 d3 2e bb b1 88 51 3a c0 4d 48 29 9f d1 49 38 c0
       -26.318492038916542 -24.288354823664395
000490 de 02 06 5c 61 63 36 c0 1d de 5f bc b5 e3 34 c0
       -22.388204337565973 -20.889491818814452
0004a0 0b 71 83 f9 52 00 35 c0 6d 9d ea cf fc bc 35 c0
       -21.0012660928633 -21.738232607630767
0004b0 b5 df 6c 78 d0 c6 38 c0 0f 02 14 be 40 eb 38 c0
       -24.776618506031543 -24.918956642040992
0004c0 64 d6 e1 fb 67 d0 37 c0 85 7c 97 16 b4 ec 36 c0
       -23.814086668621158 -22.924622928604112
0004d0 b9 ba 21 aa dd 84 36 c0 c7 25 89 5d fa cc 37 c0
       -22.51900733302566 -23.800695272429746
0004e0 30 dd 5c b6 be 1e 37 c0 a4 f6 84 f4 7a 80 37 c0
       -23.120097539588812 -23.501876146756913
0004f0 96 e8 68 5a d7 9a 39 c0 11 fc 31 50 22 b0 3b c0
       -25.60484852849239 -27.68802357883766
000500 96 51 7c 5f 87 1c 3d c0 c2 a2 f8 e7 b2 36 3d c0
       -29.111440627909893 -29.213667391016095
000510 5a df 75 d4 8d a7 f1 3f 6e 1b a5 41 5f 88 fb 3f
       1.1034067439304267 1.7207939686065532
000520 88 cc 16 a5 04 ff f3 3f 29 36 7a 6b 42 db e8 3f
       1.2497602890769333 0.7767650698821785
000530 ef f0 aa 43 14 4f e9 3f a2 46 18 c4 f7 97 ef 3f
       0.7909032174716496 0.9873007612206559
000540 9d c0 0e 67 1c db f4 3f ee a8 a5 6c 85 88 f7 3f
       1.3034938836754357 1.4708303684261028
000550 7b 3d d7 0a 5a db eb 3f ce 65 3d 62 a7 e2 f8 3f
       0.870526333974268 1.5553354108327428
000560 6d 57 e3 16 ae f6 fa 3f 45 ef 77 95 70 81 fe 3f
       1.6852246183456956 1.9066015089619708
000570 d0 dc 5f 92 f2 64 01 40 c5 ec ff b7 a1 6a 01 40
       2.174290793943875 2.1770662665345264
000580 e5 76 ed 2f bf 89 06 40 65 a6 af b8 10 dd 02 40
       2.81725919192728 2.357942049847042
000590 ed e7 f2 68 58 29 f3 3f b8 d8 20 d5 94 45 e4 3f
       1.1975940799297817 0.633493820444321
0005a0 08 16 c2 13 41 ad ba bf 77 a3 fc f0 71 3e da bf
       -0.10420614941002537 -0.41006134542345
0005b0 c5 71 40 f5 ee 61 f6 bf 6f d4 dc 07 76 17 f3 bf
       -1.3989095287462174 -1.1932277972348648
0005c0 8d 7e 59 49 b6 e1 f7 bf 49 c3 35 59 29 db f2 bf
       -1.4926054825990918 -1.1785062298551614
0005d0 ac f9 3d b8 12 2b fc bf fd 15 28 b5 4d d5 f1 bf
       -1.7605158993679693 -1.1145760609082338
0005e0 ab bb b1 b5 c4 f8 f6 bf 27 b9 5d e3 89 a9 f8 bf
       -1.4357344720299163 -1.5413912660110982
0005f0 69 60 5c cc 34 4f f6 bf d5 6f 03 5f 88 5c f2 bf
       -1.3943374617429305 -1.1475909911596223
000600 df 61 a4 ea 2b ed f8 bf 0d 77 de be 84 5f f5 bf
       -1.5579032102306127 -1.3358199554272148
000610 5a 75 66 0d a4 f5 e2 bf c1 3e d0 4c de 62 d2 3f
       -0.5924854528163153 0.2872844457751676
000620 2b 0c 99 0a 57 63 ca 3f 6b ae 84 69 48 7a b0 3f
       0.20615661637757063 0.06436588836793937
000630 67 28 e1 72 98 2f f4 3f 0d 72 fe cc 13 a2 e4 3f
       1.2616199958306653 0.644784832361951
000640 b0 95 ee 5c 44 95 c1 3f 99 1e 6b c1 67 0d d0 3f
       0.13736776864713596 0.2508181942798529
000650 fa f9 1a cf fe 53 dc 3f be f3 ed ea 48 6a e2 3f
       0.44262666916975457 0.5754742229906851
000660 d8 69 5e a5 8a 0b db 3f a7 25 7b 22 5e f3 e1 3f
       0.42257944249436497 0.5609579728563191
000670 79 ab 62 c2 22 ca da 3f 23 cc ab e9 af d5 c8 3f
       0.4185873888297276 0.194021214577874
000680 3e b0 8c b8 6a 09 cc 3f 8e 81 56 02 d5 2f c9 3f
       0.21903738032540504 0.19677221883922552
000690 bc 3d 92 90 e7 fd ca 3f b1 f6 57 8e dc 87 db 3f
       0.2108735519327477 0.4301673307489678
0006a0 eb d2 50 ee 44 90 b0 3f 71 5c 66 b7 2b 7a d4 3f
       0.06470137422804682 0.31995671186582003
0006b0 77 78 51 78 09 13 d1 3f 23 0a aa 93 a0 9b d6 bf
       0.26678692579105906 -0.35324873371442517
0006c0 b8 81 e1 0d e8 98 c0 3f 49 9d 00 19 37 c1 c2 bf
       0.12966633489396684 -0.14652146073170005
0006d0 f0 b6 0b a2 a7 ca d0 bf f0 85 a0 d8 88 65 d1 bf
       -0.2623690683820845 -0.2718221774576639
0006e0 fd 52 1d 48 03 f7 d1 bf 84 d6 11 24 88 05 da bf
       -0.2807014660113934 -0.4065876343005146
0006f0 c9 0d 85 e5 0c ac df bf b6 7f c0 df 68 c4 d8 bf
       -0.4948761216548659 -0.3869878945424675
000700 da 9f 4b fe 5d a8 d2 bf 1f 14 bd 0d 16 95 de bf
       -0.29152631600891044 -0.47784949628504764
000710 1f c2 92 c7 75 76 d2 bf c5 d4 66 99 9b 1b d6 bf
       -0.28848022927835076 -0.34543504696496213
000720 30 db 98 5f a7 5c dd bf 2d a4 66 c0 ff 3b d4 bf
       -0.45878013930944217 -0.31616205014376214
000730 44 96 f0 fb 07 f3 dc bf 66 64 14 5f d3 d0 ca bf
       -0.45233344653602026 -0.20949785368501067
000740 16 e0 7a bf 9a ee c7 3f 85 7e 19 97 2f 11 51 bf
       0.18696913098915563 -0.001041695093952828
000750 03 b0 73 86 ec e8 d4 bf 34 a7 77 69 9b 75 b0 3f
       -0.3267165482527618 0.06429454159629416
000760 b4 b0 96 9b b2 27 82 bf 18 a3 6e ef d6 24 c2 3f
       -0.008864779828251158 0.14174925509475922
000770 75 da a5 41 98 f9 af 3f eb 19 91 ac 94 72 c1 3f
       0.06245113183370147 0.13630922723878255
000780 53 92 a5 5f 7a ed af 3f ff ef 51 68 c7 5e d1 3f
       0.06235868852198636 0.2714098471403758
000790 30 53 a9 58 3c ea ba 3f 86 64 f3 60 a0 4a ba bf
       0.10513665356240831 -0.1027012097068952
0007a0 98 b2 e8 18 f1 08 bc bf 53 fd 98 2c 1b 7c d2 3f
       -0.10951144083146358 0.28882483821140176
0007b0 02 43 9b 15 d3 30 9b bf de 7e eb 22 73 0a b7 bf
       -0.026553438371425216 -0.09000320055519803
0007c0 6a 1d 69 ff fa dd b3 3f c9 db 79 aa 7a 46 bf 3f
       0.07760590301142192 0.12216917669307671
0007d0 d8 3b 4e 83 96 81 e9 3f 86 82 20 b9 0f 15 e2 3f
       0.7970688404619706 0.565070973945766
0007e0 15 f0 5f b7 26 6a de 3f 1b b0 07 54 41 8d e7 3f
       0.47522895724955677 0.7359930649959127
0007f0 63 7a 1e 49 70 2c dd 3f 65 8b 0e a1 30 c7 e1 3f
       0.4558373178532859 0.555565180362788
