feat_pickles/3467_B_262.476875_262.826875.wav.npy (npy, 3616 bytes, 1 tensors)

array (column-major) f8 [13, 34]
000000 f8 33 e1 cf 84 3f b3 3f f8 33 e1 cf 84 3f c3 3f
       0.07518796992481203 0.15037593984962405
000010 80 48 01 22 05 88 c4 3f f8 33 e1 cf 84 3f c3 3f
       0.16040100250626566 0.15037593984962405
000020 6c b9 b1 e5 c6 96 cb 3f e4 a4 91 93 46 4e ca 3f
       0.21553884711779447 0.20551378446115287
000030 08 5d 21 74 85 d0 c5 3f 90 71 41 c6 05 19 c7 3f
       0.17042606516290726 0.18045112781954886
000040 16 d3 59 4c 67 31 cd 3f 26 fc 99 f0 67 c2 cf 3f
       0.22807017543859648 0.24812030075187969
000050 16 d3 59 4c 67 31 cd 3f 04 f7 11 dc 47 70 cf 3f
       0.22807017543859648 0.24561403508771928
000060 7c e2 f1 89 c7 27 ce 3f 77 17 ed 6f c4 64 61 3f
       0.23558897243107768 0.002123244921139407
000070 b7 fd 4f 7f f3 9d 6c 3f c1 17 aa 11 29 3b 81 3f
       0.003493285732929254 0.00841362080724284
000080 08 e8 21 81 42 a0 89 3f 05 f0 fe c3 00 1e 8c 3f
       0.012512702527818234 0.013729101163214361
000090 6d 8d d4 af b9 50 90 3f 5a 54 bc 29 51 eb 8d 3f
       0.015932942730740352 0.014608987890406922
0000a0 f1 5b dd 42 65 5a 90 3f 7b 6a 41 0a 2d cb 97 3f
       0.01596983166322369 0.02323599219412607
0000b0 f7 c6 97 78 43 85 9b 3f 9a 9f 56 0d e4 08 9a 3f
       0.026875547633557564 0.02542454081927268
0000c0 71 0a fe ac af d0 9f 3f 2c fa 43 47 c5 de 9d 3f
       0.031069512303938788 0.029170114969924096
0000d0 53 3c d8 f5 42 c0 04 40 b3 96 12 77 69 00 04 40
       2.5938777166952973 2.500201158766538
0000e0 30 6a a5 5d a8 af 06 40 53 e2 ab 71 90 c2 09 40
       2.835770351038512 3.2200020676212175
0000f0 b2 11 ae fb 50 d0 09 40 07 9d 89 b4 f4 55 0a 40
       3.226716963052433 3.2919706444259904
000100 85 91 c9 74 b5 5c 0a 40 04 46 c2 ea 57 cb 08 40
       3.295267975236302 3.0992887821710173
000110 33 9c 11 04 11 dd 08 40 d6 2f 88 33 1d 4c 08 40
       3.107942611491603 3.0371650720535213
000120 13 c6 3e 5e 9b 38 08 40 1e 04 7a 2c 8c 6e 08 40
       3.027640091219618 3.0539782976852754
000130 d5 3c 25 da 18 2b 07 40 b6 d1 b9 e4 39 91 cf 3f
       2.896043495427515 0.24661945026640603
000140 b2 d3 1a 15 c2 0f d0 3f b4 3f a9 e5 b7 47 cf 3f
       0.2509618002034656 0.24437617029115943
000150 4e 05 4b 3c 4d 00 d1 3f ab c8 cc 6a 1d 79 d2 3f
       0.2656434143828691 0.2886422675102362
000160 fe 66 92 35 46 ac d1 3f 99 1a 25 ba 38 15 d3 3f
       0.2761397860682421 0.29817026308266176
000170 5f 1e 23 7e 2d 77 d3 3f ad 8d 91 61 7a 6e d7 3f
       0.30414902990421483 0.3661180451219604
000180 ce 09 4a a0 21 49 d6 3f 7b 0a c3 ef 00 4e d5 3f
       0.34821358350032205 0.33288596548315014
000190 74 df 5a 81 42 13 d4 3f 80 80 a6 a4 0a 37 d4 3f
       0.3136755240661764 0.31585947112217383
0001a0 b3 43 c7 80 d0 0e d0 3f 2c b7 c0 cb e6 f2 cf 3f
       0.2509042031861625 0.24960026692263548
0001b0 11 18 36 d6 14 61 ce 3f ab f4 70 09 a3 ef ce 3f
       0.23733768901382793 0.24168813668248865
0001c0 fa 9f cf f7 1d 2e d0 3f e9 9c c3 92 c9 a0 ce 3f
       0.2528147621183049 0.2392818419095655
0001d0 bd 2a 46 f2 c3 86 d0 3f 8d e2 a3 a4 77 28 cf 3f
       0.2582254281957537 0.24342246569701267
0001e0 9d 28 d4 d1 08 8b d0 3f de f7 f8 fc f4 d9 cd 3f
       0.25848598948562956 0.23321401931929037
0001f0 12 c8 17 8a 8f d9 cd 3f 0c e9 4d 82 61 99 ca 3f
       0.23320192568604675 0.20780581343189686
000200 0a dc 96 da 71 31 c9 3f 42 f6 4d 6b 3b ce f3 3f
       0.19682143376641675 1.2378496352752255
000210 93 04 f2 ae 8d 28 f7 3f 38 3b b9 64 ab cc f5 3f
       1.4474007448009487 1.3624681410326058
000220 3e c0 62 0c 3e e8 f5 3f c9 7c 66 f9 98 75 f5 3f
       1.3691997989481162 1.3412103407097666
000230 4d 66 f5 49 1a 4e f6 3f 0f 1f 36 cd 90 71 f7 3f
       1.3940680397994527 1.4652259841986426
000240 79 a0 c2 b4 12 33 fd 3f 48 6d a3 9e 69 19 03 40
       1.8249690113971424 2.387408484804528
000250 75 1b a4 b4 c3 d7 03 40 98 07 9e 60 c3 53 03 40
       2.4803537476140556 2.4158999965884043
000260 c5 20 77 ad 77 6e 02 40 5f 37 d5 49 1f ff 02 40
       2.3039392044048292 2.3745713966554116
000270 00 00 00 00 00 00 00 00 5c 97 f4 f7 7e 3f 7b 3f
       0.0 0.006652351351737664
000280 de 05 97 96 ea 38 86 3f ec e5 e0 b5 59 1b 74 3f
       0.010850746842041067 0.004908895904060167
000290 5c 15 f0 b1 25 96 87 3f be 93 66 17 06 fd 80 3f
       0.011516851895076279 0.008295104588634913
0002a0 9f b4 15 f4 ad 79 82 3f 3d 79 08 8a df 65 87 3f
       0.009021147738815847 0.011424776458679115
0002b0 62 26 e1 25 ed ba 7a 3f 03 ba 1e 3f 1d b5 6c 3f
       0.006525923117871453 0.0035043307516027257
0002c0 89 c0 40 70 00 fb 61 3f 4e 19 7c bd 99 ee 6a 3f
       0.0021948822559566023 0.0032876017320432665
0002d0 e6 85 84 ac 1c ca 75 3f 1f 85 eb 51 b8 1e c5 3f
       0.005319702155504901 0.165
0002e0 1f 85 eb 51 b8 1e c5 3f 66 66 66 66 66 66 c6 3f
       0.165 0.175
0002f0 66 66 66 66 66 66 c6 3f 66 66 66 66 66 66 c6 3f
       0.175 0.175
000300 ae 47 e1 7a 14 ae c7 3f ae 47 e1 7a 14 ae c7 3f
       0.185 0.185
000310 29 5c 8f c2 f5 28 d4 3f 8f c2 f5 28 5c 8f e2 3f
       0.315 0.58
000320 f6 28 5c 8f c2 f5 e0 3f ae 47 e1 7a 14 ae df 3f
       0.53 0.495
000330 7b 14 ae 47 e1 7a dc 3f 33 33 33 33 33 33 db 3f
       0.445 0.425
000340 5d ac 43 a9 07 06 3b c0 ac f6 25 4c 42 b7 39 c0
       -27.02355440046482 -25.71585536887021
000350 f8 05 22 7c a3 88 38 c0 fb d5 ac eb 04 52 38 c0
       -24.53374458151481 -24.320387582489257
000360 28 b6 35 25 cc 30 38 c0 1f 1b e1 8f 49 c5 37 c0
       -24.1906150108463 -23.770653717477327
000370 61 10 97 84 81 7b 38 c0 55 51 3a a9 c7 fa 36 c0
       -24.482445036774497 -22.979609085786553
000380 fb 4c 65 a5 f4 f7 35 c0 8f 85 ef 71 76 ad 35 c0
       -21.968576752883546 -21.67758857820223
000390 c8 8b e2 34 5a b6 35 c0 f4 a6 86 a1 0a be 35 c0
       -21.71231394320401 -21.742349715589583
0003a0 37 7b 34 13 29 1b 36 c0 ee 0a 67 4f 77 72 04 40
       -22.10609550505907 2.555891628582109
0003b0 a9 d4 2a d3 31 2d 05 40 d1 65 69 b2 5c b8 05 40
       2.6470676896520513 2.7150205553450424
0003c0 02 8a 1c 66 60 6b 01 40 7a 50 2b 77 e7 41 00 40
       2.177429960008568 2.0321797666638846
0003d0 87 ea 1c 2c df 07 01 40 6a 6a b9 ac 04 7f fe 3f
       2.1288436361622334 1.9060103175203502
0003e0 4b 92 58 65 8b fc f9 3f 04 41 af a1 a3 ec ef 3f
       1.624156375773185 0.9976366193677966
0003f0 5a 16 b9 00 c0 07 ea 3f 4f 30 c1 7d 17 f8 f1 3f
       0.8134460462685624 1.1230692779818303
000400 21 82 0c 42 87 e5 f1 3f 6a 2c c4 5a 65 08 ed 3f
       1.1185371952088945 0.907274892118392
000410 9b 0a 36 48 69 21 d5 bf 08 1b 94 bc b2 8a c4 3f
       -0.3301642613588826 0.16048273284851455
000420 85 b4 70 69 70 e1 99 3f 51 a2 40 50 55 58 db bf
       0.025274044452249917 -0.4272664340701669
000430 cc ff 25 f7 6b b2 c2 bf ad df c0 9e b8 da e0 bf
       -0.14606999938769005 -0.5266993618633841
000440 bf 86 a6 59 f0 2a a3 bf 7a 47 08 d4 89 82 e1 bf
       -0.03743697256437661 -0.5471848622566846
000450 e6 d0 0d 4f 38 ed dd bf b5 e3 35 1f 3a 53 e5 bf
       -0.46760375709642543 -0.666409550626773
000460 d1 8e 68 39 07 f2 e3 bf d1 4b 98 22 99 24 f0 bf
       -0.6232944604166396 -1.008935103546481
000470 cb 89 4f 30 c2 56 f2 bf 31 38 48 b0 fc 16 ef bf
       -1.146181286538751 -0.9715560381898795
000480 ef 63 3b d0 92 da f0 bf ce 6e 24 18 ac 5b f5 bf
       -1.053362668424821 -1.3348809187945565
000490 b1 4c 01 0f 6b 06 fc bf c0 66 b0 cc bf 23 f4 bf
       -1.7515669428001213 -1.2587278361956322
0004a0 4d 11 2a 17 23 d7 fb bf a7 d4 4f 88 2b 22 f9 bf
       -1.740023699269915 -1.5708422970467752
0004b0 cd 1a 67 53 dd 6e f1 bf 56 15 1d 11 dc b5 e1 bf
       -1.0895665414733913 -0.5534496626138814
0004c0 8c cf ea f6 26 41 da bf 89 99 75 ec fa 2f b7 bf
       -0.4102265750218457 -0.0905758693021196
0004d0 df 8a a7 14 be a0 ce 3f 8c cd 7e 84 b0 58 e1 3f
       0.23928047188299836 0.5420763576316161
0004e0 b9 8b cd 24 81 91 b4 bf f4 29 23 19 fe 4c c7 bf
       -0.0803452219820845 -0.1820371268025408
0004f0 67 1d c6 45 5e fa ba bf 56 a8 e6 9f ed d4 c6 bf
       -0.10538281634773271 -0.17837305362383188
000500 e9 6e 71 dd b9 ed db 3f 99 39 71 56 11 ee d3 3f
       0.4363846457033405 0.31140550080899626
000510 4f 9a c7 df 9e 49 e1 3f fe 6a 56 fa 91 40 cf 3f
       0.5402368899056657 0.2441580269195
000520 0c 4e 32 63 1d d5 d9 3f 9b 57 8b 1e 94 19 a9 bf
       0.4036324948039869 -0.049023274162819784
000530 9e d1 31 dc 5d 0d a6 bf f0 7e a3 23 3e 82 d6 bf
       -0.04307072937891408 -0.35169938545548884
000540 65 a6 cc 72 e3 03 dd bf 11 58 bb 5c 53 2b a0 bf
       -0.45336233340149185 -0.03158054835300573
000550 84 6d 41 82 46 67 cc 3f 0f f4 86 08 63 2a ca 3f
       0.22190171585212337 0.20441854397168455
000560 cf 7c 77 04 c8 58 82 3f b1 30 9a d3 b3 c7 db 3f
       0.008958399425806366 0.4340638700894131
000570 64 f9 08 c3 02 5e d3 3f 5f 9b 7c dd 9f 25 de 3f
       0.30261296316520814 0.47104641561093347
000580 44 2a aa 71 86 17 b9 3f 12 bf 89 f6 ba 7c c0 bf
       0.09801521563546439 -0.1288064674185923
000590 22 e3 e6 6a 51 f8 c6 3f d7 e4 b9 97 9c 60 cf 3f
       0.1794530651075315 0.24513585480216335
0005a0 7d b5 c2 b2 82 b9 c0 3f 0d 85 8c 46 8d 95 c4 3f
       0.13066133240264924 0.16081396050234567
0005b0 8e 1c d6 46 3d 75 e2 bf 65 e0 28 d3 52 3d c1 bf
       -0.5768114455721773 -0.13468394575625378
0005c0 8d 43 8d 54 1f 1c 7e bf a6 11 43 7a 79 04 cc bf
       -0.007351038345249428 -0.21888655156921039
0005d0 44 5d e5 77 a1 e0 81 bf 24 46 cc 3f e9 1a cd bf
       -0.008729230376657633 -0.22738376250394865
0005e0 37 ed 34 9f 89 1f da bf 55 c9 b5 2c 76 ba e8 bf
       -0.4081749014619222 -0.7727614281887251
0005f0 ef bd 97 49 3c e4 e6 bf 37 d4 0f 32 ec 44 e6 bf
       -0.7153607785566559 -0.6959134080667643
000600 ea 7f 17 25 c5 34 e4 bf f8 29 d9 8e 43 69 d2 bf
       -0.6314416622590191 -0.2876747984888932
000610 d6 c5 63 7c 44 10 c1 bf 5a d7 dd d6 fa 06 e2 bf
       -0.13330894540517474 -0.56335203138472
000620 24 6f b8 9b ec 94 d9 bf a6 11 a4 e8 5e 7e d2 bf
       -0.39971461493563454 -0.2889630576976522
000630 55 b6 3a 3e d2 66 d1 bf 57 6e 28 90 29 90 b9 3f
       -0.2719007117947048 0.09985599297982027
000640 8e 7f 17 de 58 87 cb 3f 43 ea 3e 67 5c 4d 94 3f
       0.21506796688390434 0.019826358605977267
000650 19 a6 8a 1f 97 fd c1 bf 4c 29 87 87 91 d1 be bf
       -0.1405514625560478 -0.12038526114262033
000660 b2 a4 20 83 0f dd c8 bf 8c 6c 24 cf 76 e0 d0 bf
       -0.1942462339659748 -0.2637002013086167
000670 1a af 3d 62 ba 45 e3 bf 1a d3 64 8f 84 92 e8 bf
       -0.6022617262619605 -0.7678854752217348
000680 5d cf 39 99 de 07 cb bf e0 54 df 33 bc a7 d2 bf
       -0.21117765886048803 -0.2914877420965478
000690 ac a5 d8 50 99 65 dc bf c3 9b 22 12 fa 65 e3 bf
       -0.44370110411781627 -0.606198344631473
0006a0 cd a7 f6 d0 f8 d3 df bf f5 c0 f3 50 66 d9 ce bf
       -0.4973127403887901 -0.24100951149694763
0006b0 08 95 14 f8 d4 b1 d7 bf b4 b6 78 8f 5d 97 d9 bf
       -0.3702289984378955 -0.39986361513988844
0006c0 c6 59 86 37 bc 30 e2 bf 30 e7 9f dd 4a e3 db bf
       -0.5684491238087552 -0.4357478298476165
0006d0 67 85 8a 91 fd 07 d4 bf 8e 81 7c 6a 89 6c c0 bf
       -0.31298770153997285 -0.12831227969674014
0006e0 38 19 c6 d8 35 98 cc bf 79 d3 df 97 17 40 e7 bf
       -0.22339509091052334 -0.7265737501426052
0006f0 32 1b b5 ea 9f a9 cf bf a7 5b ed 66 fb a9 bd 3f
       -0.24736403427433512 0.11587497008200263
000700 93 d1 9f 2f 91 b1 aa bf 7e 27 db 32 14 51 ab bf
       -0.0521359797129747 -0.05335295792390492
000710 e9 0f 86 90 8f e5 c5 3f fa 26 80 3f 80 f8 be 3f
       0.17106813961811376 0.1209793238669156
000720 2c 06 ca 1b bb 69 c6 bf 3a 86 fb 31 eb 97 b1 bf
       -0.17510165078060547 -0.0687243458774213
000730 9b d0 cc 11 a8 90 d9 bf 86 6d 27 8c 2c 41 d6 bf
       -0.39945413339888497 -0.3477279061023285
000740 1f 86 f4 54 a3 e5 dc bf f5 2c b0 06 dd 96 e0 bf
       -0.4515159921303126 -0.5184159403446801
000750 15 7a c5 97 27 47 e8 bf 0c ce 26 75 ed 3c e3 bf
       -0.7586858715329209 -0.6011874473683192
000760 78 47 d0 3e 40 87 e0 bf 60 bc d9 0a 5d 17 e2 bf
       -0.5165101267650547 -0.5653519832539011
000770 74 90 0c 82 69 29 cf bf 79 72 20 f2 15 33 c1 bf
       -0.24345129823734946 -0.13437151262850813
000780 c9 70 58 95 78 77 c1 3f ce f3 d3 dc 4f ae cc bf
       0.13645846645602536 -0.22406957895864682
000790 73 30 16 0c 6a 39 a7 bf 5b 9a 7f aa d1 5b ca 3f
       -0.04535991094152871 0.20592709374541837
0007a0 2e d3 41 b2 1d fb db 3f 74 e5 1f 61 f3 3c de 3f
       0.4372019043724319 0.4724701355440495
0007b0 a6 b8 08 c0 61 22 d2 3f 87 96 43 03 d8 99 e1 bf
       0.283348500760335 -0.5500297607183747
0007c0 55 ab 03 f4 d4 75 d2 bf 97 fb 3d 47 e9 5c c2 bf
       -0.28844188527607645 -0.14346042612666274
0007d0 21 cf 88 55 4e 93 c1 bf ba 3a 39 ed 19 ee c1 3f
       -0.13730792213902368 0.14007877429181353
0007e0 27 60 12 19 24 d4 ae bf f3 30 49 07 ee 97 42 bf
       -0.060212257442970256 -0.0005674278496115278
0007f0 85 23 90 6c 11 04 e0 bf 5b ac 30 71 5b 02 d1 bf
       -0.500496589696113 -0.2657688718197215
