feat_pickles/3557_B_226.1625_226.71525.wav.npy (npy, 5792 bytes, 1 tensors)

array (column-major) f8 [21, 34]
0	0x3fc957e655f9957e	0.19799498746867167
1	0x3fc57e655f9957e6	0.16791979949874686
2	0x3fc435e50d79435e	0.15789473684210525
3	0x3fc957e655f9957e	0.19799498746867167
4	0x3fc76b25dac976b2	0.18295739348370926
5	0x3fc8618618618618	0.19047619047619047
6	0x3fc8618618618618	0.19047619047619047
7	0x3fc6c6e5b1b96c6e	0.17794486215538846
8	0x3fc5d08574215d08	0.17042606516290726
9	0x3fc4da2536894da2	0.16290726817042606
10	0x3fc1f7047dc11f70	0.14035087719298245
11	0x3fc00a44029100a4	0.12531328320802004
12	0x3fbaf286bca1af28	0.10526315789473684
13	0x3fb52c454b1152c4	0.08270676691729323
14	0x3fb152c454b1152c	0.06766917293233082
15	0x3fb00a44029100a4	0.06265664160401002
16	0x3fb00a44029100a4	0.06265664160401002
17	0x3fb1f7047dc11f70	0.07017543859649122
18	0x3fb3e3c4f8f13e3c	0.07769423558897243
19	0x3fb33f84cfe133f8	0.07518796992481203
20	0x3fc00a44029100a4	0.12531328320802004
21	0x3ef629b311a5a0ae	2.1136177659115164e-05
22	0x3f38410f99958bce	0.0003700888715540391
23	0x3f65abba29d5c8e4	0.002645362472940881
24	0x3f82067ede688414	0.008801451837884534
25	0x3f99a83bcb59b6e9	0.025055822645689316
26	0x3fa39525b932e3ed	0.03824727903106138
27	0x3fa41165c1c4224f	0.039195232298940945
28	0x3fa29126a2e5d2c3	0.03626366365907565
29	0x3fa04036329babc8	0.03173989646696601
30	0x3f9db48471d50012	0.029008931586986426
31	0x3f9dfca52297eea8	0.02928407691614035
32	0x3f9ad133d4e266e4	0.02618866907923846
33	0x3f9405373e7e1631	0.019551146687737556
34	0x3f8940e15d76fee1	0.012330780663318776
35	0x3f7bd288273fa6b3	0.006792575692068747
36	0x3f7764cc80a7e4ba	0.005711363638050299
37	0x3f739fd50e84b93a	0.004791099789413439
38	0x3f66d01aa0176098	0.0027847785974977717
39	0x3f45724b4c3d840a	0.0006544940629106277
40	0x3f0189d1e4e2a88c	3.3451765021412066e-05
41	0x3efa56a09f6246d1	2.5118244558592157e-05
42	0x4009ca7ff96a6b46	3.2238769040681374
43	0x4001d7c0f48e872c	2.230348501777277
44	0x3ff8bc4811b3612c	1.5459671679910327
45	0x3ffa2a09b248d981	1.6352631534806223
46	0x4002798c79c8cbbc	2.309349967422774
47	0x4007b48557e5e55b	2.963144957259528
48	0x4009756308db731a	3.1823177997561176
49	0x4008d4c1cfea92d5	3.1038852923833056
50	0x4008fce93c83290a	3.1234917380835485
51	0x40090bbaf4476d24	3.1307276806161486
52	0x4008f3d772f27682	3.1190632801288425
53	0x40090951bd02c0cc	3.1295504347291168
54	0x4008af74b0a45d56	3.0856717872772306
55	0x4007e6d4c6bafbeb	2.9877105260670667
56	0x40090c3d05f593dd	3.130975767666753
57	0x400a206a1362b362	3.2658273233886783
58	0x4009daec106b4cd2	3.2318955691094766
59	0x4006d823ae395af5	2.8555368052724313
60	0x3ffeedc5399051cc	1.9330494164070045
61	0x4009633e7d2bea80	3.1734590319659333
62	0x40084c35a91643ba	3.037211724273644
63	0x3fd393839630aaf4	0.30587854067805087
64	0x3fca63e8103ed0aa	0.20617390435439137
65	0x3fd00bddbaaaacd4	0.25072425107164276
66	0x3fd106ad169c5d85	0.2660324784096349
67	0x3fd0c3e70b1e9221	0.26195694051628676
68	0x3fd0a90b9da2968e	0.2603177108197564
69	0x3fcfed56ab3ee2b8	0.24943049775699477
70	0x3fcee6d31ea3a6fe	0.24141921039636566
71	0x3fcdcc0d90c89a77	0.23278970307838495
72	0x3fcf8e86df426a39	0.24653707410182493
73	0x3fcc5c20a66fb086	0.22156150938770142
74	0x3fcc0b916a830650	0.21910302830478878
75	0x3fca40b752f48178	0.2050999789289667
76	0x3fca78433c5ecb9f	0.20679512450950896
77	0x3fcbb1f53e847ced	0.216368346716059
78	0x3fcc03021dba6399	0.21884180499617115
79	0x3fccff55c5851f17	0.2265422071889069
80	0x3fcbd40653b85d9c	0.21740798080348334
81	0x3fcc6b2dc0c1d6a1	0.22202083503696193
82	0x3fd5b48a32fd80d0	0.3391442773772839
83	0x3fd35874084dc637	0.30227375803869755
84	0x3fce871dab7e19ae	0.23849840997372723
85	0x3fc70bf9171d2c23	0.18005288723574706
86	0x3fc597e7a575b837	0.16869826869100432
87	0x3fc6034a1986eb12	0.1719753861087488
88	0x3fc6710d547f7c97	0.1753250753963342
89	0x3fc704fc5312ebcd	0.17983964973777092
90	0x3fc68cc2807d6ca6	0.1761706473724633
91	0x3fc6c0b10f05158e	0.1777554820384179
92	0x3fc5968b3cb537d6	0.16865673507930862
93	0x3fc7ed4cb3e44c0f	0.1869293096902713
94	0x3fc56fd8c4eb5f97	0.167475792076172
95	0x3fc6724e9bbe7ffa	0.1753633747548518
96	0x3fc6cc5eb410949d	0.17811187545990928
97	0x3fc768aeb7fee55b	0.1828821562210504
98	0x3fcb9742d1e52c00	0.2155536198500556
99	0x3fcda362f4ac99a4	0.23154866168006294
100	0x3fcde5ba492d042f	0.23357323239363967
101	0x3fcdab5e752119f5	0.23179226607517447
102	0x3fcfcb2e5b01861d	0.2483880943646434
103	0x3fd305db447af4e9	0.2972324532273221
104	0x3fd254988ff3037d	0.28641332681223003
105	0x3ffaf6b4c4dfe6e3	1.685230988542053
106	0x3ff754818d75d10e	1.458131363467206
107	0x3ffa77aaf9651761	1.6542157880771458
108	0x3ffb7143d71ff873	1.7151525882068455
109	0x3ffc54dfbe4bd394	1.7707211907811358
110	0x3ffd94ac80d4b605	1.8487973244149327
111	0x3ffea259095202a9	1.914635692985181
112	0x3ffdae9a23164ff8	1.8551274653045748
113	0x3ffd9ad982c1de88	1.850305090685568
114	0x3ffd55169bd66c3b	1.8332735145002192
115	0x3ffc3ac2eaf32f15	1.7643460443241044
116	0x3ffb957b67e1b817	1.723994642055464
117	0x3ffa79e3a4587ad7	1.6547581119299843
118	0x3ff770aa950690f8	1.4650064297975955
119	0x3feb8f9fa83e8338	0.8612821851748782
120	0x3fe19be8dcf436b1	0.550281936217024
121	0x3fe15171985b9025	0.5411918616996486
122	0x3fdae8aaa8a242d8	0.4204508444609423
123	0x3fdecd27f6b1ddd4	0.48127173510826293
124	0x3ff6f7a041a011eb	1.4354555667388194
125	0x3ff54989afaaaa95	1.330453573415672
126	0x0000000000000000	0.0
127	0x3f922be22650fd8a	0.01774552687515788
128	0x3f8057602bfd337f	0.00797915586704234
129	0x3f69b655ee468d97	0.003138702233813805
130	0x3f71d6043d2768ee	0.004354492719779153
131	0x3f77f6a85291ae8a	0.005850465307144179
132	0x3f728ae67634fcd6	0.004526996842570704
133	0x3f8510b0909b2aa6	0.010285739338902044
134	0x3f7119453ca84351	0.0041744904106203054
135	0x3f5354eccb5e78d8	0.0011799156613743669
136	0x3f78c47e3681d9f9	0.006046765345777854
137	0x3f7cb56cd0a55474	0.007008957918818049
138	0x3f799e25647687b5	0.00625433546466241
139	0x3f6c4e72c98158ef	0.0034553758560306107
140	0x3f73059acdfc6a53	0.0046440169387787665
141	0x3f76e8b963cf6961	0.00559303682254106
142	0x3f628c66aca36a98	0.0022642140730629416
143	0x3f6c6636a82f635a	0.003466707946682507
144	0x3f78182ca5927e3b	0.005882429505760063
145	0x3f92a92bb81b2e89	0.01822346030421199
146	0x3f6ccff652b17b29	0.003517132854127598
147	0x3fdae147ae147ae1	0.42
148	0x3fc851eb851eb852	0.19
149	0x3fd6666666666666	0.35
150	0x3fd6147ae147ae14	0.345
151	0x3fd570a3d70a3d71	0.335
152	0x3fd570a3d70a3d71	0.335
153	0x3fd428f5c28f5c29	0.315
154	0x3fd428f5c28f5c29	0.315
155	0x3fd4cccccccccccd	0.325
156	0x3fd0a3d70a3d70a4	0.26
157	0x3fd051eb851eb852	0.255
158	0x3fd051eb851eb852	0.255
159	0x3fd0000000000000	0.25
160	0x3fcb851eb851eb85	0.215
161	0x3fc0a3d70a3d70a4	0.13
162	0x3fb851eb851eb852	0.095
163	0x3fb851eb851eb852	0.095
164	0x3fb70a3d70a3d70a	0.09
165	0x3fb70a3d70a3d70a	0.09
166	0x3fd9eb851eb851ec	0.405
167	0x3fd70a3d70a3d70a	0.36
168	0xc04060977744fdab	-32.75462237232872
169	0xc03cd13f15eb477d	-28.817368860188697
170	0xc039d3ff16ef2dbd	-25.828111108201245
171	0xc0381aa2f42298e8	-24.10404897541676
172	0xc03691ab8a814443	-22.569023758467903
173	0xc0362a9794d5bffd	-22.166375448403404
174	0xc0362b3e5949173e	-22.168920116753036
175	0xc036a27319f32bbb	-22.634568807475926
176	0xc037499da9af6263	-23.287561993902624
177	0xc03726ad92431c8d	-23.15108598841157
178	0xc0376dcafa8b51e8	-23.42887845898977
179	0xc03735e7df4951ef	-23.210569339180378
180	0xc037ce24afa6e0be	-23.805247286073374
181	0xc03837d03249cfff	-24.218020575543047
182	0xc0392c8dfabc6c7f	-25.174041434289844
183	0xc03a21155654b55e	-26.12923183029249
184	0xc03a627f26c82f0c	-26.384752677796357
185	0xc03b65f8d0e1ca7d	-27.39832788002467
186	0xc03cdf85ed33e42d	-28.87313730732801
187	0xc03f845257066380	-31.5168814077947
188	0xc03fff25a564c78a	-31.996668183426245
189	0x3fec6a3989ddaf35	0.8879668896383693
190	0x40069d940f5ac5d8	2.826942558248202
191	0x3ffc6cde2b724929	1.776579065048802
192	0x3ff8b350ad209061	1.5437781107694024
193	0x3ffc3888ac8ac229	1.7638022174761636
194	0x3ffcb360c413c5f4	1.7937934550540122
195	0x3fffe485cc196b55	1.993291661513202
196	0x4001c21f0f15999d	2.2197858026949704
197	0x4001c7f823469b42	2.2226412540361773
198	0x400081de3e5de183	2.0634121773147753
199	0x4003b7ba56c6456e	2.464710882116086
200	0x4004b0f03d75ae07	2.586395721582224
201	0x40065895ab4fd460	2.793254221318918
202	0x40069ae078e0e2c9	2.825623459208462
203	0x40051ee5c5af2ff9	2.640086693199916
204	0x40037f5bde0a6ca3	2.4371869418078673
205	0x40032b01a02ea749	2.3959991945493226
206	0x4003c24d503eb610	2.46987402621631
207	0x40050b87af39be39	2.6306298913475783
208	0x3ff5755a32004fa0	1.3411504700825176
209	0x3ffb7fe2705ab9e4	1.7187218083232603
210	0xbfecf3a43285a898	-0.9047413813361969
211	0xbff401a69d2b0d07	-1.2504030360585732
212	0xbffe3defa80b73f8	-1.8901211323020544
213	0xbffec08c0d41a427	-1.9220085637882762
214	0xbffdfdf519182ad4	-1.8745013218164575
215	0xbffb43137810c774	-1.7038759889660158
216	0xbffb13177faef3cd	-1.692161082042037
217	0xbffaa701c96c5bf5	-1.6657731884095004
218	0xbffd8e30d5e9f5c1	-1.8472145420085868
219	0xbff97a53a79300f5	-1.5923649354809275
220	0xbffc3e443fa5e260	-1.7652018057107384
221	0xbff774fa5beb5a0e	-1.4660590735053378
222	0xbff017398c633db5	-1.0056701167958242
223	0xbfef895986954316	-0.9855163220000545
224	0xbfc2e7d64452f1c7	-0.14770010315068147
225	0x3fed15a239b2cc47	0.9088908316538288
226	0x3fe5be1e968ebb1f	0.6794579449250228
227	0x3fe8ffeb9f740493	0.7812402834243976
228	0x3fee0b681e91eb6e	0.9388924214430128
229	0x3fe0b36334de0984	0.5218978912892429
230	0x3fdc051dea11e085	0.43781230791456266
231	0x3fe35c47a993603b	0.6050146400475634
232	0x3f6c735fff1a5042	0.003472983830599603
233	0xbfb14827f93b8b64	-0.06750726542263191
234	0xbfa4b97103f46ea0	-0.04047730611111189
235	0x3f08465b7ca769a7	4.6300570449370284e-05
236	0xbf7f171b89acdee7	-0.007590396470554351
237	0x3fb5109ad107b6b8	0.08228461840891554
238	0x3fcfd3ea54eb2913	0.24865464350143238
239	0x3fc5589e02e05c14	0.16676688328217948
240	0x3fd13b7e0cd6bbe7	0.2692561269167854
241	0x3fd78bea43c61d7c	0.36791473978561107
242	0x3fd09a5fde141077	0.25942227065411977
243	0x3fdb4abc221954b6	0.4264364560124919
244	0x3fc489b2880f14ad	0.16045219081403186
245	0x3fc113c0dc491c22	0.13341532474643808
246	0x3fe42f37d83e2cd1	0.6307639335149365
247	0x3fe09d283838908d	0.5191842172685185
248	0x3fdf9d36b389bda6	0.4939705613423605
249	0x3fe0d5e8d747adfe	0.5261120037734484
250	0x3fd6956046e2437a	0.3528671924805661
251	0x3fd211bec1194085	0.28233307702340255
252	0xbfbd2b2cfd2bcb6e	-0.11394005948004146
253	0xbfe228c1b898fa28	-0.5674751859112961
254	0xbfdc84c242f7aa05	-0.4456029561976325
255	0xbfcd8cf7d4941192	-0.23086450462154723
