feat_pickles/3607_B_247.343625_247.906125.wav.npy (npy, 5792 bytes, 1 tensors)

array (column-major) f8 [21, 34]
000000 6e 6c b9 b1 e5 c6 c6 3f 6e 6c b9 b1 e5 c6 c6 3f
       0.17794486215538846 0.17794486215538846
000010 b4 29 d1 a6 44 9b c2 3f 08 5d 21 74 85 d0 c5 3f
       0.14536340852130325 0.17042606516290726
000020 4a b4 29 d1 a6 44 cb 3f 28 af a1 bc 86 f2 ca 3f
       0.21303258145363407 0.21052631578947367
000030 b0 c3 c1 0e 07 3b cc 3f 35 03 d5 0c 54 33 d0 3f
       0.22055137844611528 0.2531328320802005
000040 e8 0a a1 2b 84 ae d0 3f 7c e2 f1 89 c7 27 ce 3f
       0.2606516290726817 0.23558897243107768
000050 f4 cd d1 37 47 df cc 3f 89 36 25 da 94 68 d3 3f
       0.22556390977443608 0.3032581453634085
000060 65 7e 95 f9 55 e6 d7 3f 3c 3e f1 f8 c4 e3 d3 3f
       0.37343358395989973 0.3107769423558897
000070 c2 9f 09 7f 26 fc c9 3f 55 55 55 55 55 55 d5 3f
       0.20300751879699247 0.3333333333333333
000080 e4 13 8f 4f 3c 3e e1 3f a7 d5 9d 56 77 5a dd 3f
       0.5388471177944862 0.45864661654135336
000090 c0 ec 01 b3 07 cc ce 3f 5e 43 79 0d e5 35 c4 3f
       0.24060150375939848 0.15789473684210525
0000a0 d4 7b 51 ef 45 bd c7 3f 09 06 7c 6d 48 62 32 3f
       0.18546365914786966 0.0002805163216948741
0000b0 01 79 19 28 3a dc 53 3f e9 c3 9f 8e 3c db 7a 3f
       0.0012121742187428122 0.006556736518164443
0000c0 24 fb c4 34 d7 cd 91 3f 83 e5 66 48 1c 10 a3 3f
       0.017386782260696468 0.03723228820622195
0000d0 66 c6 2a 75 ce b9 ae 3f 71 c9 1e 09 34 b4 ae 3f
       0.060011340906737584 0.05996859179812731
0000e0 b1 0c 46 5d 99 73 ac 3f 09 6c 59 0e 4d 51 b0 3f
       0.055569450984898856 0.06374055481266806
0000f0 a9 48 9f fe 18 30 ac 3f 7b d0 f5 f9 6d 70 a8 3f
       0.05505445583516295 0.04773276973983883
000100 83 4d 4a 9f 07 d0 a7 3f b2 49 8f 84 b8 86 9c 3f
       0.04650901622258188 0.02785766896324455
000110 e1 88 49 c9 c7 b6 85 3f d7 be c0 aa 67 99 6a 3f
       0.01060253222494051 0.003246977305046399
000120 6e bd 84 ed 6c 5f 6e 3f 64 d6 97 2d d8 14 8a 3f
       0.003707611798880065 0.012735070124999477
000130 57 3b 56 a3 1f 32 93 3f df 59 04 ab 12 de 99 3f
       0.01874589380673383 0.02526120346836957
000140 f3 82 65 94 30 67 94 3f ba 93 d1 a9 9c c5 72 3f
       0.019924887711911542 0.004582988706805341
000150 cd 6a c6 7f e9 ce 09 40 41 97 18 4a 8f 1a ff 3f
       3.2260313017298814 1.943984307706572
000160 3a 28 50 49 27 55 05 40 43 02 ec ed 4c 75 07 40
       2.666578839071943 2.9322756374024563
000170 d7 7e 13 62 cd ac 08 40 33 12 cd 13 40 b0 09 40
       3.084376112194018 3.2110597178418856
000180 d9 65 79 e4 a0 0c 08 40 8e ff 6b d5 69 59 08 40
       3.0061662530467683 3.0436588929732755
000190 1a 5d 65 16 2b 29 09 40 2b ff 49 32 df b5 08 40
       3.1451017141040554 3.088804619677736
0001a0 28 1e c9 a3 25 27 0a 40 3a 83 73 a3 21 dc 09 40
       3.2691147609473497 3.2324860353113793
0001b0 91 1f 5a 34 b3 29 08 40 b9 57 fd 5a eb 31 08 40
       3.020361336708398 3.0243746861042067
0001c0 f2 aa 35 8f 42 3b 02 40 72 90 9f 3d 8e 25 f8 3f
       2.2789355457547282 1.5091688544426032
0001d0 e5 b9 b3 2f 8a 61 06 40 7a 55 14 fd b0 0d 09 40
       2.7976268507693356 3.13168523519806
0001e0 dc d4 64 a8 11 21 07 40 5e b6 f8 e7 95 7e 04 40
       2.8911469608088805 2.5618093607688897
0001f0 45 23 5b f4 47 93 00 40 70 e9 1f f9 bb dd cd 3f
       2.0719145860970536 0.23332929291047888
000200 88 e9 1b 49 85 23 cd 3f 62 c2 9a d1 c0 5b ce 3f
       0.22764650411393128 0.23717508539768334
000210 41 f9 e2 64 b8 f9 d0 3f 44 12 90 bb b9 66 d2 3f
       0.26524171688278747 0.28751986805608376
000220 28 10 93 af cf 91 d3 3f b7 da 96 2a 49 d7 d4 3f
       0.30577461381858706 0.3256400028143775
000230 d9 50 c0 8a 38 f1 d6 3f fd f8 07 d8 27 9d d7 3f
       0.35847295331883583 0.36896701905051527
000240 28 d5 d8 86 c7 cf d6 3f f7 f4 79 56 61 82 d7 3f
       0.35643184822704876 0.36733277745209086
000250 f5 09 bf 43 c8 ea d8 3f 12 ce f8 cb be 21 da 3f
       0.38932997337192826 0.4083096496499091
000260 72 d1 ef 1f ae a8 d9 3f 75 8c 7f 0b 0a f9 d6 3f
       0.4009204208262168 0.35895014880060866
000270 af 5c 6b 31 56 e9 e0 3f 53 3d 88 13 46 18 e2 3f
       0.5284834828588795 0.5654631024826052
000280 a0 21 e2 c8 41 f5 db 3f e2 0a a1 02 75 dc d2 3f
       0.4368442975760676 0.2947056317972693
000290 72 f4 23 dd 24 ca cd 3f df 2d 58 89 69 c4 ca 3f
       0.23273144529221984 0.2091190262438962
0002a0 8a 3e 5c 4c 7d e6 cb 3f df ba be 5b 99 0d ca 3f
       0.21797147968799307 0.2035400102590392
0002b0 f6 ad 71 d8 10 41 c6 3f d3 e7 d4 42 24 d2 c4 3f
       0.17386065071637774 0.16266301406159175
0002c0 7f 02 43 61 56 17 c6 3f c1 1a 4b 0d 01 8f c7 3f
       0.17258720158681126 0.1840516390713756
0002d0 f3 1f c9 e2 90 17 c8 3f 5a 75 2f a0 1e d1 c9 3f
       0.18821917603986513 0.20169432469894383
0002e0 5a 38 d0 05 9f 9f c9 3f a7 9a 37 aa 74 4b cb 3f
       0.2001837519059702 0.21324022590052502
0002f0 6a 53 06 2d 3a 64 cc 3f c1 f7 6d 68 b9 6d cc 3f
       0.2218086929175585 0.22209851836299602
000300 b9 6a 75 1d 19 5a cc 3f b3 30 7d 5c db e5 ce 3f
       0.22149957598124617 0.24138967529359476
000310 fa ad 75 04 4f 31 d0 3f 7a 42 fa e0 30 9c ca 3f
       0.2530095618774052 0.2078915689967465
000320 52 3e 70 53 db a9 c7 3f 30 6b ad 3a 9a 3c d0 3f
       0.1848711163915931 0.25369888048378453
000330 de 7a ff d8 5b 2f cd 3f 6d 88 c8 20 a7 90 ca 3f
       0.2280077752647775 0.20753945446728342
000340 d9 15 0b 4e 1d 22 c9 3f c8 3a d8 60 c1 6a f8 3f
       0.1963535910673915 1.52606332616749
000350 c4 12 fa b0 f3 d6 fb 3f 5d 79 5b 45 67 f5 fd 3f
       1.7399784958990248 1.8724129399557434
000360 27 66 9b 26 e0 5c 00 40 e9 2c 42 09 7b eb 00 40
       2.04534940873852 2.11498076661302
000370 cb 4a 39 d8 ab 7e 00 40 94 1b 75 56 ca 28 00 40
       2.061851205109041 2.019917178582043
000380 f3 e7 f3 40 c8 3e 01 40 9d 7b 65 22 3d 0e 02 40
       2.155655391162321 2.256952542039882
000390 26 04 0d 3b 7c 6f 02 40 b2 50 b5 23 5a ca 01 40
       2.3044361699435454 2.2238047399242413
0003a0 48 76 3f 31 81 83 02 40 a4 d7 e0 67 9e 1d 02 40
       2.3142112586490704 2.2644622912875594
0003b0 56 4a d8 0a af e2 02 40 8a 4f a6 4a 6f fb 00 40
       2.3606854293114266 2.1227708656314848
0003c0 00 a3 17 25 b4 8b 02 40 f7 ad 1c 77 d1 3b 00 40
       2.3182146928633074 2.0292081170680336
0003d0 7e 6f 42 48 a2 d7 04 40 76 22 53 f8 3c 37 00 40
       2.6052899976038466 2.0269717598314925
0003e0 02 6d 22 b3 af 5a f8 3f 80 e4 3c af 0f 9b f6 3f
       1.522140216583296 1.412856754801652
0003f0 00 00 00 00 00 00 00 00 8f c7 22 12 fb e1 76 3f
       0.0 0.0055866057829677815
000400 18 3e 55 8e 4d 58 79 3f 79 b6 2f 38 aa 4b 78 3f
       0.006187727883414172 0.005931534690700618
000410 d6 92 4e 49 19 00 70 3f 74 ad dd cc e8 5d 78 3f
       0.003906344199013664 0.005948933959966641
000420 b3 22 e6 dc 18 bd 62 3f f3 3f 20 1e 5b a6 7b 3f
       0.002287434158635493 0.006750446251331243
000430 d2 74 9d 3a 4d 23 78 3f 4c dd 35 8a 2e 78 72 3f
       0.00589304130138864 0.00450914554254862
000440 43 7f dc a5 19 38 7d 3f b8 c6 b4 21 a8 02 73 3f
       0.007133579432576034 0.0046412055628920965
000450 62 81 3d 29 75 77 72 3f 04 74 2d b0 a5 55 79 3f
       0.0045084549527419655 0.006185195178514572
000460 1e 1d a3 7f bb e8 77 3f 0a 37 09 d4 62 86 89 3f
       0.005837185303057239 0.012463352294755054
000470 90 10 0f 54 56 01 6d 3f 60 91 21 5f 10 a7 75 3f
       0.003540676698749641 0.005286277724824678
000480 81 19 b6 13 45 2d 7d 3f f2 1d 10 e0 b7 b1 6f 3f
       0.00712325080110643 0.00386892235883684
000490 12 dd af a4 e6 30 76 3f 52 b8 1e 85 eb 51 d0 3f
       0.0054177293304669295 0.255
0004a0 f6 28 5c 8f c2 f5 d0 3f 33 33 33 33 33 33 d3 3f
       0.265 0.3
0004b0 66 66 66 66 66 66 d6 3f 9a 99 99 99 99 99 d9 3f
       0.35 0.4
0004c0 9a 99 99 99 99 99 d9 3f 33 33 33 33 33 33 db 3f
       0.4 0.425
0004d0 66 66 66 66 66 66 de 3f 7b 14 ae 47 e1 7a e0 3f
       0.475 0.515
0004e0 ec 51 b8 1e 85 eb e1 3f b8 1e 85 eb 51 b8 e2 3f
       0.56 0.585
0004f0 e1 7a 14 ae 47 e1 e2 3f 5c 8f c2 f5 28 5c e3 3f
       0.59 0.605
000500 5c 8f c2 f5 28 5c e3 3f 33 33 33 33 33 33 e3 3f
       0.605 0.6
000510 3d 0a d7 a3 70 3d e6 3f 3d 0a d7 a3 70 3d e6 3f
       0.695 0.695
000520 14 ae 47 e1 7a 14 e6 3f 29 5c 8f c2 f5 28 dc 3f
       0.69 0.44
000530 0a d7 a3 70 3d 0a c7 3f 7b 14 ae 47 e1 7a c4 3f
       0.18 0.16
000540 79 d9 e3 d2 91 7d 3c c0 01 5b 31 86 62 7e 3a c0
       -28.49050634443981 -26.493690859841994
000550 df 4d b6 54 c4 99 38 c0 1f 3d 57 c9 bf f7 37 c0
       -24.60065202189241 -23.967770179556393
000560 7f 8e b4 8b 4b be 36 c0 c1 74 59 71 ec f2 35 c0
       -22.743340236264427 -21.948920330371724
000570 7c df 49 99 c8 09 36 c0 bb c1 8d 23 45 91 35 c0
       -22.038217144523045 -21.567461225613197
000580 c8 1d e8 4d 6b 71 35 c0 8a df 52 02 ab 41 35 c0
       -21.44304358403113 -21.256515641434397
000590 e2 16 91 12 95 ce 35 c0 cd bf da e2 73 f9 35 c0
       -21.806962166235174 -21.97442453232343
0005a0 9d c9 e7 6d 4e df 36 c0 ff 22 12 57 74 59 38 c0
       -22.8722904864204 -24.349431459358126
0005b0 a1 70 a0 4e e2 3a 3a c0 f1 13 7f 50 06 6f 3a c0
       -26.230015672845756 -26.433690100693585
0005c0 8c 46 dd ed e4 dd 39 c0 79 35 3f 00 56 99 36 c0
       -25.866774431726796 -22.59896852057634
0005d0 e0 9e 12 64 0e 27 36 c0 94 81 56 fb 7e c7 36 c0
       -22.1525633378468 -22.779281338329
0005e0 a7 a5 53 16 28 02 39 c0 ae 26 14 d0 44 4b 02 40
       -25.00842418234029 2.2867523437642694
0005f0 b2 80 da 2f a1 e2 04 40 8d 70 3d 75 42 1f 03 40
       2.610659002166437 2.3902634772658247
000600 9a a7 32 a7 7b 4b fb 3f 8f d4 37 ff 02 86 f3 3f
       1.7059284716765206 1.2202177018600968
000610 41 06 4a e5 2a ea eb 3f c2 1b d1 e7 14 bb d2 3f
       0.8723349073699823 0.2926685584865788
000620 ca c7 42 c7 39 54 8a bf 96 0b e3 0b b1 2c d3 bf
       -0.012855960267504591 -0.29960275803403513
000630 b3 27 2e 79 63 ea d8 3f fa 83 da 66 ba f2 e2 3f
       0.38930594285977377 0.5921298989161408
000640 cb a9 5d 96 6a 19 e8 3f dd b9 77 6d 74 15 ee 3f
       0.7531025826295318 0.9401189935722943
000650 11 52 f7 31 e1 ea ec 3f 38 ff 92 70 83 c5 f4 3f
       0.903671834554702 1.2982210538320498
000660 d1 c5 5e 4f 12 d7 ed bf 8e b9 0a 64 f7 73 ff bf
       -0.9325038480948767 -1.965812102116249
000670 33 5a f2 85 18 df e0 3f c5 ff da 1e 4a 99 f9 3f
       0.5272333732744471 1.5999242024699794
000680 33 e7 4a 4f fa 13 04 40 50 62 c5 44 e2 45 07 40
       2.509754771684038 2.9091229794251277
000690 08 92 9a 5f 6f ee e4 bf 51 f2 a1 b6 fd 01 eb bf
       -0.6541058413754977 -0.8439930502932588
0006a0 e5 aa 0b 76 53 60 f7 bf 6a dc eb ea 55 75 fe bf
       -1.4610170947223022 -1.9036463905920535
0006b0 75 81 5d a7 b5 77 fb bf 7d f4 b2 3c 11 b0 f6 bf
       -1.7167259729104363 -1.4179851885849353
0006c0 24 d1 be f2 28 0b f6 bf 88 99 d9 de c6 54 f1 bf
       -1.3777245981446606 -1.0831974701955875
0006d0 59 c1 90 91 83 be f1 bf cd 4f 1d b3 01 1a e0 bf
       -1.1090121923590088 -0.5031746385889108
0006e0 94 56 00 75 b9 81 ce bf 0d c0 32 2b 05 18 cf 3f
       -0.23833387577967768 0.24292053803719718
0006f0 c7 0b 50 0e 56 bb eb 3f 3d 72 10 de ec af f2 3f
       0.8666181830925489 1.1679505037674425
000700 03 3a 2b 74 43 f4 f2 3f 4a 79 82 25 a1 63 f7 3f
       1.1846346414419038 1.461823603174326
000710 ac 71 49 71 1b f5 ed 3f f6 9f 0d f3 55 94 d8 3f
       0.936170312179049 0.38405369506517617
000720 da 80 d3 de a5 07 d8 bf a7 23 d4 d7 9e e7 e0 bf
       -0.37546679268235794 -0.5282739844707195
000730 ba 2f 03 c1 55 d7 cc bf e4 f6 ee f2 00 0c d6 3f
       -0.22532150196491135 0.34448264812441054
000740 b5 57 cb 69 ad 4b d4 3f fd 0d 40 51 68 cf df 3f
       0.317118981661561 0.49703414854613454
000750 11 52 7c da 88 34 e4 3f 1f ec 97 35 cf 76 e1 3f
       0.6314129130647094 0.5457531019923215
000760 4c 6c ca d6 86 b5 d9 3f 57 b0 d6 bb 69 3a ce 3f
       0.4017045114102913 0.23615762397583026
000770 66 11 b9 d8 2f 66 8e bf c9 cc b4 09 78 9e ce bf
       -0.0148433435453021 -0.23921108697832086
000780 de dd 92 c9 5c 5c ca bf 02 4c e3 79 34 7d f2 bf
       -0.20594367830720633 -1.1555676232571845
000790 21 b3 fb 8d 07 bd f2 bf f0 b3 0f 63 43 e2 f2 bf
       -1.17114978277386 -1.1802400464614458
0007a0 98 bf c3 af ad 1e e4 bf 17 56 82 f4 6a 52 e2 bf
       -0.6287449295905274 -0.5725607657975073
0007b0 82 56 17 f3 4f 16 ca bf 45 7c 70 d9 fe 57 dc bf
       -0.20380591745076876 -0.4428708194190601
0007c0 81 2c 53 fd 23 84 e9 bf b5 4e c7 0b 5d c0 da bf
       -0.7973804424049292 -0.41799093389748104
0007d0 6c 48 8f 29 da 10 ca bf cb 02 83 b4 b5 bd c8 bf
       -0.20363928822786492 -0.19328948320437286
0007e0 bf 1c c4 46 14 d1 a1 bf 76 8a 12 a0 e3 c6 d4 bf
       -0.034798272741733076 -0.32463923103401926
0007f0 03 29 83 a0 2a 08 e7 bf 28 60 bd fb aa fd ec bf
       -0.7197468886381845 -0.9059653202812159
