feat_pickles/3801_B_19.87725_20.16725.wav.npy (npy, 2800 bytes, 1 tensors)

array (column-major) f8 [10, 34]
000000 e4 a4 91 93 46 4e ba 3f 7c e2 f1 89 c7 27 be 3f
       0.10275689223057644 0.11779448621553884
000010 f8 33 e1 cf 84 3f c3 3f 1a 39 69 e4 a4 91 c3 3f
       0.15037593984962405 0.15288220551378445
000020 f8 33 e1 cf 84 3f c3 3f 70 1f c1 7d 04 f7 c1 3f
       0.15037593984962405 0.14035087719298245
000030 92 24 49 92 24 49 c2 3f e8 0a a1 2b 84 ae c0 3f
       0.14285714285714285 0.13032581453634084
000040 28 af a1 bc 86 f2 ba 3f 7c e2 f1 89 c7 27 be 3f
       0.10526315789473684 0.11779448621553884
000050 04 e3 0a ae be d5 b5 3f ae 59 29 34 ef 2c b6 3f
       0.08529273747525329 0.08662314437365268
000060 dc 2f 6a df f2 3f b3 3f df bf 78 eb 8b 6f ad 3f
       0.07519453005278315 0.05749165772829178
000070 bb 04 ed 9c 5e 6b ab 3f ad 83 80 39 60 4f ae 3f
       0.053553539901721924 0.05919933988503288
000080 4d 1e 35 30 89 23 b0 3f 12 ea a3 e9 fd fa ad 3f
       0.0630422346777035 0.05855554081968618
000090 2d f3 e6 b8 38 79 ae 3f a6 5c d2 0e e4 6b b3 3f
       0.059518597193778035 0.07586503373964834
0000a0 c2 14 c6 94 2d 30 0a 40 9d 4d 68 66 59 31 0a 40
       3.2735244391393232 3.274096298273163
0000b0 70 4d d0 82 e8 09 0a 40 85 7b d8 c3 c9 0d 0a 40
       3.2548380107706905 3.2567324924888816
0000c0 99 56 3c b4 3b c4 09 40 0d de 8e 81 79 cd 09 40
       3.2208170014299182 3.2253294107174555
0000d0 f1 0f fa 1b 0b f4 09 40 53 b1 73 93 4c 9b 09 40
       3.244161814278407 3.2008296508485414
0000e0 7c 30 8a 5c ce 8d 09 40 ad 05 a8 48 e3 0d 0a 40
       3.194241259543615 3.25678116572154
0000f0 a4 c5 23 5a b4 ea c9 3f 44 3e db 60 0a 1b cc 3f
       0.20247511292795395 0.2195752118045552
000100 a7 5e 3b b0 a3 0b d0 3f 0b b6 96 09 f9 b5 d2 3f
       0.2507104130759025 0.29235673843763327
000110 ef 77 52 98 9e 95 d0 3f d3 cc af 54 ab e2 ce 3f
       0.259132050277798 0.24129239688008983
000120 12 10 3e f5 a2 b8 cc 3f 93 b3 4f ae d5 a6 ca 3f
       0.22438466047981415 0.20821639071746442
000130 6d 20 99 eb c9 6c c9 3f a6 d1 de ff a1 de ca 3f
       0.198632469213638 0.20991921418830123
000140 f4 50 0d 4c 7c 39 c9 3f f5 ef 2a 7a 54 7a c8 3f
       0.1970668193195092 0.19123321500035187
000150 a9 6f 19 17 6d 3f c8 3f ce e5 d5 71 6b ff cb 3f
       0.18943561199091377 0.21873229082466
000160 09 3b 08 1e 2e 8a c9 3f e5 03 9b d7 c6 3f c7 3f
       0.19952942339337934 0.18163381126035386
000170 f1 13 58 8d 58 1c c6 3f 91 c8 d8 a8 3f c8 c5 3f
       0.17274004842343474 0.1701736044356648
000180 dd b4 da fc 67 0d c5 3f b0 ef e6 66 16 3c c8 3f
       0.16447162481691793 0.18933372520939207
000190 f6 f1 af af 56 57 f4 3f 4e 7c e1 18 3e 25 f6 3f
       1.2713229048523522 1.3840924236208312
0001a0 dd 8f 0c b3 fd 23 f8 3f 5f 0f 88 f5 cd a4 fc 3f
       1.5087868684868149 1.7902354804109206
0001b0 5b ad 7c 79 d1 23 fd 3f a2 f4 d4 e6 e6 2d fd 3f
       1.8212446923815466 1.8237065331334539
0001c0 d4 04 78 af f1 b3 fc 3f 06 52 64 e0 5d 44 fb 3f
       1.7939316610575604 1.7041910901363067
0001d0 b5 cf 1a 1e 92 bf f9 3f 48 6b bb 03 cd 75 f8 3f
       1.6092702079740608 1.5287599702630406
0001e0 00 00 00 00 00 00 00 00 ad 52 03 a9 8d 1d 92 3f
       0.0 0.017690862122281704
0001f0 02 cc 54 85 46 0c 71 3f 81 0c d5 71 8e 38 6e 3f
       0.004162097427342639 0.0036890775797089885
000200 bc 2b 7d c1 fe d3 6d 3f fc b1 5f eb ac 1d 7d 3f
       0.0036411262225661527 0.007108378855246841
000210 12 3a 03 f5 b9 5e 60 3f 58 00 82 ab 10 32 54 3f
       0.001998294064925029 0.0012326395790580782
000220 d1 5f 8c 1c 73 0e 69 3f e2 84 08 b6 44 46 7e 3f
       0.0030586479446234956 0.007391231920821558
000230 52 b8 1e 85 eb 51 c8 3f 00 00 00 00 00 00 c0 3f
       0.19 0.125
000240 1f 85 eb 51 b8 1e c5 3f ec 51 b8 1e 85 eb d9 3f
       0.165 0.405
000250 ec 51 b8 1e 85 eb d9 3f 00 00 00 00 00 00 d0 3f
       0.405 0.25
000260 5c 8f c2 f5 28 5c cf 3f 00 00 00 00 00 00 d0 3f
       0.245 0.25
000270 00 00 00 00 00 00 d0 3f 00 00 00 00 00 00 d0 3f
       0.25 0.25
000280 15 ca 03 b3 b8 45 36 c0 20 03 e4 1e 04 14 37 c0
       -22.2723495373012 -23.078187876383822
000290 c7 39 b5 54 ac 8b 36 c0 4a 4e 53 03 3c 52 36 c0
       -22.545598310703806 -22.32122822555383
0002a0 44 1b 79 e2 6a 01 36 c0 0b ad 09 39 29 1f 36 c0
       -22.00553718048765 -22.121722760069172
0002b0 22 77 74 fa 6b 69 36 c0 9b fb d1 3b 80 e8 36 c0
       -22.411803868707587 -22.90820669056448
0002c0 ea a3 d1 ec b5 10 37 c0 bc 05 5b 56 59 a6 36 c0
       -23.065275956327163 -22.649800679418817
0002d0 fb c3 b5 71 18 45 09 40 98 6b 24 6e ce f6 01 40
       3.1587380298228687 2.245510921942195
0002e0 15 24 48 37 47 ce f8 3f 54 13 82 3d 55 5c f3 3f
       1.5503608855672202 1.2100422289524504
0002f0 36 6d c2 f3 52 ee fe 3f ab eb b6 83 e7 ad 00 40
       1.9331845781187673 2.0849142351339274
000300 c8 bf a9 32 f7 de 02 40 3a 8d 72 37 95 9b 05 40
       2.358869930081685 2.700968201812114
000310 6e 33 80 b4 3e 58 08 40 15 4e 13 16 40 8d 05 40
       3.043088350450879 2.693969891037123
000320 59 51 ac 7a 19 64 ee bf d0 3c e8 4c 1b 2e f2 bf
       -0.94971918067544 -1.1362565044581068
000330 6a 06 78 9d cc d0 f0 bf 11 e1 09 bf 6c 76 e7 bf
       -1.0509763861777182 -0.7332061511251898
000340 8e 8c 77 8e 2e ee e8 bf 46 c8 3f dd a7 11 eb bf
       -0.7790749342497223 -0.8459052392265753
000350 ea bf 3d fb 40 ed f0 bf 43 9e 8e 90 19 aa f1 bf
       -1.0579232992276908 -1.1040282866250812
000360 2f a8 d0 69 71 36 f5 bf 25 42 21 76 02 96 f3 bf
       -1.3257917531395937 -1.2241234411668611
000370 22 f5 56 d3 79 88 e8 bf 07 30 c6 63 98 4a cd 3f
       -0.7666596534469685 0.22883896705423032
000380 7d 59 3c ab d4 0a af 3f 99 46 82 20 53 ca b9 bf
       0.06062950697212253 -0.10074348014520708
000390 75 8f 1b 06 6e 05 d5 bf cd 00 2e f3 a0 22 dd 3f
       -0.3284564075131507 0.4552385687639003
0003a0 73 33 cd a6 79 65 e1 3f 40 d6 69 c9 01 1b e0 3f
       0.5436371095507709 0.5032967504363981
0003b0 22 8f 45 33 8e 82 d5 3f 6c df e3 6e 3a 83 b6 bf
       0.3360934735012383 -0.08793988425520433
0003c0 3c 30 1d d7 7b 8d ac bf bd 41 6c 5e 4c 52 9b 3f
       -0.055766935357127484 0.026681130660166853
0003d0 cc 97 eb 1f b7 2d f2 bf 34 97 50 9b 6f 1e e7 bf
       -1.1361609694372303 -0.7224653275959327
0003e0 91 fe 26 06 af e6 e3 bf ec 7e 21 e6 8f f9 e3 bf
       -0.621909629837278 -0.6242141241782213
0003f0 ca b7 8c 73 15 6f be bf 28 9e be 89 3d 32 dd 3f
       -0.11888250418698401 0.4561914296304814
000400 a4 b9 40 ea 1d f2 e9 3f b4 83 4c a4 2d 39 da 3f
       0.8108052802324903 0.4097398857575698
000410 6f 97 b7 69 43 7e c7 bf ed 25 45 5f 0b 7f e7 bf
       -0.18354075109453613 -0.7342583523506484
000420 3e ec d7 4f f9 d2 b9 3f 4f 0b 15 11 63 a4 e4 3f
       0.10087545584967558 0.6450667699467462
000430 a9 c7 73 9c c9 6f e7 3f bf 3a 74 27 76 02 d6 3f
       0.7323959403713519 0.34390024044925477
000440 ed 06 bb 7e ee ae a0 3f 97 65 7a 4c 41 b1 d6 bf
       0.03258462235454638 -0.35456879108968437
000450 44 63 a7 2e 0d 13 d1 bf ec 4f 63 60 de e8 97 3f
       -0.26678781086006986 0.02334926093392646
000460 5f 20 95 b4 94 b7 d6 bf da 86 a5 53 32 1c b6 3f
       -0.3549548877240393 0.08636774580147791
000470 36 27 0e b4 38 a9 cc 3f a8 ad 06 fc 13 02 c2 bf
       0.22391423026811602 -0.1406884174915437
000480 39 d4 bb 3e 69 34 e6 bf 63 78 5e 55 15 c3 df bf
       -0.6938978410022464 -0.4962819417650108
000490 e4 bc 6e 94 84 64 dc bf 61 5b 1c 5e 73 59 d6 bf
       -0.4436351251160444 -0.3492096346903307
0004a0 89 1f b7 2f c2 3b a2 3f 9c 93 a8 c4 ee c9 d3 3f
       0.03561217148268187 0.3091999931805789
0004b0 48 0b 79 74 d0 91 bd 3f 6a ab 66 12 df 54 d7 3f
       0.11550619929861938 0.36455513760545577
0004c0 2f 08 b4 94 11 91 c0 3f e7 9c ec cb 27 e4 bb 3f
       0.12942714463139413 0.10895012596721508
0004d0 88 d5 3a ec 98 ff 95 3f 65 5c fb cc 0f b5 c2 bf
       0.021482839029621142 -0.14615056523209372
0004e0 69 da 85 26 65 9c df bf 3a a0 16 c9 a3 4a db bf
       -0.49392060052870207 -0.42643065106904354
0004f0 5b 68 aa 4c b3 97 e0 bf b9 57 12 00 d0 26 d8 3f
       -0.5185181138397285 0.37736892706868336
000500 69 10 6d 0c c0 c5 b9 3f d9 a7 1c d8 5d 30 c9 bf
       0.10067367843027032 -0.1967885308488906
000510 4e 34 4d a2 b6 06 54 3f 53 76 c0 1e 5f 09 be 3f
       0.0012223037276328954 0.11733049870277883
000520 ad fe 8d 18 1f 78 cd 3f 1b b6 54 32 2a ba cf 3f
       0.23022831629713406 0.24786879975856455
000530 6e 36 d8 0c dc 9c d6 3f 01 b3 58 34 30 22 c3 3f
       0.35332394842485015 0.14948084407787834
000540 b9 3b b6 ef be 87 df bf 8c f7 dc cd 65 2d b1 3f
       -0.4926602688728355 0.06709896350818506
000550 31 4d 6f ae a4 87 d4 bf 79 5b 1d 14 61 0c c2 3f
       -0.32077900919576324 0.14100278360521282
000560 ab 18 13 be 15 9a d4 bf eb 67 be b4 be 58 d1 bf
       -0.32190459787342246 -0.27104156161078546
000570 67 7d eb cb 21 5c bf bf 16 8a 64 6e 8a 31 90 3f
       -0.12249957302582502 0.01581398295196309
000580 05 09 63 55 1f ba d3 3f 7e de c0 71 ae 63 da 3f
       0.30823500956115907 0.41233407124261834
000590 7e 90 24 e7 7e 2f cf 3f 58 3b 66 03 07 9a c8 3f
       0.24363695417662606 0.1922005430792193
0005a0 9a 33 58 bc 16 ca cb bf 04 95 5b fc 14 e5 d8 bf
       -0.21710476109037985 -0.38898205417929455
0005b0 28 52 6b 2d ba 98 d6 bf 4e 23 ea e4 b9 c9 c3 bf
       -0.35307173190566 -0.15459369351835978
0005c0 ec 39 9f f4 44 89 c3 bf 15 47 68 92 ad 22 d2 bf
       -0.15262662834579943 -0.2833665780791404
0005d0 94 37 b5 ef 3a ea d1 bf 53 c3 77 11 d6 03 b2 bf
       -0.2799212780854472 -0.07037103582821418
0005e0 c6 c9 7e a4 e7 6a dc 3f ee f2 31 b0 eb b1 c8 3f
       0.4440249544524274 0.1929297075584126
0005f0 2a 20 c2 1c 02 60 b8 bf 49 72 29 a9 ad 62 d1 3f
       -0.09521496965510381 0.2716478492709809
000600 2b fd e5 b0 28 c2 d4 3f 11 51 4c e7 4a df c6 3f
       0.3243505218051321 0.17868934911587833
000610 df 30 44 f0 45 a9 b5 3f a9 fb a3 2d 5e e8 be 3f
       0.08461415401342574 0.12073315252562956
000620 1f 7c cc 07 84 ca af bf f4 45 3a 38 3c b9 cf bf
       -0.06209194750976387 -0.24784043069352857
000630 56 22 53 6b 53 41 ce bf bd 5c 37 d2 08 25 d8 bf
       -0.23636858692613555 -0.3772604039090302
000640 b9 ac db 08 c5 b6 cf 3f 94 e6 bc 23 f9 f5 e5 3f
       0.24776518757366775 0.6862760255819063
000650 e4 46 2d 17 91 c2 c4 3f 2a a7 80 04 e4 a0 a7 bf
       0.1621877062958027 -0.046149373578670286
000660 71 db 51 1b e5 3d d6 bf b8 6a 2b c6 31 ba ce bf
       -0.3475277678293685 -0.2400572030663477
000670 38 4e 78 6f 54 c1 c8 bf 2a a2 db 5c 0b f0 a0 bf
       -0.19339995806568466 -0.033081393323133604
000680 a1 d9 bd 00 ec b5 cb 3f 38 6f e4 ce 17 8b bc bf
       0.21648931537829433 -0.11149739075738985
000690 7d 22 3b d2 ff f1 5d 3f 5e b6 b7 cb ee 27 2f 3f
       0.001827716660885908 0.00023770132052851589
0006a0 79 89 04 58 d9 49 59 3f 34 dd bb 3d 9c b4 84 3f
       0.0015434858797297153 0.0101101118411707
0006b0 07 b3 dd b3 b6 7a 87 3f 75 f4 b5 db 06 9b 6e 3f
       0.011464526523661712 0.003736031908998567
0006c0 04 65 fa 80 b7 77 68 3f bf 89 4b 3a f9 d8 67 3f
       0.002986772924327698 0.0029110782364664962
0006d0 68 0d 11 49 1d 25 63 3f f5 a1 7a 73 9e d9 61 3f
       0.0023370334606924066 0.0021789641139842116
0006e0 81 b5 9d f4 7e dc 77 3f e3 f8 f7 cd bc a3 3e 3f
       0.005825515670819016 0.00046752318846178374
0006f0 44 fa 66 53 60 d6 3d 3f 3a be cd 2f 76 9a 4e 3f
       0.00045528270439013454 0.000933940609327117
000700 9d 45 d1 52 b8 2f 65 3f 45 17 03 77 d8 45 52 3f
       0.0025862312382193956 0.001115285293097527
000710 18 19 10 37 a7 65 49 3f 3d a9 02 c3 a6 9e 43 3f
       0.0007750574569634098 0.0005987467066195584
000720 45 3d 10 9c 15 4b 0e 3f a3 0a b4 93 d7 33 3a 3f
       5.7779881451942276e-05 0.00039981854543228774
000730 b6 a2 7b 6d 65 d8 a2 3f 7d 5c b6 90 aa 90 be 3f
       0.03680722199880419 0.11939493210808112
000740 6a af 6c a5 50 94 bd 3f 1b 92 78 62 95 b5 b5 3f
       0.11554435766873686 0.08480199483944555
000750 07 ef 06 66 46 f1 a7 3f 94 47 e1 65 ca 46 81 3f
       0.0467626571221143 0.008435803636675655
000760 11 f2 94 34 7b 91 72 3f 80 55 ad 64 b9 42 61 3f
       0.0045332730017517845 0.0021070118868162235
000770 da bf 6a 8a 9f 3d 60 3f 62 ba 71 7b 27 fc 70 3f
       0.00198250923434527 0.00414672301040628
000780 b7 43 c6 c8 7d f9 7c 3f b2 a6 58 7b d1 8b 81 3f
       0.007073870987725542 0.00856746347115531
000790 1e 63 2b 40 9c 9c 86 3f 3a 7d 63 ea 98 fc 7f 3f
       0.01104089804486957 0.007809254957663209
0007a0 dd ae b1 91 09 32 80 3f 38 7c 76 00 8c 82 9a 3f
       0.007907938727121639 0.02588862183403881
0007b0 bd 6a 6b d7 61 b8 96 3f 82 be 1a 9e 1e e5 9d 3f
       0.022187737248581686 0.029194334411555285
0007c0 e3 99 83 45 8e 1d a8 3f 5f f2 b3 0d 72 7c b1 3f
       0.04710049246368777 0.06830513796371339
0007d0 47 dc 1e 8a e0 19 6f 3f 74 66 1a a9 0d bf 57 3f
       0.0037965188539277636 0.0014493592647454564
0007e0 0a 67 6b 33 96 97 62 3f 39 07 bf 3d e7 47 5d 3f
       0.0022695478067874574 0.0017871626105123285
0007f0 5b 70 eb 17 93 2f 5b 3f 25 05 6a b9 4b 08 5a 3f
       0.0016592918834055423 0.0015888919348586242
